src/model_weights.pth (torch, 131013 bytes, 10 tensors)

lstm.weight_ih_l0 f4 [200, 6]
00000000: cf8d 083e 1f60 1abe f817 dd3d f92b 003d
00000010: 67c9 e93c 9656 603b e4b0 acbd fdc0 833d
00000020: c661 c9bc 83d2 003e 332a 6c3d a0f5 d5bd
00000030: eb96 043d 345b 243e 0e41 13bc b35b bb3d
00000040: 10ae bbbd 43c9 e83d ddd1 693d 8154 0cbe
00000050: 70e2 253e e912 10bd aa5f 2839 652a 0fbe
00000060: 0bf0 a5bd 7392 2b3e ee3f 6cbd a659 abbd
00000070: a6b4 4d3c 9927 19be 2e9b 2fbc 972d b1bc
00000080: 581a 353e 59a4 8dbd 348d 02be fb65 033e
00000090: 9e0a 1bbe 4bcf ddbd 8b4c fa3d ca71 a23d
000000a0: 356e 2abe 7366 c6bd e0ad 05bd 3c2c 2bbe
000000b0: cf7f 383d ec9a 843d 7e38 113e a4e2 21be
000000c0: 6392 b7bb cfcd 19be 5e8c 3f3c 6888 b03d
000000d0: 7c8e 07be 74bc 963d b0d7 a1bd 13aa a4bd
000000e0: 6cf6 eebd df8c 89bd 2e90 80bd 8721 00be
000000f0: a068 273e 710b ccbd c2e5 eebd d865 18bd
00000100: d82c 093c cda9 2dbe 03f0 8e3d ac2e bb3d
00000110: 67b5 1e3e 9530 bd3d 163c 143d c46e a73d
00000120: b61f fabd 6506 f53d 7363 af3d afdc 35bd
00000130: 48f5 f83c 7671 f73b f2c5 133e 8308 1a3e
00000140: 69d9 bebd 5ee4 5b3d 01be 23be 832c d43d
00000150: 150f 1ebd ef36 e7bd f730 db3c c6b3 a7bd
00000160: 5ddb 003e b22c 17bd 40c2 b7bd d863 02be
00000170: c737 12bd 2c6a 2d3e f838 59bc a8b7 abbd
00000180: 8ec6 ee3d c23d 193e ed33 8bbd 89d6 7ebd
00000190: bffa 6c3b 765c 0bbe 03d4 91bc 48aa 9d3d
000001a0: d958 0b3d 2e42 a23d a619 b3bd fcf9 eabd
000001b0: d480 023e a6cb e93d eddf e3bd 6574 ebbd
000001c0: 5696 963d 7fde d83d f2d7 bbbc 436f 0dbe
000001d0: 4872 9fbd da5c 083d 1a9f 273d fe0f 80ba
000001e0: 24a2 8bbc a0ba 153d 9f02 07bd 675a ba3d
000001f0: e5cd 0b3c 6afd a2bd 38a4 c73d 89a4 01be
00000200: 792d e1bd cff4 103e 1dcb 00be a20b 66bd
00000210: f5a7 f4bd 9070 23bd 5afe a6bc 2298 e43d
00000220: edc5 163e eba8 0ebe c2b4 723d f424 aebd
00000230: 0f53 3abc 2aae 7cbd 4589 953d 3473 1a3e
00000240: 45f4 b2bd c4c6 20be 70ae 273e 5cbb fc3d
00000250: 73c9 00be 40ba f4bd d41d 6738 2880 7ebd
00000260: 2ffc 29be 5073 b33c 86b5 e43d 3dc2 1fbe
00000270: eb55 4ebd f1d8 8a3d abe8 d83d 64db 1a3e
00000280: 618b 5e3d 0067 11be e840 26be 82d2 063e
00000290: 69c6 0b3e ec68 643d 2f55 253d 1342 47bc
000002a0: 07f7 83bb af71 113e 91fc a7bc f513 98bd
000002b0: 4997 04bc c37c 1fbd 9643 15bd e464 cb3d
000002c0: 8cce 163e 8a4a 51bd 5709 4b3d b394 783c
000002d0: 4b70 eb3d ed2b 903c 06d0 ccbd 003c b8bd
000002e0: 6b0b fb3d 6103 4a3d b865 013e 66c9 e3bc
000002f0: 47e7 bb3d 3884 cebd 062f 8bbc a75c 44bd
00000300: 9b8a fbbd 5fb9 0ebe 40f0 283e f50b a9bd
00000310: 7879 91bd bcab 4a3d d51e 653d 22ff 453d
00000320: 80e8 14bd 0b9a 13be 8916 1dbe 94c6 c43c
00000330: b373 c9bd 4212 13be 7f82 7abd 32c7 523d
00000340: ad9c b73d 1649 8cbc 9695 113d 9c1a 2cbd
00000350: f2df b6bd 551d 8dbd 2051 e8bd 31b0 0bbe
00000360: e32e 1c3e 1bf2 abbd 9d49 c9bd 0e86 0b3e
00000370: 68d8 163e 5969 8a3c b8d9 f4bd 852d ddbd
00000380: 47e2 b5bd 1563 db3a 8c6f 953d 3751 ae3d
00000390: f5c8 cabc 37a5 bd3d a765 1b3e fa1f bc3d
000003a0: 2a7a b5bd 07c0 9cbd ec2a 8c3c 2c1f 17be
000003b0: 2bd0 15be 2d36 19be d0ed 013c f00c 0bbe
000003c0: 0306 1bbe 85e9 183d 7b32 1abc d76f 553d
000003d0: 81db 013e bdba 63bd d8d6 dabd fda5 7dba
000003e0: a587 12be ba4c 0c3e 8c76 ee3d 92e1 28bd
000003f0: 45b2 bfbd 129c 0e3e 9434 c93d 7c54 b9bc
0.13335346 -0.1507573 0.10795587 0.031291936 0.028538419 0.0034231297 -0.08432177 0.06433294
-0.024582755 0.12580304 0.05765743 -0.1044724 0.03237049 0.16050416 -0.008987678 0.091483496
-0.09164059 0.113665126 0.057084907 -0.1370411 0.1619966 -0.035174284 0.00016057366 -0.13981016
-0.08102425 0.16755085 -0.057678156 -0.083667085 0.012555277 -0.14956512 -0.01071815 -0.021628184
0.1768583 -0.069161125 -0.12749177 0.12831871 -0.15140769 -0.108305536 0.12221631 0.0793186
-0.16643603 -0.096875094 -0.032636523 -0.16716093 0.045043763 0.064748615 0.14181706 -0.15809113
-0.0056021675 -0.15019916 0.011691181 0.086197674 -0.13237947 0.07360163 -0.07902467 -0.080402516
-0.11668095 -0.06716322 -0.062775 -0.1251279 0.16348505 -0.0996312 -0.116649166 -0.0372065
0.008372508 -0.16959305 0.06979372 0.09139761 0.15498887 0.09237782 0.036190115 0.08175424
-0.1221308 0.1196411 0.0856389 -0.044399913 0.030390397 0.0075513674 0.14430979 0.1504231
-0.093188114 0.053684585 -0.1599045 0.103600524 -0.038588602 -0.112897746 0.026756747 -0.08188586
0.1258368 -0.03690786 -0.08972597 -0.127334 -0.035697725 0.16935033 -0.013258211 -0.08384639
0.11658965 0.14964965 -0.067970134 -0.062216315 0.0036160199 -0.1360949 -0.01780129 0.07698494
0.03402028 0.07922779 -0.087451264 -0.11473462 0.12744457 0.11415796 -0.11126695 -0.1149681
0.07352893 0.10589313 -0.02293012 -0.13811974 -0.07785469 0.033291675 0.040923215 -0.0009770391
-0.017045088 0.036554933 -0.032961484 0.09099274 0.008532976 -0.07958491 0.09748119 -0.12660421
-0.10995001 0.14155887 -0.12577482 -0.056163438 -0.11946098 -0.03990227 -0.020384956 0.111618295
0.1472394 -0.13931625 0.059254415 -0.08503142 -0.011372342 -0.061689533 0.07301573 0.15083009
-0.08737997 -0.15700823 0.16375136 0.123404235 -0.12576847 -0.11949587 5.510247e-05 -0.062133938
-0.16600107 0.021905571 0.11167435 -0.1560144 -0.050374907 0.067796595 0.10591253 0.15122753
0.05433214 -0.14199448 -0.16235697 0.1316624 0.13649906 0.055764124 0.04036444 -0.012161749
-0.0040272507 0.14203523 -0.020506175 -0.074256815 -0.00809271 -0.03893734 -0.036441408 0.09931353
0.14727229 -0.051096477 0.049569454 0.015172171 0.114960276 0.01759907 -0.10000615 -0.08995819
0.12258037 0.04931963 0.12636459 -0.027805995 0.09174972 -0.100838125 -0.016990196 -0.047939923
-0.12282296 -0.13937901 0.16497898 -0.08254234 -0.071032465 0.049480185 0.055937607 0.048339017
-0.03635454 -0.14414231 -0.15340628 0.02402047 -0.09836521 -0.14362434 -0.061159607 0.0514595
0.089654304 -0.017124694 0.035543047 -0.042017564 -0.08929433 -0.0689036 -0.11343598 -0.1364143
0.15252261 -0.08395787 -0.09828494 0.13625357 0.1473099 0.016895937 -0.11955589 -0.10799698
-0.088810496 0.0016737903 0.072966665 0.08511584 -0.024754027 0.09260028 0.15175496 0.091857865
-0.088611916 -0.07653814 0.01711031 -0.14757985 -0.14630191 -0.14962073 0.007930234 -0.13579154
-0.15139012 0.037332077 -0.00941145 0.052108612 0.1268139 -0.05559801 -0.106855094 -0.0009675918
-0.14309557 0.13701144 0.11643705 -0.041230746 -0.09360174 0.13926724 0.098244816 -0.022623293

lstm.weight_hh_l0 f4 [200, 50]
00000000: 08c2 1c3e 1293 0fbe 621c 633d fdb5 dcbb
00000010: 90c9 94bd bd5c c13d 5863 1c3d c8f0 053e
00000020: 4cbd 953d 5c53 9b3d 1337 c53d 5b8d 1d3e
00000030: 931b 9a3d 7235 7c3c da92 ca3d 9edb fa3d
00000040: 4dcd efbd f16a 043e 99c7 863d 9ba3 9dbd
00000050: 0d10 9a3a aec0 c63c a690 0a3e a507 acbc
00000060: f6a4 143d 37f7 9cbd ec7b 7cbd e11d 43bd
00000070: d13d f73d 99c2 d83d 8aef e33d 34a8 dfbd
00000080: 62e3 bc3d d213 99bd 321c d8bd a073 b1bd
00000090: ba2f fbbd 7698 d0bd 1ca7 f6bd 789a a9bd
000000a0: 0acc 713d fc64 03be 5b35 70bd 2080 953d
000000b0: 29c7 2abd 154d f53d d55d bf3d 013a fd3c
000000c0: 47bb 68bb 480a 253d 24ef 99bd d217 003d
000000d0: babf 083e 8f8b 3ebd 46c2 23bd 4a57 1abc
000000e0: 78ff 433d cf84 f9bd b6e6 573d 8af1 413d
000000f0: 4c79 503d f3c9 2ebd b488 073e f1a1 903d
00000100: 6d36 e33d 2dca 0fbe 9935 62bd ac21 07be
00000110: 2183 b2bd 0fe0 f53c 9eb5 cd3c f06a 96bd
00000120: 8522 813d 58e4 7d3c fa0a 2e3d 0e8d 763d
00000130: 1fc0 063e 23e4 cfbc c12c d8bc aed4 a23d
00000140: 41c9 c5bc 5a0d 02be 0bfb 063d 102c adbc
00000150: ac80 20be 43b1 babd bb37 fa3d cceb 8d3d
00000160: eb78 0a3e 1a4d 8dbd 55b7 a73c be9b d33d
00000170: d0dc fd3d c11d 9ebd 8b1e 4e3c b380 af3d
00000180: 8b81 1ebe 0d5c e2bd 6460 c0bd 9fb2 ae3d
00000190: bac1 f8bd 955f bfbd 80da ee3b f384 c4bd
000001a0: 345c 91bd 5232 7cbc aac7 edbb 3d45 173e
000001b0: b3d4 0bbe 0aef 3c3d 63a6 a1bb 0ebd bebd
000001c0: d4c1 38bd 88fd eabd fbb2 253d 373a f73d
000001d0: 6fb4 f4bd 0436 adbc 8f06 19be 1049 993d
000001e0: f534 22bd 009a 7e3d ac01 ef3d e9c5 a83b
000001f0: b89d ff3d 3833 073e 586d 2cbd c360 743d
00000200: e64e 2ebc 3fa6 073c 3fd9 963b cfee 7c3d
00000210: bb67 ab3d 965e 22be 9785 993c 63ec 00be
00000220: d887 053c 0d6c 4d3d 1c49 9d3d 3c16 e2bd
00000230: be30 59bd 8eed 00bc 9590 48bd f76d 9cbd
00000240: 7c57 d3bd c5fb 083d 2f10 903c e9c9 fb3d
00000250: 3038 133e 8f54 cebd a1af 413c ecb0 cebc
00000260: 3899 6c3d 24f2 04be fbff fbbd 5c25 153d
00000270: 3019 ffbd 541c d3ba cd59 0a3e fda9 d93d
00000280: 1cc2 9fbd 1355 29bd 5d5d 0dbe f252 a6bd
00000290: 8212 a23d 87ba f63d 0f10 b63d 764e 1f3d
000002a0: 778d 55bc 2f9a acbc 4944 a5bd 585b 98bd
000002b0: 3935 c7bd 6e92 aabd ac86 ab3d 13d1 183e
000002c0: ef06 153e 0be2 e4bd cb4f d7bd d7d9 323d
000002d0: 6436 1fbe 6254 36bd 7e3a 133d 1707 89bd
000002e0: ad95 113e 8fef 84bd 51f0 66bb 5075 b23d
000002f0: 6077 e7bd 180a 0dbe 319e 953d 3c0b 883c
00000300: a475 00be 2530 b23d a516 84bd 9547 143e
00000310: a8ed 13be 91f9 f5bd 99c3 bf3d 2ed6 eebd
00000320: fdf8 893d 477d 3ebd a201 a3bd 2954 a53d
00000330: a5f0 c9bd 0f90 d4bc c42b b13d cb3c ab3c
00000340: d295 4e3d 244b b9bd eec9 aa3d 71df cabc
00000350: b050 c43d a0f8 3f3c 71bf a1bd 6e2b dfbb
00000360: b41b 8a3d 12f9 693d 9ea6 c53d 4ea6 d13c
00000370: 16e1 4f3d 0f58 febc 0fbc ec3d 1d29 71bd
00000380: 3cd9 cc3d 57bb b43c 7e73 d2bd 643e f43d
00000390: d096 e03d f1df e1bd 086f 88bd 6750 d4ba
000003a0: d245 953d e111 fb3d 1a65 4735 f72a 163e
000003b0: e928 273e 1bbe 9e3d 8a85 323d 5051 f0bd
000003c0: 5545 6abd bdaa e73d 1be3 97bd 4002 b83d
000003d0: 4ab6 013e af53 21bd 2c49 0abe 92b4 a93d
000003e0: a04b 9dbc 622b 0a3e d96a d03d 8484 05be
000003f0: 8310 b23d e8f4 1ebe 54e0 003e 89fa 403d
0.15308392 -0.14020947 0.05544699 -0.006735562 -0.072650075 0.094415165 0.03818068 0.13080132
0.07311496 0.07584259 0.09629645 0.15385954 0.075247906 0.015393602 0.09891291 0.1224892
-0.1170908 0.1293142 0.06581039 -0.07697221 0.0011754051 0.024261799 0.13531741 -0.020999739
0.03629013 -0.0766434 -0.06164162 -0.047635917 0.120723374 0.105839916 0.11129673 -0.10920754
0.09223057 -0.074744835 -0.10552253 -0.08664632 -0.122649625 -0.101853296 -0.12043592 -0.08281416
0.059032477 -0.12831491 -0.058644634 0.072998285 -0.04169384 0.11977593 0.09344069 0.030911447
-0.0035512017 0.040293008 -0.075163156 0.031272717 0.13354388 -0.046519812 -0.039980195 -0.009420225
0.047851056 -0.12183534 0.052710257 0.04734949 0.050896928 -0.042673063 0.13235742 0.07062138
0.11094365 -0.14041968 -0.055226896 -0.13196439 -0.08716417 0.030014066 0.025111016 -0.073446155
0.06305412 0.015496336 0.042490937 0.060193114 0.13159226 -0.025377339 -0.026388528 0.07950722
-0.024143817 -0.12700406 0.032954257 -0.021139175 -0.15674084 -0.09115841 0.12217661 0.0692974
0.13522689 -0.068994716 0.020473162 0.1033244 0.12395632 -0.07720519 0.012580524 0.08569469
-0.15479104 -0.110527135 -0.09393385 0.08530163 -0.121463254 -0.09344403 0.007289231 -0.095956706
-0.070976645 -0.015392857 -0.007256468 0.14772506 -0.13655357 0.046126403 -0.004933165 -0.09313403
-0.045106724 -0.114741385 0.040453892 0.120716505 -0.119484775 -0.02114392 -0.14943908 0.07484639
-0.039601285 0.062158585 0.11670241 0.005150546 0.12481254 0.13203132 -0.042096466 0.05966259
-0.010638928 0.008279382 0.0046035345 0.061751183 0.083693944 -0.15856394 0.018740458 -0.12590174
0.008150063 0.050151873 0.0767996 -0.11039397 -0.053025 -0.007869137 -0.04896601 -0.07638162
-0.10319421 0.03344323 0.017585842 0.12294371 0.14376903 -0.10074722 0.011821658 -0.025230847
0.05776331 -0.12982994 -0.12304684 0.03641258 -0.12455976 -0.0016106465 0.13510819 0.10628126
-0.07800695 -0.0413409 -0.13805147 -0.08121289 0.07913686 0.12047296 0.08889782 0.038893186
-0.013034216 -0.021069614 -0.08069665 -0.074392974 -0.09726948 -0.083287105 0.08375296 0.14923505
0.14553426 -0.11175927 -0.10513266 0.04366478 -0.15548092 -0.044514067 0.035944454 -0.066908054
0.14217253 -0.06491005 -0.0035238455 0.08713782 -0.11302066 -0.13773382 0.07305563 0.01660692
-0.12544876 0.08700589 -0.064496316 0.14480431 -0.14446127 -0.12010492 0.09363479 -0.11661945
0.06736944 -0.046506193 -0.07959296 0.08072693 -0.098603524 -0.025947599 0.08650926 0.020903012
0.05043585 -0.09047535 0.08339296 -0.024764748 0.095857024 0.011716992 -0.07897843 -0.006810597
0.06743565 0.057122298 0.0965092 0.025591996 0.050751768 -0.031047849 0.11559307 -0.0588771
0.10002372 0.022061987 -0.10275935 0.119259626 0.10966265 -0.110290416 -0.066618025 -0.0016198278
0.07288708 0.122592695 7.42804e-07 0.14664827 0.163242 0.077511035 0.043584384 -0.11734259
-0.057195026 0.113118626 -0.07416364 0.08984804 0.12667194 -0.039386448 -0.13504475 0.08286394
-0.0192011 0.13493112 0.101766296 -0.13038832 0.086945556 -0.15523112 0.12585574 0.04711393

lstm.bias_ih_l0 f4 [200]
00000000: e15f 293d f132 ecbc 40c9 cb3d f591 a03d
00000010: e17e 183e 5c99 02be 5453 86bd 385f 953d
00000020: d656 04be 1ef7 88bc 0454 04be 220a 72bd
00000030: 7ffc 96bd 7489 013e cb83 ebbc a60e 0dbd
00000040: 7000 01bd 2c70 81bd 85d9 24bd 78a4 6bbd
00000050: 8fb1 d5bd e5d0 b13c a87a e7bd c9be 2a3d
00000060: 46d8 26bc d25a 29bd bb50 e2bd 0de7 f23d
00000070: 311b f4bd f4c3 e8bd 1706 503d b1c6 053e
00000080: 972b a33d 10e9 ff3c 5fd9 85bd 3cb5 bbbd
00000090: 1c58 dfbc f198 acbd 1605 013e 7f61 0e3e
000000a0: 80c7 8cbc e0a4 17bd f6e1 0d3e 7037 c1bd
000000b0: 0755 1abd c7df 82bd 17b7 d8bd a05d 01be
000000c0: a08a 8b3d 9c74 333d a045 b0bd 8326 093e
000000d0: a84f 693d f416 a13d 3c0f f3bd 732e e93d
000000e0: 33b3 9dbd 673c 49bc 8784 07be 47d8 2abd
000000f0: b90c 9cbd a2a3 0e3d fe1e cbbd 49c9 91bd
00000100: 5fd4 0f3e 29de 34bc 9e20 cd3d 4012 513c
00000110: d8a7 a3bd 65d2 92bd be39 fb3d c86a e43d
00000120: 0425 96bd e0e7 36bd 0616 7fbd 9a84 1c3d
00000130: f37e 033d 803c f1bd 041f 3ebd 4043 413d
00000140: 2169 013e 546f 4ebd 678f 5dbc 1624 31bc
00000150: 84ed 083c 6566 883c c70b 63bc be9f aabd
00000160: 7c88 f53d b220 d83d 2c0b c03d 1f6a 12be
00000170: abaa 103e 1117 a93d c00f 4e3d b55a f83d
00000180: c82f b0bd e705 8fbc 68f3 2a3c c0ca 243d
00000190: e3e4 873d b5eb c6ba cdc5 bd3d f71f 39bd
000001a0: 25b4 13be f5c4 743d ee93 94bd 0f6a 753d
000001b0: 6d57 023e a742 c4bc 9732 54bd c674 5cbd
000001c0: d856 f0bd 24fe 02be 3077 e6bd 943a c7bd
000001d0: 4397 5c3d 7beb 0fbe 0983 5c3d 53d2 dd3d
000001e0: 813a 3fbd 6ea8 d33c e504 43bd 1d9a cfbc
000001f0: 7ccf cd3d 1b5c 7d3b 0f1c 06bc 0d32 fd3d
00000200: 046d 5bbd 44b3 d7bd e4c2 d83d 71f4 edbd
00000210: c8e0 f4bd ee29 c73c 4c16 ff3c 05b8 0abe
00000220: 3c87 d13c 8506 9abd 6873 d43d dbb2 c8bc
00000230: e638 20bd 053e 0bbe 7fce 453d c337 c4bd
00000240: e0dd 94bd 5615 cebd 6e27 b6bd 2e75 f4bd
00000250: 32f4 a83d 46f4 e43d 964a f03d 13ce 81bd
00000260: ed68 ecbd d973 59bd 3527 17bd 3c15 04be
00000270: f23f 663d 83e1 e83d 18d1 e23c a5e4 2a3d
00000280: 4650 acbd 1e8a a23d 96d2 25bd 1c0a c83d
00000290: 435c d03d 43e9 c83d c88d 9fbd 43d6 6c3c
000002a0: b434 3a3d 119e e6bd a824 0d3e a93d 113e
000002b0: e42e b23d 2af7 bfbd 328f 86bd c321 0a3e
000002c0: f79c f2bd f93c e53d e256 073d 9683 9e3d
000002d0: 5373 09be e63c b53d 6f6f 883d ec9e 2f3d
000002e0: b1b2 b23c 5496 bdbd 0557 093e 6e98 f9bd
000002f0: bfd5 f6bd cbc0 993d a288 a73d 802e 56bd
00000300: 18c4 a2bd 0843 e1bd d799 c6bd b3af 8f3d
00000310: c642 3e3d 161f a8bc fd91 a83d a559 c8bd
0.041351203 -0.028832885 0.09950495 0.07840339 0.1489215 -0.12753814 -0.06558862 0.07293552
-0.1292375 -0.016719397 -0.12922674 -0.059091695 -0.073723786 0.1265009 -0.028749367 -0.034437798
-0.031494558 -0.06320223 -0.040246505 -0.057529896 -0.10434257 0.021706054 -0.11302692 0.041685853
-0.0101834 -0.04134638 -0.11050554 0.11860476 -0.11919249 -0.113655 0.050787058 0.13064076
0.079672985 0.031239063 -0.06535601 -0.09165427 -0.027263694 -0.08427609 0.12599596 0.1390438
-0.017184973 -0.03702247 0.13855729 -0.09434402 -0.037678745 -0.063903384 -0.105817966 -0.12633371
0.0681355 0.04381238 -0.0860703 0.13393597 0.05696073 0.07865706 -0.1186814 0.113858126
-0.07700195 -0.012282467 -0.13234149 -0.041710164 -0.07619614 0.03482402 -0.09918021 -0.0711847
0.14045857 -0.011039295 0.10015987 0.012760699 -0.07990998 -0.07169036 0.12266873 0.111531794
-0.07331279 -0.044654727 -0.062276863 0.038212396 0.03210349 -0.117791176 -0.046416298 0.047183275
0.1263776 -0.05039914 -0.013522959 -0.010811826 0.008357409 0.016650388 -0.013857788 -0.0833125
0.11988923 0.10553111 0.09377131 -0.14298294 0.14127605 0.08256353 0.05030799 0.12126676
-0.086028636 -0.01745887 0.010434009 0.04023242 0.066354536 -0.0015176447 0.09266243 -0.0451965
-0.14424188 0.059758145 -0.07254778 0.0599156 0.12728663 -0.023957564 -0.05180606 -0.0538223
-0.11735314 -0.1279226 -0.11253202 -0.0972797 0.053855192 -0.14054672 0.053835902 0.10831132
-0.046686653 0.02583715 -0.04761209 -0.025342042 0.1004934 0.0038659635 -0.008185401 0.12363062
-0.053570762 -0.10532239 0.105840474 -0.11618889 -0.11956936 0.024311986 0.031138562 -0.1354676
0.02557718 -0.07520775 0.103735745 -0.024499347 -0.039116763 -0.13597877 0.048292633 -0.09580948
-0.07268882 -0.10062663 -0.08894239 -0.11936413 0.082497016 0.11179404 0.11732976 -0.06338134
-0.115434505 -0.053088997 -0.036902625 -0.12898725 0.056213327 0.11371138 0.027687594 0.04172196
-0.084137484 0.079365 -0.040484034 0.09767553 0.101738475 0.09810116 -0.077907145 0.014455381
0.045460418 -0.112606175 0.13783514 0.14183678 0.0870035 -0.09373315 -0.06570281 0.13489442
-0.11846345 0.1119327 0.033041842 0.07739942 -0.13422899 0.08849506 0.06661879 0.04287617
0.021813722 -0.092571884 0.13412102 -0.12187277 -0.120524876 0.075074755 0.081803575 -0.05229044
-0.07947558 -0.10999113 -0.09697311 0.07015934 0.0464504 -0.020522635 0.0823097 -0.09782723

lstm.bias_hh_l0 f4 [200]
00000000: ff37 0b3e 549d 043e 1fa8 053e 793c 43bd
00000010: e9af a93d 720b dfbc 2b87 bcbd 8abb 3dbd
00000020: b264 62bc 881e 523d bb15 993c 58af 55bd
00000030: 777b f13d 62a5 a4bd 8a39 093d 84d5 d63d
00000040: 6a63 b63d 649a 363b 935f dabd 9beb 083e
00000050: 40ec 55bd c7e6 88bb 5e84 393d a57b 5ebd
00000060: 6e37 8a3d 637e fdbd 3e71 f6bd 3999 e13d
00000070: 890d a23d 2435 963c 0b38 8dbd f4a6 88bd
00000080: cf90 debd ef4e 143d 3039 cfbd 1802 d43d
00000090: 2d82 26bd 717b aa3d 44e7 a9bd 69b3 b8bd
000000a0: 4189 2d39 b066 c63d 18de 87bc 77ea fbbd
000000b0: c902 ebbd 468d c0bc f140 afbd 5845 cb3d
000000c0: 3c23 0dbb 49ab a33c 2006 0f3e 705d 2dbd
000000d0: 4b6a 10bd 04c5 5dbd 2fdb c33d bb8b e33d
000000e0: 7f4e ee3d 446e 983d 0d56 f1bd 3092 12be
000000f0: 3bbf 12be 1d4a 853d e16d 703d c2ee 02be
00000100: aaa0 023e 021a e7bd fc2a e6bd fc1e 23bd
00000110: 3d05 d4bd cc73 97bd b40b c93d f529 54bc
00000120: 4aa9 983d 0fc7 aabc afe2 7abd dbed cf3d
00000130: b6dd 35bb 14f2 ecbc 989d 2a3c c0ee acbd
00000140: fd30 bcbd 2dc3 083e 7e1a b03d af9a 863d
00000150: 6a20 0b3e 4c71 c23d 48f5 053e 549b c03c
00000160: 2410 afbc 4b15 1cbc bf9e e33c 0a62 08bb
00000170: c078 07bd 7334 d8bd 8a91 88bd a95f ca3c
00000180: 61f5 3b3d 8144 cd3c c126 cbbd 6389 543b
00000190: 86e1 c33d a361 09bd 4514 003d a187 de3c
000001a0: 717a 3cbd e875 ee3d b1df c83d 91fa 84bd
000001b0: 9d25 5dbd df0f a0bc a59f 803d 40a8 b53d
000001c0: ca8c e63d dad3 0a3e b764 9bbd c1ad f8bd
000001d0: b3e8 973d acfc cb3d d93c 183c ed70 1e3b
000001e0: 1c2d b9bd a0d7 5bbd 6088 c5bd 8f84 d83c
000001f0: ad26 b93b f44c 003e a732 a93d 3e6d 473d
00000200: 943d 863d 189c 073d 4272 043e 175f 183e
00000210: 378b 0f3e baee 113e e577 6dbd b681 013e
00000220: 493b 363c 17a5 013e 1359 afbd 456c d53d
00000230: 85dd d63d 27d9 f43d 330a dcbc e985 07bb
00000240: 7fd5 e13c 8ef9 163e 9859 3cbd 7b21 a2bd
00000250: 9c66 273c ab34 95bc 6302 da3c 3f76 f63d
00000260: 73ae d0bc 7a00 a73d c51b 8c3d 194f e43d
00000270: f4f9 fcbc 10a8 613d 4cb8 1e3a f9e1 9c3d
00000280: e855 3fbd 6ce6 38bd c794 fd3d 8f28 943d
00000290: 906d f0bd 2bcc b4bd 1291 31bd f96e ea3d
000002a0: 2d70 c2bc 20b7 493c b51f 113d bb06 073e
000002b0: 67a9 49bd f1b5 4d3d 21bc 9fbc 57fd 66bd
000002c0: 25fa 08bd c96b c63d 7220 72bd 86e6 86bd
000002d0: 4ebc 18bd ba7d f93d 791a dcbb c437 2a3d
000002e0: 6b94 66bc 15f8 5f3d f9be 783d 5bcd 91bc
000002f0: ebf5 ebbc dbba 0b3e 3c95 9d3c 0ef5 2abd
00000300: 1ce4 27bb 1bf3 6a3d 0072 d4bc b994 ee3d
00000310: 3d3b f8bd af21 b43d b935 ca3d d5a5 303c
0.1359558 0.12950641 0.13052414 -0.047665093 0.08285505 -0.027227137 -0.09205469 -0.04632143
-0.013817953 0.051298648 0.01868712 -0.052169174 0.11791127 -0.08039357 0.03350214 0.104899436
0.089056805 0.002786302 -0.106627606 0.13371126 -0.05222726 -0.0041779014 0.04529225 -0.054317135
0.067488536 -0.12377622 -0.12033318 0.11015553 0.07912738 0.018335886 -0.06895455 -0.06672469
-0.10867464 0.03620809 -0.101183295 0.10351962 -0.04065149 0.08324326 -0.082960635 -0.09018595
0.00016549697 0.09687555 -0.016585395 -0.1230058 -0.114751406 -0.023504864 -0.085573085 0.09925336
-0.0021535894 0.019979136 0.1396718 -0.042325437 -0.03525762 -0.054142967 0.0956329 0.11110636
0.11636066 0.074429065 -0.11783991 -0.14313579 -0.14330761 0.065082766 0.05869854 -0.12786391
0.12756601 -0.112842575 -0.11238667 -0.03982447 -0.103525616 -0.073951334 0.09816685 -0.012949456
0.07454164 -0.020846872 -0.06125134 0.10152789 -0.0027750558 -0.028924026 0.01041355 -0.084439754
-0.09189031 0.13355704 0.08598803 0.06572472 0.13586584 0.09494266 0.13081849 0.023511566
-0.021370001 -0.009526561 0.027785657 -0.002081039 -0.03307414 -0.10556879 -0.066683844 0.024703817
0.04588831 0.02505708 -0.09919501 0.0032430522 0.095644996 -0.03354038 0.03126933 0.027164282
-0.046015207 0.116435826 0.09808291 -0.06493104 -0.05399095 -0.019538818 0.0628045 0.08869982
0.11257322 0.13557377 -0.07587569 -0.12142516 0.07417431 0.09960303 0.009291851 0.0024176196
-0.09041807 -0.053672433 -0.09645152 0.026430396 0.0056503625 0.12529355 0.08261614 0.048688166
0.06554714 0.033107847 0.12934211 0.14880024 0.1401795 0.14251223 -0.05797567 0.12647137
0.011122533 0.12660633 -0.085619114 0.104210414 0.1049147 0.11955481 -0.026860332 -0.0020679182
0.027567623 0.14743635 -0.04598388 -0.07916542 0.010217335 -0.01821359 0.026612466 0.120342724
-0.025473809 0.08154388 0.06841234 0.11147899 -0.030880906 0.055091918 0.0006054684 0.07660288
-0.046712786 -0.045141622 0.12381893 0.072342984 -0.117396474 -0.088280044 -0.04335124 0.114469476
-0.02373513 0.012311727 0.03543063 0.13186161 -0.04923382 0.05022234 -0.019498887 -0.056393947
-0.03344168 0.09688527 -0.059112974 -0.065869376 -0.037288956 0.121821836 -0.006717023 0.04155709
-0.014073472 0.05467995 0.060729 -0.017798116 -0.028803786 0.13645498 0.0192362 -0.04173761
-0.0025618142 0.05736075 -0.025933266 0.1164946 -0.12120674 0.08795487 0.09873528 0.010781725

lstm.weight_ih_l1 f4 [200, 50]
00000000: 0e31 f9bd 15e5 163d 8673 ea3d d12f 21bd
00000010: 2f6e ef3d ac60 babd f347 a5bc aa45 883d
00000020: 86a6 cabd 4d3f 653d ccf7 7abd 4c47 bc3d
00000030: faa6 183d eba4 9e3d c8ef b53d b259 fcbd
00000040: 4823 203e 7371 153e d52d 25bd 7223 143e
00000050: f4d8 bebd b752 e7bd 0a5a b23d 44da 9a3d
00000060: 669f 903d 50f2 d73b a85d 00be b957 0dbe
00000070: 4384 773c 3174 8dbd a40c 2e3d 6566 ac3d
00000080: 8661 04be 369e 243e 15a0 0dbe cd68 a7bd
00000090: 322e b0bd 4fad 0fbe 787b 073e db1a e63d
000000a0: 1e92 19bc 024d 9dbd ce09 b4bd 724b d63a
000000b0: b31f 773c 274f 15be 4331 bfbd 9df7 e8bd
000000c0: 3f31 04be 1568 8c3c b807 00be ba72 ff3d
000000d0: 387c 063e 5bf5 d03d add4 23bd ab1a 56bd
000000e0: 1335 6cbd c50c ac3d 229c aebd 2b69 023e
000000f0: 4563 41bc fb04 bc3c f281 a23d 1b13 98bd
00000100: 0b8b a43d 64ee 103e 6cf9 213e a78e afbd
00000110: f6a2 debd b74a ccbd 66e5 ea3d 7863 7c3d
00000120: 1063 843c 16eb c53d f983 d63c 6a25 dfbd
00000130: 2bf7 803b 63e7 a73d 36fd 293d abca 8fbd
00000140: 564f b63a da43 fb3d 45ca a33d bdc7 80bc
00000150: 908f 0cbe 9037 02bc 5371 b33d c9eb 1ebd
00000160: ba25 acbd 73a3 d13d 4d52 1b3e e017 093d
00000170: 7824 c93d 9dda 1cbe 1804 c7bd bf13 813d
00000180: 5f38 e63b 5d2e f1bd 07d4 6a3b 1f60 97bc
00000190: 2d62 e7bd 85d4 d43c ef2a 11be 73d1 7abc
000001a0: 941f b9bc e96d 8cbd 5d71 f23c 9ca4 1abe
000001b0: 4c9a 523d 2664 93bd a467 37bd 3118 0abe
000001c0: 7fe9 113e bb77 d03d 6711 223c d64f 2e3d
000001d0: 33cb 3c3d a68e 06be 631c 3cbc f4f4 e63c
000001e0: 4810 83ba d252 073e 6731 cb3d 0a8d b83c
000001f0: 8880 9b3d 8534 473d 5923 1e3b 703a eebd
00000200: 0e1e 913d 5be7 1d3e eab4 323d df88 66bc
00000210: c32a d33c b2ed af3d 08dd 893b c740 1cbd
00000220: 9528 363d a2f6 85bd 23a0 09bc ed4e e13b
00000230: 7835 f73c ae13 d63d f9d5 dabd eca7 1a3e
00000240: 394a 2c3d d216 15be a12c ff3c de77 17bd
00000250: 1d60 cd3d a614 00be 7efa 303d 5e2b 8ebd
00000260: 176f e6ba b37c 683d 2626 cdbd b3bc 29bd
00000270: b7f5 f4bd 6abf b23c f4cb 95bd 76d1 f9bd
00000280: 7c4e 24bd 4647 53bd 8110 22be 93ba e03d
00000290: f3c9 22be 39f8 c5bc d709 3dbd fc00 cd3d
000002a0: 7e96 10bd cb90 0fbe 8a2a e33c 1d60 153b
000002b0: cbff c1bd 9f6c 9abd cc9d 09be ac0f a83d
000002c0: 3ed3 d93d bd92 fe3d 7c53 0b3b 8ab4 c23d
000002d0: 249a 273e 22f5 d83d 4c9e 02be e2e4 7ebd
000002e0: 6de9 1abd 2d9a d53d 4a10 043d 7c45 af3d
000002f0: 03dd b2bd bfb6 0e3d 708b 05be ff50 b7bd
00000300: 5591 7dbd 64bc cd3d 9481 d4bc 8655 27bd
00000310: aebf 753d 39ca f23d 2e28 d93d 1a7b 183e
00000320: b411 dd3d 98e8 1bbd 2b53 c23b aee4 b7bc
00000330: 1669 e23c 81be 10be d933 1b3e 73d6 0cbe
00000340: ed9b 0dbe 4e8c 883b 0ae6 123e 2673 2c3d
00000350: aea4 a03c 1ea8 f6bb 1d9b 6dbd f20a febd
00000360: b3dc bc3d 8a51 18be 1204 053d 8fad 03ba
00000370: 5c66 1abe 64c9 c6ba ff39 83bd ca9c 9bbd
00000380: a44d fcbd 6f05 a6bd 1f2c 0d3e b16c 13be
00000390: acc1 b63d 44ff e73d eb9f c4bd b884 cabd
000003a0: 83c2 043e 4d68 d13d 6b55 ec3d 46d4 163e
000003b0: 8855 2dbd 823c af3d a5e0 eabd 2067 00be
000003c0: 8b63 85bd 006b e1bd 1bb3 29bd fc8f 7c3d
000003d0: 787c c83d 33fe d8bc aa8e a83d cc1f 8abd
000003e0: 03c8 913d f128 943d 0bae e73d 6ff9 fcbc
000003f0: a527 123e 5756 c53d abfa 623c 66dd 323d
-0.121675596 0.036839563 0.114478156 -0.039352242 0.11690938 -0.0910047 -0.02017591 0.06653912
-0.09895043 0.05596857 -0.061271474 0.09193286 0.037268616 0.07746299 0.08883625 -0.123217955
0.15638459 0.14594059 -0.040326912 0.14466646 -0.09318724 -0.112950735 0.0870858 0.07561162
0.07061653 0.006590165 -0.12535727 -0.13802995 0.015107217 -0.069069274 0.042492524 0.08417968
-0.12927827 0.16075978 -0.13830598 -0.08174286 -0.08602561 -0.14030956 0.13230693 0.11235591
-0.009373216 -0.07680704 -0.087909326 0.0016349389 0.015083241 -0.14580975 -0.09335568 -0.113753535
-0.12909411 0.017139474 -0.12502944 0.12473054 0.13133323 0.10203048 -0.039997745 -0.052271526
-0.057667803 0.08400873 -0.08525874 0.12735431 -0.011803453 0.022951594 0.07934941 -0.07425519
0.08034333 0.14153439 0.15817803 -0.08572131 -0.10870926 -0.09975188 0.114695355 0.0616183
0.016160518 0.0966398 0.026185976 -0.10895808 0.0039357147 0.081984304 0.041501246 -0.07021078
0.0013909142 0.12268801 0.07997564 -0.015720243 -0.1372664 -0.007947817 0.08761849 -0.03879908
-0.08405633 0.102362536 0.15168114 0.033470035 0.09821409 -0.1531777 -0.09717578 0.063025944
0.007025763 -0.11776421 0.0035831945 -0.018478451 -0.112980224 0.025980243 -0.14176534 -0.015308726
-0.022598065 -0.06856901 0.029595071 -0.15101856 0.05141668 -0.07196836 -0.044776574 -0.13485791
0.14249228 0.10179087 0.009891844 0.042556606 0.046092223 -0.13140354 -0.011481377 0.028192975
-0.0009999359 0.13215187 0.09921532 0.02252819 0.07592875 0.04863407 0.0024129956 -0.1163224
0.070858106 0.15420286 0.043629564 -0.014070719 0.025777226 0.08590259 0.004207257 -0.038147714
0.044472296 -0.06541182 -0.008399996 0.0068758638 0.030176863 0.10452972 -0.10685343 0.1510312
0.04206297 -0.14559487 0.03114921 -0.03697955 0.10028098 -0.12507877 0.043207638 -0.069418654
-0.0017580715 0.056759547 -0.10017042 -0.041439723 -0.11960929 0.021819789 -0.073142916 -0.12198155
-0.04011391 -0.051581644 -0.15826608 0.10973086 -0.1589735 -0.024166213 -0.046151962 0.100099534
-0.03529977 -0.14020078 0.027730245 0.0022792884 -0.09472617 -0.07540249 -0.13439101 0.08206114
0.106359944 0.12430332 0.0021259477 0.09507091 0.16367394 0.105936304 -0.12755698 -0.06223
-0.03782027 0.10429797 0.032242097 0.08558175 -0.08733561 0.03484225 -0.13041472 -0.08950996
-0.061906178 0.10045698 -0.025940694 -0.040853046 0.059997253 0.11854977 0.10603367 0.1489071
0.10794392 -0.038063616 0.0059303246 -0.02244791 0.027638 -0.14135171 0.15156497 -0.13753681
-0.13829012 0.0041671162 0.14345565 0.042102 0.019609775 -0.0075273653 -0.058009256 -0.124044314
0.092217825 -0.14874855 0.032474585 -0.00050231157 -0.1507811 -0.001516622 -0.06407546 -0.075982645
-0.12319496 -0.08106505 0.13786362 -0.14396931 0.08923659 0.11327985 -0.096008144 -0.09888595
0.12964825 0.10224972 0.1153973 0.14729413 -0.042317897 0.08556463 -0.11468629 -0.12539339
-0.06513127 -0.11006737 -0.041430574 0.06166075 0.097893655 -0.0264884 0.08230336 -0.06744346
0.07118227 0.072343715 0.11312493 -0.030880658 0.14272936 0.09635609 0.013853709 0.043668173

lstm.weight_hh_l1 f4 [200, 50]
00000000: b776 e5bd 0048 923d a993 063e 24eb 0c3e
00000010: 5d3b 113e 54da d8bc fc0b 0c3e 2af1 c63d
00000020: 52ef e93d eaf1 b2bd 1b8f f6bb f074 2cbd
00000030: 303e b93d 2357 5b3a 08cd 9ebd 7fbe a3bd
00000040: 74d7 55bd 641e 343c 0a27 b7bd a4fd 0a3e
00000050: df8a 443c 5bfa 9a3d a5a0 01be 0200 eebd
00000060: 0840 43bd 2d1e 1c3e 10b3 563c 2b06 b43d
00000070: 0a50 c4bd 21a5 8b3d b982 0dbe 446b 9bbd
00000080: ab12 103e db29 14be bfe1 0bbe 24f2 a6bc
00000090: 9dbb 153d 54cd d63d bb8b 0d3e 9017 01be
000000a0: 9d8e 093e 4a46 fdbd 8b93 d43d eea7 b13c
000000b0: f4a0 843d a99d 83bd faec 913d 4e8a febc
000000c0: 2751 213d 38a6 5dbd 75e6 60bd 1965 0f3e
000000d0: 8925 27bd 15a9 9b3b 3eaf 22be 6187 a4bd
000000e0: db5c e0bc 0879 13be f472 e1bd 7b21 82bd
000000f0: 5cf4 e03d 8b5f 6b3c a690 0ebe 38e1 26bd
00000100: c2fd 99bc a65a 253e db96 18bd fe4a 833c
00000110: 5846 c8bc 8bcf 2fbd c040 833d 297c 8dbd
00000120: 05c4 243e 4935 b5bd 6b8c 3bbd 37ee 0ebe
00000130: b149 58bd 1d2a 79bd 75f6 a4bd f972 11be
00000140: b8ab 0cbd 3eba fcbc 2438 6c3d e8b2 8cbc
00000150: 338e 6b3d 6acb 193e 047f 0cbe a60d aabb
00000160: af36 1fbe 69a6 133e 0d70 68bd 84c8 043c
00000170: 7b5a 7e3d a2f7 8cbc 3df5 febd af67 dbbd
00000180: d255 89bc dc61 25be 12eb 0ebe 7abc 9d3d
00000190: 874b 073e c1f0 f1bc 1e6f e6bd d422 093e
000001a0: d8ad 313d 29c9 65bc 5dd1 9fbd ef0b 1c3e
000001b0: 7264 f33d 593d e7bd 837a c7bd 52a9 d63c
000001c0: 3409 6dbd 9741 14be a9a4 b6bd 292c 0ebe
000001d0: 62af 053e 082b 763c c00a f7bc 1a7b 00be
000001e0: 907c 0f3e 7fc0 e73b f106 77bd 203b 91bd
000001f0: 4dfa a73d cdf9 f33c 54ac 003e 9d36 b4bd
00000200: 5c1d a13c 1acf c1bd 6f71 9d3d 35d6 32bd
00000210: b50a 69bd fa8b d2bd d26a 323d db10 c13d
00000220: f671 b1bd 347c cfbc 0528 08be 4338 933d
00000230: f137 dd3d e6a7 123e 9999 033d 079f 2abd
00000240: 92fd d2bd 036c 94bd e59c 1cbe 8f3b 88bd
00000250: 9e40 87bd 2177 c8bd a745 40bd 7b59 6cbc
00000260: 4ab2 c6bd 0efa 15be eab8 e0bc fe0d 083e
00000270: 1ce0 743c 7767 09be 1c62 83bd f9f4 91bd
00000280: b470 223e f5e1 cfbd 76df f73d e7e0 eabd
00000290: 310b 3ebd a312 103e fa07 023e 5583 e53d
000002a0: 7be5 60bd a493 08bc 070a 083e c274 f5b9
000002b0: f7ce 703d b7dd 213b 69f8 cb3d 6642 d73d
000002c0: 4d75 bfbd 5df1 a1bd f5d2 90bd 7438 083d
000002d0: a2b9 853d a6e4 4f3c ed88 f0bd d8e8 c1bd
000002e0: 66d4 5e3c 5ef0 3b3d 852f 6cbd c95a 153e
000002f0: 6093 1ebe 7a6a 623c 7ae2 cbbd 09cf efbd
00000300: 92b8 053e 9f1f 33bd e853 10be 223a 273c
00000310: c380 173e 8e8a e63d 08da d0bb 1267 b03d
00000320: e08c 9f3b 0fd8 0bbe 53f1 00be 005a 9ebd
00000330: 75e7 7dbd bb8f 1cbd 15f9 543d 0dee 9abd
00000340: 3416 5bbd a534 56bd bbff b9bd 68f0 003d
00000350: dcfe f63d 0bf8 c93d 3284 563d 3c96 fb3b
00000360: 728d 78bc 979e 9c3d 446d 54bd 41d0 a13c
00000370: 361c 78bd 3dbc 283e e100 5e3c ca05 c2bd
00000380: 7cd8 3dbd 1d22 eabd 6f35 8d3d 5228 dfbd
00000390: f088 39bd c529 c9bc 9d39 9cbd 4d2a 8abd
000003a0: 19da 0f3d 6093 e9bd f496 ccbd 20d5 57bd
000003b0: 50fa 02bd 9839 033e 5194 11be ee4d 1ebd
000003c0: 394d 883d fa42 9e3c 7c9d ed3d 3db3 1bbd
000003d0: 3c85 b6bc ec98 64bc d1ec f4bc 520c 9fbd
000003e0: d9ab 143d 8f0a edbd 2c50 13bc 2298 0bbe
000003f0: 9cd2 c23c a5a7 e13c 5d1a cc3d 8671 29bc
-0.11204284 0.07142639 0.13142265 0.13761574 0.14182802 -0.026471294 0.13676447 0.09713967
0.114226 -0.08737548 -0.0075243837 -0.042103708 0.090450644 0.00083671714 -0.0775395 -0.079953186
-0.052207425 0.010993574 -0.08942993 0.13573319 0.011996 0.07567283 -0.12658937 -0.11621095
-0.047668487 0.15245886 0.013104215 0.08790239 -0.09585579 0.06818605 -0.13819398 -0.07588819
0.14069621 -0.14469092 -0.13660334 -0.020379134 0.036555875 0.10488382 0.13822834 -0.12606645
0.13433309 -0.12366922 0.10379704 0.02168652 0.06476012 -0.06426556 0.07125278 -0.031071808
0.039384034 -0.054113597 -0.05490728 0.1400341 -0.04080728 0.0047503808 -0.15887162 -0.08033634
-0.027388027 -0.14401639 -0.11008254 -0.06354042 0.10984108 0.014366041 -0.13922366 -0.04074213
-0.018797759 0.16147861 -0.037253242 0.01602697 -0.024447605 -0.042922538 0.064088345 -0.06908447
0.160904 -0.08848054 -0.04578821 -0.13958059 -0.052804653 -0.060831178 -0.080548204 -0.14204015
-0.03434345 -0.030850526 0.057670727 -0.017175153 0.05750866 0.15019003 -0.13720328 -0.0051896153
-0.15548204 0.14418949 -0.056747485 0.008104447 0.062098008 -0.017207924 -0.12449119 -0.107131355
-0.016764555 -0.16150612 -0.1395686 0.07701965 0.13212405 -0.029533746 -0.11251663 0.13392192
0.04337868 -0.014025011 -0.07803605 0.15238927 0.11884393 -0.11290998 -0.09740164 0.026203785
-0.057870105 -0.14478146 -0.08918125 -0.13884033 0.13055184 0.015024908 -0.030156493 -0.1254696
0.1401236 0.007072508 -0.060309354 -0.07091355 0.08202038 0.0297822 0.12565738 -0.08799479
0.01966732 -0.094633296 0.07687651 -0.043661315 -0.056894977 -0.10280605 0.043558903 0.09427043
-0.086643144 -0.02532778 -0.13296516 0.071884654 0.108016856 0.1432186 0.032128904 -0.041655567
-0.10302271 -0.07247164 -0.15294226 -0.06651985 -0.066041216 -0.09788347 -0.046941426 -0.014425631
-0.09701975 -0.1464617 -0.027431924 0.13286588 0.01494601 -0.13418375 -0.06415197 -0.07126803
0.15863305 -0.1015052 0.12103169 -0.11468678 -0.04639739 0.1406961 0.12698355 0.1120669
-0.05490635 -0.0083359815 0.13285075 -0.00046817033 0.058791127 0.0024698803 0.0995949 0.10510711
-0.09348545 -0.079073645 -0.07071487 0.033256963 0.06529547 0.012688791 -0.117448665 -0.094682395
0.013600444 0.04588353 -0.057662506 0.14585413 -0.15485907 0.013819331 -0.09955306 -0.11709411
0.13058689 -0.043731328 -0.14094508 0.010206731 0.14795212 0.11256896 -0.0063736476 0.08613409
0.0048690885 -0.13656639 -0.12592058 -0.0773201 -0.061988313 -0.03822301 0.051995356 -0.07564936
-0.05348797 -0.0522963 -0.0908198 0.03147927 0.12060329 0.098617636 0.052372165 0.0076778214
-0.015170442 0.07647436 -0.051862016 0.019752624 -0.06057378 0.16478057 0.013550014 -0.094737604
-0.046349034 -0.11432288 0.06894957 -0.10896362 -0.04529661 -0.02455605 -0.07628176 -0.067463495
0.035120104 -0.11405063 -0.099897295 -0.052693486 -0.031976998 0.12814939 -0.14216734 -0.03864854
0.06655354 0.019319046 0.116023034 -0.03801273 -0.022280328 -0.013952475 -0.02989808 -0.07766022
0.0362967 -0.115742795 -0.008991282 -0.13632253 0.023782067 0.02754576 0.09965966 -0.0103420075

lstm.bias_ih_l1 f4 [200]
00000000: 0dcb c4bd 9aec c53d ec52 a2bd ee26 babd
00000010: ae78 503d 86ff e6bd a727 bcbc e870 90bd
00000020: 71d8 1abd f9ec d83d d44a fc3d 6b7e 083e
00000030: 516e af3c ba1f fabd 4bac eabd 8753 10be
00000040: f157 c2bd 470e 0f3e 01d6 b3bd 6126 8abd
00000050: f731 7bbc 382b 59bd f4d5 b7bd 8b98 0cbd
00000060: b745 b03d bcef f9bb 17bd 903d 8747 05be
00000070: 15c6 b5bd 9876 12ba 9aeb 083d bdaf b8bd
00000080: dc63 173e 3045 8cbd dd99 14bd d008 04bd
00000090: ffb4 1c3d 4c57 eabc dd28 7e3d 7320 9abd
000000a0: 0bca cc3d ddd2 c43c 6185 02be ac85 7abd
000000b0: e8a1 39bd 5607 a0bd 45ad 4fbd f5ba 903d
000000c0: 2441 d3bc 9e66 083d d73d a5bc 01e6 833d
000000d0: 2d47 aa3b 1f6a 8c3d 3cf2 493d a4c7 7db9
000000e0: a627 21bc 23ad 9f3d 318d fa3d da3b e83d
000000f0: 4891 07be 2371 093e d42f 3d3d 1379 f63d
00000100: 4695 e73d 14ba a8bd 4099 75bb 5e7a 213d
00000110: 0a79 683d 79fe 8e3d e5b9 d2ba bb53 1d3c
00000120: c58a 58bd 69ce 8a3d fcff 023d 8e34 e8bd
00000130: 3501 e03d 6700 b93d 7be7 1a3e 2448 0e3d
00000140: 55f8 a2bd 622a 06be 7776 e23c f73c 0f3e
00000150: de89 e6bd 1736 103e 5b90 8cbd 9ba0 9cbb
00000160: b101 92bd 086b bbbd cc69 7fbc fd24 06be
00000170: 3b69 2d3d 3a54 9bbd 989a 08be 443f 8ebd
00000180: 443b 653d 9cf3 7dbd 51e6 003b 629b 97bb
00000190: 21b6 cd3d 7ebd 8fbc 5a98 d2bd 812a 643c
000001a0: c4d0 6e3d f2ed 22bd ccb8 38bd 1372 00be
000001b0: 0a58 c0bc feb1 95bd c15f 563d e83b 44bc
000001c0: 46cc e63d c8c8 5dbd bdec fbbd 80dc 663c
000001d0: 9796 18be ab18 6d3c 27bb cb3d 7525 0ebe
000001e0: 1c3b 34bc 5e69 32bd cb63 0c3e 2c7e 8dbd
000001f0: 1b23 6d3b d1b3 1bbd 5694 643d 4808 153d
00000200: 9462 1f3c b791 f5bd dc5c fa3d a444 1cbd
00000210: 8f04 063d 8185 76bb 6126 01be 0b30 893b
00000220: e168 cc3d 655f 74bd 6fb0 abbd 4702 eabd
00000230: e981 7abd 8ab9 033d a9e2 ccbd 2551 0dbe
00000240: b44a 443c d912 083d 039c 803d 7792 eabd
00000250: b745 a23d 5ecd 0a3c 034e fabd 0e95 bdbc
00000260: 8053 b83d 5fb0 073e ff57 913d 5b10 8abd
00000270: ea28 05be c2f8 abbc 298a 82bc 1ac2 46bc
00000280: 9880 113e be55 b3bd 5816 a0bd 147d d83d
00000290: 1cbb b1bb 7882 14be 5126 8b3d 7322 99bd
000002a0: 7cd1 08bd e386 0c3d 0cb7 cfbd 65ac 903b
000002b0: 1247 943c cc34 7cbc bf99 fb3b 89f4 733c
000002c0: 9a18 ac3d 9aa1 9abd 2a20 903c 2858 9ebd
000002d0: c390 cd3d bee4 90bd de98 ed3d b829 5c3d
000002e0: 8954 d23d d370 34bd dcc3 553d 51e4 933d
000002f0: 39af fd3d 1e1b c0bd 039e 09bd caa1 4c3d
00000300: e1b9 b4bd a0cd 0abc b0b6 d83d 2328 71bd
00000310: e12a dabd ce43 54bc 56b5 9fbd ff1b 81bd
-0.09609041 0.09664269 -0.07925972 -0.090894565 0.05089634 -0.11279206 -0.022968126 -0.07052785
-0.03780407 0.10592074 0.1231896 0.13329475 0.021414908 -0.122130826 -0.114586435 -0.14094363
-0.0948943 0.1397029 -0.087810524 -0.067456014 -0.015331737 -0.053019732 -0.08976355 -0.034325164
0.08607047 -0.0076274555 0.07067316 -0.13015567 -0.08875672 -0.000558713 0.033427812 -0.090178944
0.14784187 -0.06849134 -0.036279548 -0.032234967 0.03825855 -0.02860608 0.06205069 -0.075257204
0.09999474 0.024026329 -0.12746193 -0.061162636 -0.04532042 -0.07813899 -0.050702352 0.07066909
-0.025787897 0.03330099 -0.02017109 0.06440354 0.005196473 0.068561785 0.04930328 -0.00024202332
-0.009836113 0.07796695 0.122339614 0.11339541 -0.13239014 0.13422064 0.04618819 0.12034812
0.113077685 -0.082386166 -0.0037475377 0.03942334 0.056756057 0.069821306 -0.0016077129 0.009602482
-0.052866716 0.06777651 0.031982407 -0.11338149 0.1093773 0.0903328 0.15127365 0.034736767
-0.07957522 -0.13102105 0.027644379 0.139881 -0.11256765 0.14083134 -0.06863471 -0.004779888
-0.07129229 -0.09151274 -0.015589189 -0.13100047 0.042336684 -0.07584424 -0.13340223 -0.06945661
0.055964723 -0.061999902 0.001966853 -0.0046266774 0.10044504 -0.017546412 -0.10282965 0.013926149
0.058304563 -0.039777704 -0.04509811 -0.12543516 -0.02347948 -0.0730934 0.05233741 -0.011977173
0.11269431 -0.054146558 -0.123010136 0.014090657 -0.14901195 0.014471213 0.09947806 -0.13881476
-0.011000421 -0.043557517 0.13709943 -0.06908831 0.0036184255 -0.038013283 0.055805527 0.03638485
0.009728093 -0.119906835 0.12224743 -0.0381514 0.03271919 -0.0037616196 -0.12612297 0.0041866354
0.099809416 -0.059661288 -0.083832614 -0.114262156 -0.06115905 0.032159366 -0.100041695 -0.13800485
0.011980701 0.0332211 0.06279757 -0.11453717 0.07923453 0.008471815 -0.12221911 -0.023142364
0.09000301 0.13250874 0.07096862 -0.06741401 -0.13003889 -0.02099264 -0.01593502 -0.012131238
0.14209211 -0.087565884 -0.07816762 0.10570732 -0.0054239165 -0.14502895 0.06794418 -0.07477274
-0.033402905 0.034308325 -0.10142335 0.0044150823 0.018100295 -0.015393447 0.00767824 0.014889845
0.0840313 -0.07550354 0.017593462 -0.07731658 0.10037377 -0.07074879 0.11601423 0.053750724
0.1027003 -0.04405291 0.05218874 0.07221282 0.12386937 -0.09380172 -0.033597957 0.04995898
-0.08824516 -0.008471876 0.1058172 -0.058876168 -0.1065271 -0.012955619 -0.07798259 -0.06304168

lstm.bias_hh_l1 f4 [200]
00000000: 829f 2e3c a4be 0a3e 415b db3d fcad 173e
00000010: b56e 0e3e 62fb a2bd acd4 b9bd 11bb 3f3c
00000020: b198 193e 7372 9f3d 5e89 153e ea10 49bb
00000030: 2b42 f1bd fce2 c8bd bdc6 dabc 57c8 e4bd
00000040: 3bcc a6bd 64ef 89bd 3ecf 103e cebf bfbd
00000050: 99fa 073e 21c6 f33d 505b c33d 54c6 fcbd
00000060: 8f9c cebc 7722 213c d7d3 643d 4153 293d
00000070: 9089 91bc ebf7 b93d 071b 333d 4f33 003e
00000080: ad65 f0bd 2044 8bbd 9393 29bd 7a51 8cbd
00000090: b664 c5bd c5cd d3bd 9ae0 82bd 3360 fc3d
000000a0: e139 463c a035 cf3d bd15 aa38 047f 8bbd
000000b0: 42a6 5d3d e82a 883d 0f3b b8bd 947f e8bd
000000c0: f7d7 f03c 81f1 9abd 8b0e c5bd 269f e93d
000000d0: 82d0 b33d 2e3c a13d 9fa5 c83d 6ecd 44bd
000000e0: 0fa0 ccbd f738 8cbd 7db0 9c3d 4d3e f93d
000000f0: 35d9 ba3c 57d4 e7bd 5220 9ebc cb34 c23d
00000100: 46d7 da3d 12d1 6b3c 1944 96bc 99fe f7bd
00000110: ce1d 773d ec01 883d 0e9e 88bc 37c5 91bd
00000120: bf20 c73d 096d 03bd 4fab 53bd d754 0c3b
00000130: 1102 0f3d 3f8a 98bd 6cf6 c7bd 63ac 8dbd
00000140: f34a bb3d 665e 1b3e 4af2 02bd 2c19 d03b
00000150: c84a 0fbc e518 d33d 9762 b7bc 40e5 113d
00000160: eeba 97bd ac07 67bd 81b6 febd dbda 53bd
00000170: 217a 943d 7b19 b83d 4ca8 ea3c ebc1 e83d
00000180: 9c96 f2bd 868a f8bd d403 2cbc 25a7 e73c
00000190: 2d20 c03d 7861 76bb f399 033e 42a0 6ebd
000001a0: fefc 19bd c684 263d ff6d bbba 15e9 0bbe
000001b0: fda7 503c c723 bdbd 9dc9 17bd aa38 ab3d
000001c0: 6d74 11be 4133 08be 4fe0 14b9 bdd5 903d
000001d0: 3561 de3d 91be 80bb e1b4 d1bd 1a62 693d
000001e0: a1f4 0cbb ff14 013e c989 673c 03d4 013e
000001f0: f024 50bd 9e3b 95bd b078 e5bc 443b 1ebd
00000200: 5830 533c 4130 a33d 44b1 803d 8e7e 48bd
00000210: 89bf 55bd 6339 143d 2189 9abd 460b fa3d
00000220: 8ded efbb 2536 6c3d 73f9 7b3c 70e3 3bbc
00000230: d971 573d 840e 8bbd e6d2 7e3d a923 6dbb
00000240: d83a 5bbd 4871 13be 0ebd c33c 1983 0dbe
00000250: d4b3 083e 5051 92bd e9cf bd3d b80f 983d
00000260: ac3e d13d 6988 933d 3108 d4bc dfec b3bc
00000270: 9fd0 3f3d 12a3 7dbd b375 6ebc d32b 12be
00000280: 1d05 db3d 8ffb 973d ce96 4bbc 844a 0cbc
00000290: a115 49bd 1dd8 2ebc 6da9 123e af2a f7bb
000002a0: 8f71 febc ee67 f03c 3e96 d1bd 32cc af3d
000002b0: 446c c7bc 4894 f53d 5c63 423d 03cd ddbc
000002c0: 4359 b33c b286 1dbd 87b4 1cbd 248c 293d
000002d0: 70e2 0c3d ee59 093e 960e 06be 851a 963d
000002e0: 51f1 8c3d 2119 b3bd f2bb dd3b 336d c2bd
000002f0: 8fdb d6bd badb f73c 26ba ca3d 6d00 a8bd
00000300: d643 d7bd 972d 8abd 0e7a 213d d977 d2bb
00000310: 77da 943d 3eda c83d 185f 093e f929 7abd
0.010658147 0.13549286 0.10710765 0.14812464 0.13909419 -0.07958104 -0.09073767 0.011702315
0.14999653 0.07785501 0.14603183 -0.0030680248 -0.11780199 -0.09808919 -0.026706094 -0.11171024
-0.081444226 -0.06735113 0.14141557 -0.09362756 0.13279189 0.119030245 0.09538901 -0.123425156
-0.025221137 0.009834877 0.05586609 0.041339163 -0.01776579 0.0908049 0.043726947 0.12519573
-0.11738143 -0.06800103 -0.041400503 -0.06851478 -0.0963835 -0.10341982 -0.063904956 0.12323036
0.01209876 0.1011765 8.110281e-05 -0.06811336 0.054113634 0.06648809 -0.089956395 -0.113524586
0.029399855 -0.075655945 -0.096219145 0.11407308 0.08780004 0.078728065 0.09797215 -0.048047476
-0.09991466 -0.06846803 0.0765085 0.12170086 0.02280865 -0.113197975 -0.01930252 0.09482726
0.106855914 0.014393108 -0.018343018 -0.121091075 0.06033116 0.066409916 -0.016676929 -0.07117694
0.09723043 -0.032086406 -0.051677044 0.0021412873 0.03491408 -0.07448243 -0.09763798 -0.06917646
0.09145155 0.15172729 -0.031969346 0.006350657 -0.008745857 0.10307483 -0.022385878 0.03561902
-0.07408701 -0.0564038 -0.124371536 -0.05172239 0.07249857 0.08989235 0.028644703 0.11365112
-0.11845133 -0.12135796 -0.01049896 0.028277943 0.09381137 -0.0037594717 0.12851696 -0.058258303
-0.037594788 0.040653966 -0.0014299749 -0.13663132 0.012735364 -0.092353396 -0.037057508 0.08360417
-0.14204569 -0.13300802 -0.00014197941 0.07072017 0.108583845 -0.0039289673 -0.10239578 0.056978323
-0.0021508115 0.12605666 0.014131972 0.12678532 -0.050816476 -0.07286762 -0.02801165 -0.03863074
0.012889944 0.07968188 0.06283811 -0.048948817 -0.052184615 0.03618754 -0.075456865 0.122091815
-0.0073220194 0.057668824 0.015379298 -0.0114678 0.052598808 -0.06789878 0.062212847 -0.0036184585
-0.053522915 -0.14398682 0.02389386 -0.13819541 0.13349849 -0.071444154 0.09268171 0.07424873
0.10217032 0.072037525 -0.025882812 -0.021963535 0.046829816 -0.061923094 -0.014554429 -0.1427453
0.10694335 0.07421028 -0.012426091 -0.008562688 -0.049092893 -0.010671643 0.14322443 -0.00754293
-0.031060008 0.029346433 -0.102337345 0.08583869 -0.024343617 0.11991173 0.047458038 -0.027075296
0.02189315 -0.038458534 -0.0382581 0.041393414 0.034395635 0.13413212 -0.13091502 0.07329277
0.06881965 -0.08745027 0.0067667896 -0.09493484 -0.10491096 0.030256141 0.09898786 -0.08203206
-0.105109856 -0.06746977 0.03942304 -0.0064229784 0.07268231 0.098072514 0.13415182 -0.061075184

attention.attention.weight f4 [1, 50]
00000000: 1126 943d 5b18 3f3c a5ca 8b3e 4857 0ebe
00000010: 8e8b acbe 9a4d 63be c98a 2dbd 2eb7 4f3d
00000020: e5ab 82bd 17ca cbbc fc3b 743e e351 f9bb
00000030: 6043 91be e57a 36bd cb34 cd3c 4c83 183e
00000040: 7f54 a83e efb3 dcbd 7107 9b3e 1467 9b3e
00000050: 20e1 8e3e 7347 ac3d aefd 8f3e 8055 8e3e
00000060: b4c9 7c3d 6030 97be 025a 4e3e 1771 803e
00000070: 42ff 443d 7703 dfbd 98ae 9bbd a757 ad3d
00000080: 9c3e 8bbd 4ad8 f63d 8560 03be 78bc b23e
00000090: e5ea 373e 0339 3bbe 19ef 08be be22 93be
000000a0: 7f23 03be acad ef3d 0d7f 323e 6a60 aebe
000000b0: a41b 47be 6d18 9fbc 38de 96be ae7b 7cbe
000000c0: 5c19 843e f707 043e
0.07233823 0.011663522 0.27303043 -0.13900483 -0.33700222 -0.22197571 -0.042368684 0.050711803
-0.063804425 -0.024876637 0.23851007 -0.0076086386 -0.28371716 -0.044550795 0.025049588 0.14893836
0.32876965 -0.10776507 0.30279115 0.3035208 0.27906132 0.08412065 0.2812323 0.27799606
0.061715797 -0.29529095 0.20151523 0.2508628 0.048094995 -0.10889333 -0.076016605 0.08463984
-0.06799051 0.120529726 -0.12829788 0.34909415 0.17960699 -0.18283467 -0.13372459 -0.28737444
-0.1280651 0.11703047 0.17431279 -0.34057933 -0.19444138 -0.019420827 -0.29466414 -0.24656555
0.25800598 0.12893663

fc.weight f4 [1, 50]
00000000: 5b98 993e 34d2 3ebd 6c2f 62be 6790 8fbe
00000010: f16d 79be 9a7d 903e 5192 10be 6dce 7abe
00000020: 3bb4 8fbe 48a8 173e 81c6 343e 39d7 5f3d
00000030: 8fc5 9abd bfbc 4abe e2c9 343e 42fa 87be
00000040: db18 77be 44ec 51bd 652b 8abe afbf 0fbe
00000050: 7a69 9a3e 6b71 9d3d 7e9b 373e 2e9e d63d
00000060: c7db c63b 08b1 ac3e 1f26 603e 87bd 03be
00000070: ef9d 613e c182 863e b69b 453c e65d 54be
00000080: 937b e7bc cc9e 323e 4d9f cc3d 639b 1d3c
00000090: 13b3 b2bd cea8 a63e ffc9 0cbe 9e4f 0cbe
000000a0: a5ed e53d 0013 2abe dc63 993e 182f 013e
000000b0: 46be 753e 99bd 4bbe 9d99 81be 70e3 5cbe
000000c0: 7ce5 693c e46c 9cbe
0.2999905 -0.046587184 -0.22088403 -0.28039858 -0.24358346 0.28220826 -0.14118315 -0.24492808
-0.28067192 0.14810288 0.17653848 0.05464861 -0.075572126 -0.19798563 0.17655137 -0.2655812
-0.24130575 -0.05125071 -0.26986232 -0.14037965 0.30158597 0.076876484 0.1793041 0.10479389
0.00606868 0.33728814 0.21889542 -0.12865268 0.22032903 0.26271632 0.01206105 -0.20738944
-0.028257167 0.17443389 0.09991322 0.009619567 -0.08725562 0.32550663 -0.1374893 -0.13702247
0.11226968 -0.1660881 0.29959 0.12615621 0.23998365 -0.19896545 -0.2531251 -0.21571136
0.014275905 -0.30551827
