src/model_weights.pth (torch, 131013 bytes, 10 tensors)

lstm.weight_ih_l0 f4 [200, 6]
-0.05612306 0.16350181 -0.03421999 -0.11330874 0.030502897 -0.13670313 0.023972934 0.16209744
-0.045122292 0.15026358 0.013695598 -0.06170741 -0.106148615 0.10320454 0.14014667 0.014148373
-0.0158361 0.15164225 -0.074687004 0.17433569 -0.13330661 0.13162883 -0.04194287 -0.06265954
0.060804617 -0.08127658 -0.076433405 0.12100212 0.039926868 -0.028754361 0.049908385 -0.023182565
0.0880628 -0.049465064 0.06166499 0.018631417 0.053794235 -0.08521152 -0.08596747 0.114874616
0.121432744 -0.16364303 -0.043073647 -0.10720627 0.08088112 0.043618716 0.12652116 0.14554048
0.046324003 0.11242117 0.031579275 0.13701497 0.15707746 -0.055902097 -0.056435198 0.102099165
-0.044928767 -0.12234273 0.02517692 0.04292204 0.02303369 -0.1259174 0.12203055 0.1060556
-0.007818159 0.08455115 -0.031538796 -0.016487032 -0.11444036 -0.012249366 -0.120701306 -0.05928225
0.103352405 0.044003442 0.14981668 0.056322403 -0.019103806 -0.10912438 -0.15549663 -0.11477999
0.02376455 -0.031252485 -0.0335373 0.15119223 0.027769271 0.060586046 0.0061277035 -0.020035429
-0.1590458 -0.009908248 -0.025794351 0.073649034 0.12299732 0.081213415 -0.12127418 -0.11888238
0.15495487 -0.06681617 -0.18473281 -0.0034269206 -0.06429456 -0.061098866 -0.11821692 0.05120355
0.11171496 0.13566875 0.09230668 0.06400461 -0.018238414 0.093172975 -0.1315431 -0.015063638
-0.14152539 0.10056126 -0.12929747 0.038977657 0.13934708 0.17438027 0.052721422 -0.07908752
0.07637161 -0.12945351 0.097084686 -0.09850966 0.08434339 -0.04567163 0.068301275 0.10709969
0.15228423 -0.023368195 0.09778891 -0.1675814 -0.045162946 0.046407763 0.08815625 0.036089927
-0.155858 -0.13871731 0.15594442 0.07614722 0.016119072 -0.08278517 0.0186462 -0.0044027385
-0.02586064 -0.051575538 0.08204203 -0.028721543 -0.16870648 -0.060813207 0.09203611 0.15967822
0.016758658 0.16212906 0.1430075 0.056906812 -0.14549102 -0.0547037 0.13532671 -0.058023363
-0.11964115 0.06347925 0.015316658 0.05488152 -0.13733347 0.0748565 0.13530934 0.1172919
0.17664097 0.020144397 0.1251019 0.15831615 0.17672242 -0.053828225 0.019686934 0.14502895
-0.15547822 -0.035932746 0.13008606 0.123774864 -0.14015804 -0.112082876 -0.11542555 0.1564583
-0.15366438 0.16152999 0.13532917 -0.14109442 -0.018537454 -0.12167861 -0.04128468 -0.12612183
0.075205 0.08888204 0.133903 -0.034417056 0.081836775 -0.043125562 -0.077966 0.063195854
-0.12742643 -0.04695047 0.094855644 0.06334902 -0.14932284 0.082009055 -0.16785653 0.06174065
0.046660464 0.08690771 0.05727326 -0.11091748 -0.04903833 0.115773186 -0.050810266 0.060509562
-0.04836857 -0.043264523 0.11258948 0.016804043 0.07756195 0.032681547 -0.07042917 0.07215259
0.04094302 -0.13860567 0.016937349 -0.14839853 -0.049197797 0.013964571 -0.13452542 -0.044603627
0.020931391 0.118897825 0.11230241 0.030061211 -0.16031426 -0.063202076 0.044883404 0.15290172
0.047900587 -0.051306408 0.026964117 -0.04300826 0.13264072 0.12658854 -0.027027685 0.12445346
-0.10590257 -0.09434729 0.16846287 -0.12632546 -0.13963959 0.011045335 0.053435378 -0.12553875
00000000: 4be1 65bd 056d 273e 432a 0cbd 6a0e e8bd
00000010: 36e1 f93c e8fb 0bbe e362 c43c dffc 253e
00000020: 27d2 38bd b2de 193e 8063 603c e9c0 7cbd
00000030: 7264 d9bd e75c d33d 9c82 0f3e 94ce 673c
00000040: b5ba 81bc 1b48 1b3e 80f5 98bd 0e85 323e
00000050: 8781 08be b5c9 063e 49cc 2bbd a553 80bd
00000060: 430e 793d 5674 a6bd 1e89 9cbd f6cf f73d
00000070: 5b8a 233d 448e ebbc bc6c 4c3d 5de9 bdbc
00000080: 455a b43d e19b 4abd 6e94 7c3d eaa0 983c
00000090: 5857 5c3d 6183 aebd b70f b0bd 6243 eb3d
000000a0: bbb1 f83d 0a92 27be fe6d 30bd f68e dbbd
000000b0: 00a5 a53d 8aa9 323d c38e 013e 9008 153e
000000c0: 3dbe 3d3d 123d e63d 4559 013d a74d 0c3e
000000d0: ead8 203e 99f9 64bd 9828 67bd 5e19 d13d
000000e0: 3a07 38bd d38e fabd d43f ce3c 05cf 2f3d
000000f0: 26b1 bc3c 7ef0 00be 27eb f93d ae33 d93d
00000100: bc17 00bc 2729 ad3d d32e 01bd d00f 87bc
00000110: b55f eabd 91b1 48bc 3f32 f7bd f2d1 72bd
00000120: 6daa d33d f43c 343d 8b69 193e 52b2 663d
00000130: 967f 9cbc 9a7c dfbd 823a 1fbe c511 ebbd
00000140: e0ad c23c 9b02 00bd 685e 09bd 23d2 1a3e
00000150: 627c e33c 1329 783d e7ca c83b 5721 a4bc
00000160: e7dc 22be 3456 22bc ad4e d3bc 4ed5 963d
00000170: 05e6 fb3d 3853 a63d 995e f8bd 9b78 f3bd
00000180: 7dac 1e3e ebd6 88bd 992a 3dbe 3096 60bb
00000190: deac 83bd ce42 7abd b61b f2bd d0ba 513d
000001a0: d0ca e43d c0ec 0a3e 490b bd3d d914 833d
000001b0: ba68 95bc 79d1 be3d 3cb3 06be 7acd 76bc
000001c0: 08ec 10be 10f3 cd3d 8e66 04be 09a7 1f3d
000001d0: 00b1 0e3e be90 323e 6bf2 573d a3f8 a1bd
000001e0: b868 9c3d 768f 04be 56d4 c63d 6fbf c9bd
000001f0: 3abc ac3d 2d12 3bbd 8ae1 8b3d 1557 db3d
00000200: 66f0 1b3e a86e bfbc 8d45 c83d 759a 2bbe
00000210: c8fc 38bd 1116 3e3d 448b b43d 08d3 133d
00000220: 3d99 1fbe e90b 0ebe e5af 1f3e 13f3 9b3d
00000230: 250c 843c 458b a9bd eabf 983c d944 90bb
00000240: b1d9 d3bc df40 53bd a705 a83d 7149 ebbc
00000250: 64c1 2cbe 4517 79bd 6e7d bc3d b082 233e
00000260: 7449 893c 2905 263e 8f70 123e 1e17 693d
00000270: 99fb 14be fd10 60bd 1693 0a3e e8a9 6dbd
00000280: 6b06 f5bd 6901 823d b8f2 7a3c 72cb 603d
00000290: 25a1 0cbe 5d4e 993d 888e 0a3e bc36 f03d
000002a0: 5fe1 343e dd05 a53c b61a 003e a11d 223e
000002b0: b9f6 343e fc7a 5cbd 7e46 a13c 7882 143e
000002c0: af35 1fbe 372e 13bd 4835 053e ad7d fd3d
000002d0: 9785 0fbe b58b e5bd 3b64 ecbd 9b36 203e
000002e0: 325a 1dbe 1e68 253e bb93 0a3e 0e7b 10be
000002f0: dcdb 97bc a332 f9bd 201a 29bd 1526 01be
00000300: 1405 9a3d c907 b63d de1d 093e e6f8 0cbd
00000310: 0a9a a73d 6ea4 30bd a3ac 9fbd d46c 813d
00000320: 137c 02be 234f 40bd ad43 c23d 22bd 813d
00000330: 16e8 18be 5df4 a73d 95e2 2bbe c4e3 7c3d
00000340: 0b1f 3f3d abfc b13d 5e97 6a3d b428 e3bd
00000350: 6adc 48bd 7e1a ed3d 6d1e 50bd e0d8 773d
00000360: 1f1e 46bd 2436 31bd 5095 e63d a2a8 893c
00000370: cdd8 9e3d 16dd 053d 2b3d 90bd bdc4 933d
00000380: deb3 273d a5ee 0dbe 32c0 8a3c c9f5 17be
00000390: a183 49bd a8cb 643c 08c1 09be 4bb2 36bd
000003a0: 4f78 ab3c b480 f33d cefe e53d ee42 f63c
000003b0: 6c29 24be 1770 81bd a9d7 373d 4592 1c3e
000003c0: 6833 443d ab26 52bd dae3 dc3c 6e29 30bd
000003d0: f8d2 073e 6da0 013e 2a69 ddbc 75e1 fe3d
000003e0: 72e3 d8bd 2739 c1bd 8881 2c3e 765b 01be
000003f0: aefd 0ebe 7ef7 343c 0edf 5a3d 3b8d 00be

lstm.weight_hh_l0 f4 [200, 50]
-0.056190677 -0.026382314 0.06638723 -0.04992873 0.026441269 0.11849058 0.02517141 -0.06417804
-0.049723294 -0.03904257 -0.08843909 -0.06616798 -0.056775857 -0.10675415 -0.08815989 -0.12869231
-0.02246784 0.115574665 0.14713544 6.468565e-05 0.040236484 -0.06922012 0.01278386 -0.07305676
-0.13476583 0.11005255 -0.022631165 0.026642328 0.00077242067 -0.050420057 -0.0045491788 0.09958614
0.07596456 -0.09273051 -0.13513774 -0.047343798 -0.13762906 -0.09086248 -0.07487858 0.117494054
0.121842295 0.02068925 0.09008283 0.089406714 0.0076192366 0.11020859 -0.14368813 -0.05620237
-0.03876704 -0.073455974 0.054546263 0.027056431 -0.0009923225 0.08604453 0.043154713 -0.040958084
0.10063513 0.046960484 -0.10647703 0.10470203 -0.10668347 0.10377874 -0.081699505 -0.118997484
0.14875221 0.09356318 0.049717113 0.12019635 -0.046198305 0.054446496 0.08000462 0.07079061
0.1137606 0.13857776 -0.1587891 0.12992345 0.0579931 0.06027291 -0.06863359 7.681256e-05
0.07778667 0.084063895 0.050511762 0.14433812 0.11423551 0.18500203 -0.027460767 0.08127741
0.010073808 -0.13425745 0.0029899483 0.051967774 0.008777553 -0.04372777 0.07983875 -0.08750798
-0.11730095 0.13860954 -0.13371316 -0.07526324 -0.14727324 -0.018424613 0.0095587075 0.054087356
-0.106860414 0.087270334 0.08535112 -0.063530914 0.033298217 -0.07219314 0.07570337 -0.010915817
-0.05711971 -0.12332721 -0.07015078 0.05430884 -0.13001248 0.12033451 0.06552894 0.022121465
-0.14104542 0.13843147 0.09666202 0.08930934 -0.025768293 -0.12817298 0.11641973 -0.009550386
-0.12142536 0.024545174 0.020153308 -0.004409063 -0.14753993 -0.037619784 0.0071879635 0.14485829
0.08952592 -0.09879994 0.13643685 0.12062645 -0.010218159 0.03229356 -0.15673311 0.092418626
-0.05533743 -0.12725261 -0.053005718 0.13922931 -0.11046052 0.11579444 0.07315211 -0.13214883
0.109291665 -0.13613953 -0.10477932 0.0093852 0.08287811 -0.06882953 0.119290374 -0.016109297
0.12901983 0.1261975 0.116761126 0.13878745 0.15511936 -0.07820833 0.16279764 -0.07202085
0.10788578 -0.10634893 0.049281046 -0.13189805 0.05015107 0.016739298 0.108500525 -0.16067421
0.11030359 0.15394399 -0.010237186 -0.10656678 -0.16344184 -0.11598255 -0.0037694946 -0.07383348
0.0142056905 0.016450953 0.034456454 -0.08747278 -0.06277073 0.008303173 0.14871705 -0.009970405
0.03594536 0.0046057864 0.03363951 -0.07258321 0.15968814 0.04284995 0.11514036 -0.009098384
0.025667965 -0.06554285 0.04310718 -0.1130188 -0.09214232 -0.0080526015 0.07307156 0.057261057
-0.14714651 -0.026239373 0.16015549 -0.07075882 -0.06843516 -0.067309596 -0.049344413 0.14693072
-0.008120391 -0.054176293 -0.13518758 -0.15408911 -0.109999396 -0.14967027 0.06975479 0.13066444
0.09508903 0.0066855657 -0.062946744 -0.15695348 0.047282152 -0.05483199 0.015949959 -0.005013122
0.03328821 -0.064613946 -0.12962174 0.121454835 -0.0065095415 -0.0788347 -0.012679551 -0.08528899
0.1268353 0.0049061766 0.15185612 -0.08446382 0.15704413 -0.08172802 -0.025093835 0.02994701
0.13644782 0.11178366 -0.10483481 0.020309117 0.031037161 -0.03949736 -0.066098645 0.09403759
00000000: 3228 66bd b91f d8bc 07f6 873d 1182 4cbd
00000010: 5c9b d83c 30ab f23d 4634 ce3c c76f 83bd
00000020: a7aa 4bbd 1aeb 1fbd 8e1f b5bd 1483 87bd
00000030: cd8d 68bd eba1 dabd 2c8d b4bd ebc7 03be
00000040: 7a0e b8bc 69b2 ec3d acaa 163e d8a7 8738
00000050: 03cf 243d 47c3 8dbd 6573 513c c89e 95bd
00000060: 0e00 0abe 3b63 e13d fe64 b9bc 0341 da3c
00000070: 467c 4a3a 4385 4ebd 4711 95bb d1f3 cb3d
00000080: 4f93 9b3d 7ee9 bdbd 8c61 0abe 92eb 41bd
00000090: a2ee 0cbe 1c16 babd f159 99bd b9a0 f03d
000000a0: 7488 f93d 817c a93c 597d b83d de1a b73d
000000b0: caaa f93b 0bb5 e13d fb22 13be 7534 66bd
000000c0: 30ca 1ebd 1670 96bd e76b 5f3d 73a5 dd3c
000000d0: d110 82ba 1d38 b03d ffc2 303d aac3 27bd
000000e0: cb19 ce3d a359 403d a110 dabd 056e d63d
000000f0: dd7c dabd f389 d43d 1252 a7bd f4b4 f3bd
00000100: 8052 183e 0d9e bf3d 2ca4 4b3d 8129 f63d
00000110: 6f3a 3dbd 4a03 5f3d 76d9 a33d abfa 903d
00000120: 51fb e83d 54e7 0d3e 9c99 22be a70a 053e
00000130: 2c8a 6d3d bae0 763d c58f 8cbd 6e16 a138
00000140: 9e4e 9f3d b129 ac3d 6ce5 4e3d 5fcd 133e
00000150: 4ff4 e93d 2c71 3d3e 67f5 e0bc c574 a63d
00000160: 9d0c 253c c97a 09be 02f3 433b 29dc 543d
00000170: bacf 0f3c e41b 33bd 8082 a33d 6237 b3bd
00000180: 7b3b f0bd a9ef 0d3e 1aec 08be 9d23 9abd
00000190: ccce 16be 37ef 96bc 209c 1c3c b48a 5d3d
000001a0: a2d9 dabd caba b23d 91cc ae3d 7f1c 82bd
000001b0: b663 083d ffd9 93bd 5e0a 9b3d 41d8 32bc
000001c0: 5bf6 69bd fa92 fcbd 36ab 8fbd f272 5e3d
000001d0: fe21 05be f171 f63d 0934 863d 1338 b53c
000001e0: 366e 10be fbc0 0d3e bdf6 c53d d1e7 b63d
000001f0: 0718 d3bc c73f 03be 786d ee3d 3979 1cbc
00000200: dcad f8bd f612 c93c 8d18 a53c e779 90bb
00000210: b514 17be 3417 1abd 0289 eb3b bb55 143e
00000220: 5e59 b73d 9f57 cabd 1ab6 0b3e 000b f73d
00000230: 116a 27bc 4146 043d a57e 20be fa45 bd3d
00000240: 80a9 62bd 824e 02be 861c 59bd 2192 0e3e
00000250: 2039 e2bd a325 ed3d c6d0 953d 0652 07be
00000260: 4fd4 df3d 2968 0bbe 8a96 d6bd 62c4 193c
00000270: 00bc a93d 7ff6 8cbd 834e f43d a5f7 83bc
00000280: c61d 043e eb39 013e 7520 ef3d 4c1e 0e3e
00000290: 9cd7 1e3e b02b a0bd 6db4 263e ab7f 93bd
000002a0: 38f3 dc3d 78cd d9bd ecda 493d 4810 07be
000002b0: 356b 4d3d da20 893c 8635 de3d c887 24be
000002c0: d9e6 e13d 7ea3 1d3e dfb9 27bc af3f dabd
000002d0: 4c5d 27be 4288 edbd a009 77bb 0236 97bd
000002e0: fcbe 683c 26c4 863c 3622 0d3d ee24 b3bd
000002f0: f18d 80bd 080a 083c 4849 183e e95a 23bc
00000300: 713b 133d 23ec 963b 95c9 093d 82a6 94bd
00000310: 4a85 233e 6e83 2f3d b6ce eb3d 6311 15bc
00000320: a045 d23c 543b 86bd 2891 303d 6776 e7bd
00000330: 1db5 bcbd 0fef 03bc 8ba6 953d 928a 6a3d
00000340: 93ad 16be f4f3 d6bc cdff 233e 00ea 90bd
00000350: bc27 8cbd 9dd9 89bd 5e1d 4abd 0275 163e
00000360: 630b 05bc f6e7 5dbd 9d6e 0abe 89c9 1dbe
00000370: 5d47 e1bd 2a43 19be 99db 8e3d e6cc 053e
00000380: 0abe c23d 9712 db3b 39ea 80bd 6ab8 20be
00000390: eeaa 413d 8297 60bd 7da9 823c 1e45 a4bb
000003a0: 3859 083d 5154 84bd 90bb 04be 50bd f83d
000003b0: fe4d d5bb 1674 a1bd e4bd 4fbc feab aebd
000003c0: 1de1 013e fec3 a03b 2c80 1b3e 5efb acbd
000003d0: 2dd0 203e 0561 a7bd 9691 cdbc 6f53 f53c
000003e0: fab8 0b3e d5ee e43d a2b3 d6bd 4e5f a63c
000003f0: a541 fe3c fcc7 21bd ba5e 87bd c896 c03d

lstm.bias_ih_l0 f4 [200]
-0.043345068 0.02627276 0.12084471 -0.026517509 0.1184491 0.016103825 0.08620128 -0.11155751
-0.10341253 0.012401341 0.03950445 0.016466506 0.03661043 -0.047705006 -0.124089085 0.15266934
-0.01812352 0.03083007 0.07776301 0.025710393 0.03905563 -0.025521666 -0.089064606 0.10755747
-0.13891411 -0.032423586 -0.060760044 -0.07765518 0.00869912 -0.029833626 -0.03737118 -0.09956458
0.11064821 0.05686514 0.086592376 0.026059464 0.06543958 0.046457827 -0.112049125 -0.09746905
-0.13175075 -0.072755024 -0.13227114 0.08089509 -0.005033949 0.15091768 -0.029711839 -0.058220543
0.039520565 0.036996998 -0.092655055 0.06674804 0.0077963574 -0.035601124 0.04868198 0.007330786
-0.120861806 0.041171223 0.015793169 0.024035113 -0.022062963 -0.02530783 0.044899028 -0.06096515
-0.03705937 0.05483839 -0.016011946 -0.012533723 -0.0015009536 0.0032900649 0.0671627 -0.099069834
0.04855424 -0.112936825 -0.06903253 -0.048180528 -0.03271518 -0.05312732 -0.1181275 -0.09494258
-0.06096081 0.11787388 0.0902665 -0.07677852 0.115020156 0.0937124 0.11991373 -0.027110184
0.11524978 0.07948905 0.09339508 -0.017234141 -0.037634626 0.041003134 -0.10909458 0.029608494
0.030268598 0.11199503 -0.035402995 0.00029632196 0.06556079 0.0019799382 0.1497415 -0.082681105
-0.072456375 0.0985851 -0.008945902 -0.014334077 -0.10074515 0.0773745 -0.06223027 0.020926936
-0.13828874 -0.009848661 0.056284428 -0.028669978 0.0063263956 -0.078479014 -0.07949956 0.13026576
0.048803393 0.13930579 -0.0013420755 -0.053488106 -0.05464608 -0.032740865 -0.093983084 -0.12226675
0.06560113 0.12910211 -0.046684515 -0.033306606 -0.09751474 -0.0957123 -0.045432054 0.104218885
0.024943477 0.035461534 -0.08201933 -0.09178364 0.10250381 -0.082636185 0.055888966 0.024675848
-0.0163685 -0.018150333 0.15483081 -0.12326923 0.079375684 -0.0033680336 0.06496909 -0.056736894
0.069182485 0.11226078 0.086315505 0.10120611 0.06103359 -0.11279313 -0.14193413 -0.12504525
0.12073622 0.13276698 0.10587737 0.09504756 0.09030629 -0.09293048 -0.13901919 0.110746525
0.12095982 -0.0848184 0.06794212 -0.08419059 0.04178935 -0.017089454 -0.07235859 -0.047829926
0.0063125174 0.0902496 0.09910736 0.01021181 0.039145943 -0.115913026 -0.12184338 -0.071648195
-0.01644472 0.012300677 0.030033767 0.124189876 -0.0453034 -0.041747168 -0.10939151 0.05154518
-0.13695326 0.124795735 0.01755554 0.12771189 0.14117967 -0.038776234 -0.12423335 0.04755006
00000000: 998a 31bd f939 d73c 6e7d f73d 3f3b d9bc
00000010: 7195 f23d 2bec 833c 4c8a b03d 4478 e4bd
00000020: f3c9 d3bd ff2e 4b3c 6bcf 213d c4e4 863c
00000030: d1f4 153d 5366 43bd 6b22 febd 5a55 1c3e
00000040: c777 94bc 588f fc3c 3742 9f3d 9a9e d23c
00000050: ccf8 1f3d d012 d1bc 8167 b6bd 1747 dc3d
00000060: 803f 0ebe 98ce 04bd 86df 78bd ae09 9fbd
00000070: c186 0e3c a665 f4bc 8612 19bd 84e8 cbbd
00000080: 879b e23d 6ceb 683d 5857 b13d a87a d53c
00000090: 3005 863d 904a 3e3d 037a e5bd da9d c7bd
000000a0: abe9 06be 9600 95bd 1672 07be 53ac a53d
000000b0: d3f3 a4bb 2a8a 1a3e 3e66 f3bc aa78 6ebd
000000c0: 51e0 213d 2a8a 173d efc1 bdbd 32b3 883d
000000d0: 9678 ff3b 7cd2 11bd c266 473d 1737 f03b
000000e0: 6586 f7bd 28a3 283d ad60 813c 49e5 c43c
000000f0: 63bd b4bc 5e52 cfbc 0be8 373d 98b6 79bd
00000100: 91cb 17bd 389e 603d 7c2b 83bc 3f5a 4dbc
00000110: a5bb c4ba 219e 573b 998c 893d 20e5 cabd
00000120: d0e0 463d 6c4b e7bd ed60 8dbd f258 45bd
00000130: 5a00 06bd 089c 59bd d5ec f1bd 4171 c2bd
00000140: 0bb2 79bd dc67 f13d a5dd b83d 0f3e 9dbd
00000150: b08f eb3d 49ec bf3d 5495 f53d 2d16 debc
00000160: 1408 ec3d 28cb a23d eb45 bf3d 9d2e 8dbc
00000170: c426 1abd e7f2 273d fb6c dfbd 838d f23c
00000180: daf5 f73c a65d e53d bb02 11bd a95b 9b39
00000190: bc44 863d dac1 013b d655 193e b654 a9bd
000001a0: 0264 94bd fce6 c93d d591 12bc 7ad9 6abc
000001b0: 7953 cebd 8676 9e3d 2be5 7ebd f76e ab3c
000001c0: 909b 0dbe 475c 21bc 808a 663d 4ddd eabc
000001d0: a74d cf3b 9bb9 a0bd aad0 a2bd 6364 053e
000001e0: 11e6 473d 2da6 0e3e 95e8 afba 5816 5bbd
000001f0: 91d4 5fbd 491b 06bd 347a c0bd fd66 fabd
00000200: e359 863d 5833 043e 4338 3fbd 826c 08bd
00000210: cfb5 c7bd cf04 c4bd f616 3abd b670 d53d
00000220: 4356 cc3c 1d40 113d c0f9 a7bd 10f9 bbbd
00000230: 84ed d13d 293d a9bd d4eb 643d 0125 ca3c
00000240: 3c17 86bc 02b0 94bc f88b 1e3e 9474 fcbd
00000250: b88f a23d 3aba 5cbb 840e 853d f264 68bd
00000260: 8caf 8d3d fbe8 e53d 2fc6 b03d 2645 cf3d
00000270: 5cfe 793d 1600 e7bd 2e57 11be dd0b 00be
00000280: 8d44 f73d 11f4 073e 3cd6 d83d 4ca8 c23d
00000290: 81f2 b83d 5652 bebd 0c5b 0ebe 13cf e23d
000002a0: c8b9 f73d 45b5 adbd 3d25 8b3d 1e6c acbd
000002b0: 4f2b 2b3d 2fff 8bbc be30 94bd 50e9 43bd
000002c0: 3cd9 ce3b c8d4 b83d cdf8 ca3d 6f4f 273c
000002d0: 7f57 203d cf63 edbd 0689 f9bd 4abc 92bd
000002e0: 14b7 86bc c788 493c 6009 f63c 4357 fe3d
000002f0: 0f90 39bd 14ff 2abd a808 e0bd 0a21 533d
00000300: 7a3d 0cbe e894 ff3d a3d0 8f3c e8c6 023e
00000310: 6791 103e d4d3 1ebd 0e6e febd dac3 423d

lstm.bias_hh_l0 f4 [200]
-0.072637424 0.015663972 -0.053774282 -0.02368969 -0.10746924 0.090099014 -0.073361605 -0.07043422
-0.13768034 -0.08339317 0.021253148 0.06778206 0.044511624 0.117333755 -0.015131774 -0.08306317
0.08298807 -0.018508764 -0.07810428 0.099297136 0.04714705 0.09253213 -0.0018708742 0.051381618
-0.11813607 -0.08379838 -0.05874743 0.058000673 -0.04663703 -0.016130965 0.04174801 0.059650343
0.056521934 0.09648747 -0.12247401 -0.10345278 0.09833187 0.05090043 0.05809519 -0.062693544
-0.05377356 0.061012134 -0.034502283 -0.020116378 0.0017248988 0.09746081 -0.097272225 -0.07900583
-0.0042244303 0.07934692 -0.08359825 0.06943609 0.05891237 -0.02382245 -0.0968643 -0.0023676816
0.053321283 0.066390105 0.10066488 0.06278597 0.08146693 0.11431428 -0.0075142845 0.11724898
-0.002410512 -0.08573172 0.040878493 0.11174149 -0.0034776859 0.12868024 0.0022259841 -0.0033829324
0.008547866 0.1241898 -0.067911044 0.053941175 0.085305505 -0.1340256 -0.0033115675 -0.036610287
0.015086464 -0.11908123 -0.030913142 -0.0042786757 -0.051881697 0.11145397 0.12451896 -0.11285331
-0.026485715 0.11754036 0.03440948 0.046163127 -0.008604508 -0.017943773 0.11604905 0.009927773
0.0069824983 -0.08958174 0.022360768 -0.114786066 -0.117215306 -0.0074994997 -0.07325657 0.008099838
-0.018584678 -0.095078886 -0.122123726 0.042764094 0.07696497 0.07843667 0.03379272 0.02699621
-0.056261674 -0.068684556 0.06840085 0.10540342 0.11288123 0.07073395 0.0017935154 -0.052427825
-0.07411231 0.12354624 0.019474277 -0.047336183 0.07816138 -0.14227107 -0.14190246 0.059606656
-0.084822774 -0.12996817 -0.14720717 0.056387424 0.0055986377 -0.10128475 -0.029258413 0.12888584
-0.11355235 0.10388342 -0.10719496 0.110156536 0.0680957 -0.0660119 -0.14298388 0.08505376
-0.11007803 -0.009977116 0.10189875 -0.010140153 0.027826963 -0.03666748 -0.054125756 0.08475696
0.11743571 -0.050096594 -0.062148396 -0.09583224 -0.057768535 0.055731226 -0.10932097 -0.060455177
-0.048424747 -0.12514278 -0.10749574 0.07023488 0.11275216 0.08556921 0.067157 -0.01126626
-0.0056450204 -0.1206744 0.020520035 0.010493094 -0.043082345 -0.039382644 -0.0897436 0.13689338
0.11322527 -0.03466461 -0.05886098 0.076517925 0.122670166 -0.1169716 0.08169153 0.0039276513
-0.09319397 -0.074350595 -0.07425744 -0.08820157 -0.08448273 0.10770893 -0.14385973 0.11241701
0.05553916 0.06573309 -0.122765526 0.06185909 0.1519046 -0.07914413 0.053493228 0.055412583
00000000: eec2 94bd bb51 803c 6c42 5cbd e110 c2bc
00000010: d518 dcbd d585 b83d 9c3e 96bd d13f 90bd
00000020: 13fc 0cbe 0aca aabd 151b ae3c 52d1 8a3d
00000030: d251 363d ae4c f03d 43eb 77bc 061d aabd
00000040: a6f5 a93d b19f 97bc 23f5 9fbd 4c5c cb3d
00000050: 441d 413d 7c81 bd3d 1f38 f5ba 8875 523d
00000060: 53f1 f1bd 7c9e abbd 25a1 70bd 1d92 6d3d
00000070: 7806 3fbd 1625 84bc f6ff 2a3d eb53 743d
00000080: 8b83 673d 399b c53d a7d3 fabd 0ddf d3bd
00000090: 3862 c93d f87c 503d 39f5 6d3d 7965 80bd
000000a0: aa41 5cbd dce7 793d 4452 0dbd 1acb a4bc
000000b0: 0016 e23a 8899 c73d a936 c7bd cfcd a1bd
000000c0: 176d 8abb a380 a23d 8f35 abbd 8234 8e3d
000000d0: 194e 713d 4c27 c3bc ca60 c6bd 1b2b 1bbb
000000e0: 6b67 5a3d 89f7 873d 6329 ce3d ee95 803d
000000f0: 22d8 a63d 9b1d ea3d 633a f6bb 3c20 f03d
00000100: aef9 1dbb 1d94 afbd 3570 273d b9d8 e43d
00000110: e3e9 63bb c1c4 033e d1e1 113b 30b4 5dbb
00000120: 590c 0c3c 3957 fe3d f214 8bbd 6cf1 5c3d
00000130: a7b4 ae3d 023e 09be e206 59bb abf4 15bd
00000140: 372d 773c dce0 f3bd 8f3d fdbc 2234 8cbb
00000150: e781 54bd fb41 e43d cc03 ff3d a31f e7bd
00000160: 92f8 d8bc 00b9 f03d f4f0 0c3d 8c15 3d3d
00000170: ecf9 0cbc d2fe 92bc 20ab ed3d 19a8 223c
00000180: 71cd e43b a276 b7bd ee2d b73c f514 ebbd
00000190: 940e f0bd 5dbe f5bb 8a07 96bd 2fb5 043c
000001a0: e53e 98bc b8b8 c2bd 011c fabd 6729 2f3d
000001b0: cf9f 9d3d 68a3 a03d 3c6a 0a3d 2827 dd3c
000001c0: a472 66bd 7daa 8cbd bf15 8c3d c0dd d73d
000001d0: 462e e73d f6dc 903d 6414 eb3a 8fbe 56bd
000001e0: 32c8 97bd d005 fd3d 8588 9f3c 96e3 41bd
000001f0: 1313 a03d 82af 11be e14e 11be 1c26 743d
00000200: 90b7 adbd 6016 05be 7abd 16be 80f6 663d
00000210: c774 b73b 616e cfbd 57af efbc a6fa 033e
00000220: 228e e8bd d5c0 d43d 0889 dbbd c099 e13d
00000230: c275 8b3d 3f31 87bd 5e6a 12be aa30 ae3d
00000240: 9770 e1bd 0f77 23bc 4bb0 d03d e222 26bc
00000250: 5ff5 e33c a430 16bd f8b2 5dbd 0f95 ad3d
00000260: 2282 f03d 1632 4dbd 518f 7ebd b243 c4bd
00000270: b39e 6cbd 6d46 643d ace3 dfbd d99f 77bd
00000280: 0759 46bd 6e25 00be ba26 dcbd 4ed7 8f3d
00000290: 9bea e63d e93e af3d 9c89 893d 1f96 38bc
000002a0: ddf9 b8bb 2424 f7bd a219 a83c 3aeb 2b3c
000002b0: 1d77 30bd b24f 21bd 7ecb b7bd c72d 0c3e
000002c0: a6e2 e73d 7afc 0dbd 3618 71bd 6eb5 9c3d
000002d0: 7f3a fb3d ce8e efbd e44d a73d 87b3 803b
000002e0: 7bdc bebd 2045 98bd 4914 98bd 06a3 b4bd
000002f0: 4805 adbd 8096 dc3d f74f 13be e43a e63d
00000300: 087d 633d 129f 863d 7e6c fbbd f55f 7d3d
00000310: e18c 1b3e 5116 a2bd b71b 5b3d 4ef8 623d

lstm.weight_ih_l1 f4 [200, 50]
0.13526383 -0.09583768 -0.1434081 0.07815911 -0.13035816 -0.0060741287 0.03279934 0.0970105
-0.10569229 0.14649206 0.060545996 -0.036928866 -0.08857059 0.0350297 0.10473442 -0.082719184
0.087925926 0.035365947 0.050356403 0.112565205 -0.065886065 -0.07631924 0.1170516 0.049202614
-0.08818772 -0.0075534405 -0.06790396 -0.07857533 -0.07150137 0.04948005 -0.0022777892 -0.1396992
0.058139313 0.11277773 -0.042760532 0.09037711 -0.120228626 0.009099261 -0.09143995 0.03136391
0.02281569 -0.16528916 -0.120572954 -0.08990286 0.13200098 -0.0077079157 -0.10064633 -0.092820026
0.07889723 -0.13547218 0.06952501 0.052174214 0.019573588 0.029951366 0.032874405 -0.093619116
-0.0006999634 0.09111232 0.03769274 -0.12163799 -0.0428233 -0.13877839 0.07331528 0.025064379
0.13617705 0.055150222 -0.15277226 -0.082257375 0.124810286 -0.14594853 0.0869672 0.037126306
-0.056127716 0.1183675 -0.067551635 -0.10646253 -0.02133435 -1.6979235e-05 0.023749659 0.15619521
0.086213335 0.06630709 -0.08443027 -0.15015697 0.08706699 -0.09475354 -0.007495259 -0.042443164
-0.087784454 0.089484446 -0.026665306 -0.14805475 -0.14972404 -0.055635937 0.15379684 0.029059384
-0.08227539 0.1250521 0.089981936 0.012571202 0.14173253 0.13588838 -0.026129868 0.107299365
-0.11263677 0.096213 -0.0072162226 -0.007855005 -0.115224645 0.11770878 0.14981773 -0.01819794
0.04174144 0.06907007 0.009385616 -0.100731455 0.07676608 -2.772561e-05 -0.008999479 0.1261128
0.05207834 0.047144517 0.07723379 0.13883032 -0.08737501 -0.07111595 0.078878775 0.027687954
0.024350781 -0.0021940274 0.06917874 0.10627659 -0.14832161 0.096387535 0.14237814 0.10189176
-0.072565965 0.00011842779 0.09701991 0.06350215 0.024278762 -0.10439788 -0.037138198 -0.13411592
-0.15691425 -0.08379013 0.09355941 -0.0833511 0.11247452 0.05314155 -0.089286156 -0.12418727
0.094979964 -0.14764163 -0.12275154 -0.034801442 -0.14661944 0.10548878 -0.05560566 0.06999872
-0.09876283 -0.13594405 0.1033854 0.073481575 -0.1201073 0.073517166 0.16779925 -0.1023025
-0.0066699386 0.045178328 -0.016611615 0.044863414 0.087345205 0.0488742 -0.16830865 0.03460136
-0.07787872 0.16669942 -0.075659685 -0.08666411 0.04522174 0.14247552 0.04600012 -0.07010302
-0.12499043 -0.04694378 -0.022016935 0.11987763 0.049441177 -0.026219027 0.11019917 -0.11246852
-0.16837662 0.12490093 -0.049587213 -0.15280941 0.010127734 -0.16471091 -0.13834919 0.0357599
0.010940379 -0.16670501 0.023130346 0.02577896 -0.0036297492 0.06819603 -0.041913178 0.12117279
-0.062176317 0.034027066 -0.12944739 -0.095731646 0.04369993 -0.024180846 0.06809356 -0.016253661
-0.12144275 0.041854326 -0.15565452 -0.014267561 -0.1302124 -0.039420303 -0.006820878 0.03787517
-0.085465774 0.008197632 -0.05295999 0.065889135 0.04669868 0.010903308 0.07601938 -0.032717984
0.13263424 0.042647764 -0.1263228 0.18182287 -0.105001524 0.03660555 0.006757635 -0.052841187
0.037950005 -0.027154177 0.091068186 0.07934856 -0.14383855 0.041248463 -0.09465029 -0.10866134
-0.06752221 0.07663083 0.0052568265 -0.13959618 0.068745956 0.02792702 0.02016555 0.03502843
00000000: 9a82 0a3e 8c46 c4bd 93d9 12be e211 a03d
00000010: 9c7c 05be 7c09 c7bb 9a58 063d 71ad c63d
00000020: 3375 d8bd 0402 163e 14ff 773d b942 17bd
00000030: 7f64 b5bd 4d7b 0f3d 007f d63d ad68 a9bd
00000040: 8212 b43d e2db 103d 8442 4e3d 9688 e63d
00000050: 46ef 86bd 434d 9cbd c0b8 ef3d ae88 493d
00000060: c39b b4bd da82 f7bb 3b11 8bbd 1aec a0bd
00000070: 4f6f 92bd 98ab 4a3d f646 15bb 4f0d 0fbe
00000080: 7d23 6e3d 03f8 e63d ab25 2fbd a217 b93d
00000090: 6d3a f6bd 1115 153c de44 bbbd 7177 003d
000000a0: f8e7 ba3c 9041 29be f4ee f6bd fe1e b8bd
000000b0: 442b 073e af92 fcbb aa1f cebd 6d18 bebd
000000c0: df94 a13d 38b9 0abe 2163 8e3d a1b4 553d
000000d0: ca58 a03c 915c f53c 50a7 063d 61bb bfbd
000000e0: c07d 37ba 1999 ba3d b463 1a3d 571d f9bd
000000f0: 7c67 2fbd ec1b 0ebe 5226 963d d053 cd3c
00000100: ff71 0b3e 33e5 613d 5570 1cbe 8e76 a8bd
00000110: 899c ff3d 8873 15be dc1b b23d c111 183d
00000120: 2de6 65bd a96a f23d 8358 8abd 0709 dabd
00000130: 60c5 aebc a16e 8eb7 a58e c23c a3f1 1f3e
00000140: 9e90 b03d 03cc 873d c7e9 acbd c0c2 19be
00000150: 2e50 b23d 250e c2bd ca9a f5bb e2d8 2dbd
00000160: 56c8 b3bd 9f43 b73d 3371 dabc aa9b 17be
00000170: 4251 19be 82e2 63bd eb7c 1d3e f20d ee3c
00000180: 0080 a8bd a80d 003e 7348 b83d 71f7 4d3c
00000190: 5522 113e 5326 0b3e 4e0e d6bc c5bf db3d
000001a0: 1bae e6bd 520b c53d 1076 ecbb 47b2 00bc
000001b0: e6fa ebbd 4d11 f13d d269 193e d913 95bc
000001c0: 12f9 2a3d 9c74 8d3d 20c6 193c 4b4c cebd
000001d0: 8937 9d3d 4b94 e8b7 8d72 13bc b723 013e
000001e0: 1950 553d 9c1a 413d c02c 9e3d 8929 0e3e
000001f0: abf1 b2bd 3da5 91bd 328b a13d d9d1 e23c
00000200: 4a7b c73c acc9 0fbb 95ad 8d3d 8aa7 d93d
00000210: 9fe1 17be d466 c53d 93cb 113e a1ac d03d
00000220: 779d 94bd 705c f838 60b2 c63d 6a0d 823d
00000230: 41e4 c63c 8ece d5bd 391e 18bd af55 09be
00000240: 21ae 20be 299a abbd 139c bf3d fbb3 aabd
00000250: 0b59 e63d f4aa 593d a9db b6bd e555 febd
00000260: db84 c23d 5e2f 17be 2965 fbbd f58b 0ebd
00000270: 6823 16be 800a d83d c3c2 63bd 7d5b 8f3d
00000280: 2b44 cabd eb34 0bbe b9bb d33d 827d 963d
00000290: d1fa f5bd 2b90 963d 91d3 2b3e f983 d1bd
000002a0: 808f dabb e90c 393d 1515 88bc b3c2 373d
000002b0: 0be2 b23d 5030 483d 1a59 2cbe 28ba 0d3d
000002c0: e17e 9fbd 41b3 2a3e 77f3 9abd f47c b1bd
000002d0: 6e3a 393d 1ae5 113e 9f6a 3c3d 2c92 8fbd
000002e0: fcfa ffbd 1f48 40bd dc5c b4bc 6782 f53d
000002f0: d582 4a3d 49c9 d6bc 1ab0 e13d e555 e6bd
00000300: ec6a 2cbe 0fcc ff3d f61b 4bbd 127a 1cbe
00000310: ccee 253c faa9 28be 69ab 0dbe f978 123d
00000320: 473f 333c b8b4 2abe da7b bd3c 662e d33c
00000330: 16e1 6dbb 5caa 8b3d 27ad 2bbd 7129 f83d
00000340: 98ac 7ebd f75f 0b3d db8d 04be f40e c4bd
00000350: b3fe 323d e916 c6bc a374 8b3d 6626 85bc
00000360: fab6 f8bd 716f 2b3d e663 1fbe 7dc2 69bc
00000370: 6656 05be 2f77 21bd ac81 dfbb ff22 1b3d
00000380: ae08 afbd 5c4f 063c 93ec 58bd e2f0 863d
00000390: 1d47 3f3d caa3 323c 0cb0 9b3d 4b03 06bd
000003a0: 45d1 073e 6caf 2e3d c45a 01be c62f 3a3e
000003b0: 0a0b d7bd b4ef 153d 276f dd3b 0070 58bd
000003c0: 7771 1b3d 7072 debc f581 ba3d 7f81 a23d
000003d0: 6a4a 13be 26f4 283d 03d8 c1bd d689 debd
000003e0: 1649 8abd a0f0 9c3d 7541 ac3b 4df2 0ebe
000003f0: aeca 8c3d 35c7 e43c 3932 a53c f979 0f3d

lstm.weight_hh_l1 f4 [200, 50]
0.02234748 0.092300296 0.067362644 -0.10135463 -0.0025707502 0.08605658 -0.16483463 0.15131642
0.07873623 0.12570266 -0.09651094 0.052835625 -0.051431086 -0.16115065 0.12271697 0.13626046
0.07367066 -0.002553192 -0.12576221 -0.11298382 -0.029472938 -0.09515887 0.020246012 -0.005594695
-0.063744865 -0.12173954 0.13149805 0.004302975 0.046761815 0.13979813 0.022510368 -0.08505233
-0.16884801 0.053815596 -0.127983 -0.0909423 -0.14958255 0.10776769 -0.09769634 -0.09453298
-0.033586763 -0.04490253 -0.09453483 -0.047193885 -0.08354662 0.13227718 -0.09970062 -0.07779762
0.06630089 -0.03212509 0.15327877 -0.008329436 -0.03284046 0.1339908 -0.009011903 -0.09168382
-0.008037864 -0.10282203 0.13676234 -0.041778605 -0.042357527 -0.03050467 0.13872865 -0.06571858
-0.034796286 -0.057299796 -0.0426763 -0.073175125 -0.008439966 0.08851056 -0.08547535 0.10049522
-0.113049254 -0.035179783 0.039664604 -0.14400096 -0.04298864 -0.033637475 -0.11051615 0.09876528
0.09867444 -0.04163065 -0.13343158 0.009515506 -0.10356487 0.13457099 0.091976956 0.087582044
0.10782113 -0.11650325 0.11365926 0.083048224 0.14036644 0.12570448 0.0046118097 0.095091686
0.10687923 -0.1132923 0.025449125 0.13448678 0.084141955 -0.061462488 0.090381846 0.13717893
-0.10659636 0.09840785 -0.058593463 0.0828461 -0.049438298 -0.16737852 -0.0049155755 0.06612237
-0.035849094 -0.030978153 -0.0059531895 0.042772636 0.1355283 -0.050794974 -0.055021346 -0.119937085
-0.036713198 0.049415033 -0.09838336 -0.13074277 -0.0664865 -0.05073015 -0.056002747 0.06658563
0.027096808 -0.07110398 0.13323008 0.082119115 -0.0015876422 -0.027414 -0.13150088 -0.06857644
-0.09381347 0.02215247 -0.015166848 0.1515468 -0.08350726 -0.1308272 -0.0033151757 0.0921381
0.06687502 -0.020539498 -0.029702956 -0.098338984 0.028002854 -0.10383515 -0.16835393 0.0751626
0.04139584 0.059606362 -0.11704374 0.14154372 0.026054198 0.17378956 0.042777237 0.10162285
-0.15190758 -0.16027799 -0.06388921 0.0114686545 -0.12011565 0.092199765 0.12998465 0.015323754
-0.10500546 0.016038103 0.040314123 -0.072640724 -0.10276317 -0.08742134 0.14487125 -0.15492341
-0.1302923 -0.08158295 -0.047370747 -0.06413499 0.11890154 0.021092694 -0.02457805 0.09837337
-0.0021392258 -0.09696706 0.027938953 0.041211996 0.056612704 0.01044832 -0.0655434 0.15316232
-0.16049103 -0.03820244 -0.08330482 -0.073874675 0.12076322 0.12368738 0.03887164 0.12844658
-0.14218007 -0.10832748 -0.06633233 0.02643255 0.04872961 0.08128516 -0.026751382 0.07265406
0.12728907 0.0026894067 -0.07399205 0.11357386 -0.020822102 0.10160141 0.01845115 0.008248477
-0.04093147 0.090223536 -0.090327814 0.052756146 -0.1407219 -0.12175346 -0.15047261 0.029070623
0.14767444 -0.067149125 0.004549443 -0.009710592 0.17881754 -0.007981215 -0.11866476 -0.15308765
-0.15816683 -0.1088626 0.04984176 0.10052772 0.023499107 -0.07540412 -0.008744512 0.027192464
0.166543 0.045148123 0.025903217 0.1285805 -0.09519388 0.02892421 0.023172392 -0.021081718
0.05554365 0.07107458 0.079426594 -0.042277094 -0.07739875 -0.03476605 -0.025631458 0.093426324
00000000: 1012 b73c f007 bd3d 6df5 893d 0493 cfbd
00000010: 087a 28bb 6f3e b03d 69ca 28be b1f2 1a3e
00000020: 7640 a13d 33b8 003e 87a7 c5bd 2b6a 583d
00000030: 67a9 52bd ad04 25be 0953 fb3d dd87 0b3e
00000040: a5e0 963d 7453 27bb cfc7 00be 1064 e7bd
00000050: 3b71 f1bc a7e2 c2bd f7da a53c b453 b7bb
00000060: ab8c 82bd 9452 f9bd 6da7 063e f8ff 8c3b
00000070: 5189 3f3d 3e27 0f3e aa67 b83c ea2f aebd
00000080: 7ee6 2cbe be6d 5c3d fa0d 03be f53f babd
00000090: 2b2c 19be 4fb5 dc3d 0515 c8bd 829a c1bd
000000a0: 4692 09bd b7eb 37bd 7a9b c1bd 604e 41bd
000000b0: 7e1a abbd ab73 073e d72f ccbd 5c54 9fbd
000000c0: c3c8 873d 9995 03bd 1cf5 1c3e 3078 08bc
000000d0: b883 06bd e234 093e a9a6 13bc bac4 bbbd
000000e0: 3fb1 03bc 5b94 d2bd 6d0b 0c3e 0b20 2bbd
000000f0: 167f 2dbd eee4 f9bc e20e 0e3e 7697 86bd
00000100: 8d86 0ebd 31b3 6abd 58cd 2ebd d7dc 95bd
00000110: c847 0abc 0645 b53d b30d afbd 70d0 cd3d
00000120: 5e86 e7bd ad18 10bd 5a77 223d fd74 13be
00000130: db14 30bd 73c7 09bd 4b56 e2bd 7345 ca3d
00000140: d315 ca3d e784 2abd 4aa2 08be ede6 1b3c
00000150: d219 d4bd facc 093e 6a5e bc3d 375e b33d
00000160: 53d1 dc3d 4299 eebd 30c6 e83d 3015 aa3d
00000170: 38bc 0f3e adb8 003e aa1e 973b 6ebf c23d
00000180: 7fe3 da3d cb05 e8bd af7a d03c e7b6 093e
00000190: 9e52 ac3d 17c0 7bbd 1e1a b93d a278 0c3e
000001a0: 314f dabd 0e8a c93d b3ff 6fbd 37ab a93d
000001b0: d07f 4abd 4665 2bbe d612 a1bb 2a6b 873d
000001c0: 80d6 12bd e5c5 fdbc f912 c3bb 5c32 2f3d
000001d0: eec7 0a3e 640e 50bd 105e 61bd 93a1 f5bd
000001e0: 9460 16bd 6b67 4a3d 377d c9bd 6fe1 05be
000001f0: 132a 88bd 6bca 4fbd 2363 65bd 0c5e 883d
00000200: 20fa dd3c f79e 91bd 776d 083e 112e a83d
00000210: 6f18 d0ba 5393 e0bc 2ba8 06be ce71 8cbd
00000220: 4721 c0bd 1979 b53c 5f7e 78bc 162f 1b3e
00000230: db05 abbd 91f7 05be 6b43 59bb e6b2 bc3d
00000240: c5f5 883d 7342 a8bc 9d53 f3bc f365 c9bd
00000250: 3e66 e53c 86a7 d4bd f964 2cbe d9ee 993d
00000260: af8e 293d cd25 743d a1b4 efbd d6f0 103e
00000270: 9d6f d53c e4f5 313e 2f37 2f3d a41f d03d
00000280: a98d 1bbe ea1f 24be 59d8 82bd 06e7 3b3c
00000290: 32ff f5bd 3bd3 bc3d b21a 053e 7c10 7b3c
000002a0: 1a0d d7bd 5762 833c 6c20 253d a9c4 94bd
000002b0: 7f75 d2bd f609 b3bd 2159 143e 3ea4 1ebe
000002c0: 586b 05be f614 a7bd d407 42bd 3559 83bd
000002d0: a782 f33d 96ca ac3c e857 c9bc fa77 c93d
000002e0: 4132 0cbb aa96 c6bd 3be0 e43c e9cd 283d
000002f0: b9e2 673d 6e2f 2b3c 9e3b 86bd 95d6 1c3e
00000300: c357 24be 297a 1cbd b89b aabd 9b4b 97bd
00000310: b552 f73d cf4f fd3d de37 1f3d 8087 033e
00000320: a797 11be ccda ddbd 3fd9 87bd 1389 d83c
00000330: b398 473d d578 a63d b725 dbbc a7cb 943d
00000340: 1158 023e c240 303b 2589 97bd 6999 e83d
00000350: 1d93 aabc 6614 d03d de26 973c 9f24 073c
00000360: c2a7 27bd 1ec7 b83d cafd b8bd d416 583d
00000370: 6719 10be e159 f9bd 7e15 1abe 8425 ee3c
00000380: f837 173e 7b85 89bd 7e13 953b 2d19 1fbc
00000390: f21b 373e a4c3 02bc 8206 f3bd 02c3 1cbe
000003a0: 7cf6 21be 5bf3 debd e026 4c3d 7ae1 cd3d
000003b0: 3381 c03c 7a6d 9abd 2445 0fbc bbc2 de3c
000003c0: 408a 2a3e 3ded 383d fc32 d43c 9baa 033e
000003d0: 02f5 c2bd 77f2 ec3c 07d4 bd3c 91b3 acbc
000003e0: bd81 633d 8d8f 913d 69aa a23d bf2a 2dbd
000003f0: 3c83 9ebd d866 0ebd 10f9 d1bc 4d56 bf3d

lstm.bias_ih_l1 f4 [200]
0.028420204 0.0876511 -0.04856068 -0.031234186 0.13607307 -0.09666767 -0.11128905 0.110112935
0.089987874 0.13897063 0.110238165 0.0631722 0.12543182 -0.056069035 -0.10225145 -0.09278124
-0.062677436 0.008877684 -0.054340143 -0.023561856 -0.1233192 -0.051984303 0.088818 0.06801419
0.110937156 -0.059810765 0.08772483 0.049401693 -0.08717659 -0.0357121 0.022196885 -0.08967846
-0.04570889 0.058901966 -0.113740936 0.10280386 0.049472023 0.047890235 0.08312023 0.04193782
0.11092629 0.07585181 0.057345875 0.043576997 -0.10032487 -0.11984235 -0.042486798 -0.054188676
0.1120069 0.08201343 0.15131582 -0.0341608 0.09147375 0.066213965 -0.034620862 0.109943666
-0.13000554 0.13106155 0.10961877 0.038243532 0.0784219 0.04181801 0.00057146046 0.008850747
0.13988888 -0.091330044 -0.03565969 0.038911786 0.008903673 -0.12572075 -0.07810962 0.03807639
0.039593164 0.07139649 0.12935725 -0.030589191 0.10439371 -0.135229 -0.13037583 -0.0009374775
-0.031780314 -0.11705604 -0.122443125 0.08195271 -0.061415944 0.13355702 -0.03852 -0.14019167
0.14563963 0.05485413 0.0438776 -0.0053058607 -0.041055582 -0.014892956 0.08289336 -0.0035610287
0.03136307 -0.034301534 -0.09155608 -0.017210528 -0.036908515 0.0045551946 0.10720257 -0.017649176
-0.051196575 -0.036698993 -0.082280755 0.12855121 -0.025714261 -0.05962539 -0.012136581 -0.077551275
-0.049001776 -0.08671201 0.04235656 -0.06923354 -0.093102634 -0.047231343 0.005334804 -0.12631743
-0.045225352 0.13781168 -0.072653405 -0.020250943 0.020702835 -0.08941802 0.096489824 -0.10754391
0.11911373 -0.04113063 0.0497954 -0.1043678 0.066549204 0.10050834 0.056996666 7.3530277e-06
-0.09275484 -0.029289141 -0.010292799 0.10167066 0.06550178 0.036705807 -0.029693997 0.108459175
-0.09588132 0.086231865 -0.08242792 -0.06653917 0.1214836 -0.1281552 0.004627419 -0.073794246
0.051770266 0.0023638043 -0.08129575 0.0839145 0.08338857 -0.030742655 -0.036810156 0.012883675
0.07620323 0.059357896 -0.110783115 0.09192671 0.10178927 -0.084493324 -0.01770432 -0.008695057
0.052931696 0.009396657 -0.1104911 -0.03633145 0.094784416 -0.04666233 -0.031135103 -0.09449282
-0.066737644 0.11107286 0.015535595 -0.017213339 0.021788254 -0.0021192697 0.10351389 -0.10363251
-0.15213202 -0.022506593 -0.024689723 -0.0020048611 0.044544794 0.050145105 -0.09527812 -0.0071249655
-0.083396874 0.069784485 0.07793449 0.02157868 -0.035802323 0.1086438 0.07255389 -0.10965556
00000000: 7dd1 e83c 6b82 b33d 90e7 46bd d6de ffbc
00000010: bd56 0b3e b3f9 c5bd 83eb e3bd e482 e13d
00000020: 904b b83d 514e 0e3e 8cc4 e13d 6d60 813d
00000030: 3371 003e a5a8 65bd 3569 d1bd 1704 bebd
00000040: 075d 80bd b573 113c c593 5ebd cb04 c1bc
00000050: c78e fcbd 7eed 54bd 36e6 b53d 064b 8b3d
00000060: 0533 e33d 22fc 74bd 13a9 b33d 6e59 4a3d
00000070: a489 b2bd da46 12bd 3ed6 b53c 57a9 b7bd
00000080: 3f39 3bbd 3043 713d 02f1 e8bd d58a d23d
00000090: 2da3 4a3d 8d28 443d f03a aa3d fec6 2b3d
000000a0: 532d e33d 3258 9b3d 82e3 6a3d cb7d 323d
000000b0: 2077 cdbd e86f f5bd a306 2ebd f2f4 5dbd
000000c0: e063 e53d a8f6 a73d 89f2 1a3e 32ec 0bbd
000000d0: 9756 bb3d 309b 873d 9bce 0dbd 252a e13d
000000e0: 2c20 05be 0035 063e ce7f e03d 40a5 1c3d
000000f0: a99b a03d 5d49 2b3d 10ce 153a b902 113c
00000100: 083f 0f3e 3f0b bbbd e50f 12bd f761 1f3d
00000110: b6e0 113c f1bc 00be f0f7 9fbd fdf5 1b3d
00000120: 712c 223d 5338 923d 3a76 043e 2f96 fabc
00000130: 5fcc d53d 7979 0abe 3e81 05be 0dc1 75ba
00000140: 132c 02bd 14bb efbd 76c3 fabd d3d6 a73d
00000150: 498f 7bbd 2cc3 083e 26c7 1dbd 688e 0fbe
00000160: 8e22 153e b9ae 603d 00b9 333d c9dc adbb
00000170: e629 28bd 9601 74bc fec3 a93d 2660 69bb
00000180: 9076 003d c47f 0cbd c181 bbbd 18fd 8cbc
00000190: 622d 17bd be43 953b 058d db3d 0195 90bc
000001a0: 80b3 51bd af51 16bd d082 a8bd eea2 033e
000001b0: b7a6 d2bc c139 74bd 83d8 46bc 34d3 9ebd
000001c0: 16b6 48bd 1196 b1bd 127e 2d3d 50ca 8dbd
000001d0: 98ac bebd a775 41bd 94cf ae3b 5b59 01be
000001e0: 383e 39bd 811e 0d3e 4fcb 94bd 4ee5 a5bc
000001f0: fe98 a93c cb20 b7bd 759c c53d fb3f dcbd
00000200: e6f1 f33d 9778 28bd 43f6 4b3d c9be d5bd
00000210: f34a 883d 51d7 cd3d 5675 693d 07ba f636
00000220: 40f6 bdbd c8ef efbc 21a3 28bc b538 d03d
00000230: cc25 863d d458 163d d340 f3bc d81f de3d
00000240: 6d5d c4bd 559a b03d f8cf a8bd b045 88bd
00000250: 65cc f83d 1e3b 03be 9ba1 973b 7021 97bd
00000260: 0f0d 543d 0eea 1a3b 637e a6bd 5edb ab3d
00000270: a0c7 aa3d 05d8 fbbc 3fc6 16bd 0d16 533c
00000280: 7010 9c3d 4421 733d 42e2 e2bd 1244 bc3d
00000290: e576 d03d d60a adbd a608 91bc b675 0ebc
000002a0: e8ce 583d 70f4 193c 2849 e2bd 49d0 14bd
000002b0: 551e c23d 0021 3fbd 0b0f ffbc 7485 c1bd
000002c0: bfad 88bd 2b7a e33d 0289 7e3c fd02 8dbc
000002d0: 487d b23c 72e3 0abb 17ff d33d 483d d4bd
000002e0: 7fc8 1bbe bf5f b8bc 1a42 cabc fd63 03bb
000002f0: 9a74 363d f464 4d3d 2d21 c3bd 8b78 e9bb
00000300: fbcb aabd 2beb 8e3d 1e9c 9f3d c6c5 b03c
00000310: 75a5 12bd a480 de3d 2297 943d 1893 e0bd

lstm.bias_hh_l1 f4 [200]
0.011206282 -0.12835649 0.15471102 0.089819096 0.008451345 -0.08674317 -0.092958406 -0.1261156
0.035220623 -0.055689428 0.0997805 -0.07628799 0.05556853 -0.11284323 0.082604885 0.081431255
0.021466695 -0.09877751 -0.062679864 -0.016498912 0.064070985 -0.08077788 -0.13900098 -0.00096536474
0.08177177 0.10676006 0.09019213 -0.082390465 -0.038456548 -0.09654922 -0.07901211 0.038949214
0.10232456 0.0038655289 0.1043175 -0.12088759 0.06805761 0.0014183997 -0.05399897 0.009268862
0.0908403 0.08552989 -0.0585219 0.009608462 -0.1259781 0.040854555 0.1230786 -0.066208154
-0.088523716 0.11504111 0.082702585 0.09919794 -0.11054157 -0.07237899 -0.00046841646 0.11769215
-0.019007217 -0.06644064 0.13079497 0.0031072942 -0.08378405 -0.09210243 0.05572452 0.07182952
0.07242129 -0.104946695 -0.018634943 0.103154145 0.04861286 -0.076931685 0.1410181 0.14385606
-0.13903965 0.12994811 -0.12083295 0.019216878 -0.019577203 -0.037881427 -0.02179265 0.003496366
0.089410044 0.12925234 0.104382046 -0.009941837 0.045184087 0.09823781 0.043902375 -0.095614135
0.12128633 -0.13916083 -0.12115261 -0.060686436 -0.0364986 -0.07355305 0.0461204 -0.019603629
-0.06733801 -0.06634696 -0.045923308 -0.09442251 -0.13240027 -0.08802037 0.11544252 -0.084581934
-0.024542853 0.12827684 0.0093939295 -0.018717105 0.056978263 -0.07610054 -0.0026333975 -0.11045432
-0.05507347 0.030702181 -0.04845793 -0.027796142 0.12624802 0.023280278 0.045915753 -0.12523629
0.112488605 0.13815667 -0.015513072 -0.045646828 -0.043153264 0.116559654 0.14860556 0.049127102
-0.0011007856 0.02689455 0.06856422 0.028259192 -0.046671174 0.04351309 -0.12038354 -0.052224465
0.08893314 -0.089650005 -0.14189443 -0.06435224 0.13014187 -0.12520905 0.026107516 -0.035150304
-0.104136236 0.023029294 0.08148247 -0.019310674 0.13013506 0.02947202 -0.11478445 -0.06297349
-0.09991374 0.04854676 0.025195474 0.12801698 -0.11843026 -0.022845207 -0.011808529 0.07956984
0.030330794 0.0764767 -0.023614012 -0.07678567 0.06538056 -0.15016498 0.10847616 -0.10551359
-0.044800498 0.10724025 0.033943336 -0.014036692 -0.07829013 -0.07182129 0.04450575 -0.11980518
-0.11888075 0.1084893 -0.06969111 0.09463527 0.08743712 -0.016583426 0.07269657 -0.06938551
-0.14724298 -0.00491067 0.029933605 -0.10663715 -0.08889544 -0.027439233 0.10596966 -0.07141294
0.11011023 -0.011723466 -0.0020884497 -0.0062278425 0.03373971 0.06639531 0.015808025 0.1155902
00000000: 8e9a 373c e26f 03be 916c 1e3e 13f3 b73d
00000010: 8377 0a3c 67a6 b1bd fa60 bebd 7324 01be
00000020: 8043 103d 991a 64bd b859 cc3d e13c 9cbd
00000030: d49b 633d 5a1a e7bd c02c a93d 6ec5 a63d
00000040: ecda af3c dd4b cabd 4d5e 80bd ba28 87bc
00000050: a637 833d e06e a5bd 4656 0ebe 8810 7dba
00000060: f577 a73d 05a5 da3d a7b6 b83d 55bc a8bd
00000070: 9d84 1dbd 99bb c5bd 1ad1 a1bd 3689 1f3d
00000080: 8a8f d13d d054 7d3b 6aa4 d53d ea93 f7bd
00000090: ca61 8b3d 99e9 b93a 062e 5dbd 6ddc 173c
000000a0: 7b0a ba3d 4c2a af3d a9b4 6fbd d06c 1d3c
000000b0: 6700 01be 1b57 273d a210 fc3d 2498 87bd
000000c0: ec4b b5bd ac9a eb3d f95f a93d 4a28 cb3d
000000d0: 9e63 e2bd 703b 94bd cb95 f5b9 9508 f13d
000000e0: 06b5 9bbc 0812 88bd 1eef 053e bfa3 4b3b
000000f0: f996 abbd 33a0 bcbd 653f 643d 5b1b 933d
00000100: 9d51 943d 4bee d6bd 4fa8 98bc 7b42 d33d
00000110: 471e 473d 5c8e 9dbd 0c67 103e 014f 133e
00000120: 6960 0ebe 1e11 053e 4477 f7bd b76c 9d3c
00000130: 5f60 a0bc 8e29 1bbd 8086 b2bc 4a23 653b
00000140: 9d1c b73d ba5a 043e 41c6 d53d 16e3 22bc
00000150: f312 393d e830 c93d fad2 333d 58d1 c3bd
00000160: f864 f83d 2d80 0ebe dc1e f8bd 5792 78bd
00000170: 8e7f 15bd fba2 96bd bfe8 3c3d ca97 a0bc
00000180: 83e8 89bd eae0 87bd 141a 3cbd 9760 c1bd
00000190: f093 07be 0644 b4bd 216d ec3d 4b39 adbd
000001a0: 180e c9bc 015b 033e ffe8 193c 9d54 99bc
000001b0: 0a62 693d 9ada 9bbd 1495 2cbb e035 e2bd
000001c0: b894 61bd 2483 fb3c d37b 46bd bcb4 e3bc
000001d0: 2947 013e 48b6 be3c 2812 3c3d f13d 00be
000001e0: 6d60 e63d f178 0d3e 8a2a 7ebc 2bf8 3abd
000001f0: 7ac1 30bd d4b6 ee3d 0e2c 183e 8039 493d
00000200: 3c48 90ba f651 dc3c 666b 8c3d d27f e73c
00000210: 462a 3fbd c83a 323d a58b f6bd 52e9 55bd
00000220: 9422 b63d 6c9a b7bd c64c 11be 1bcb 83bd
00000230: e943 053e cd36 00be 6edf d53c c4f9 0fbd
00000240: 6145 d5bd eea7 bc3c 48e0 a63d 6b31 9ebc
00000250: 2042 053e 4e6f f13c 1c14 ebbd 3ff8 80bd
00000260: 939f ccbd f8d8 463d bd66 ce3c e216 033e
00000270: 908b f2bd df25 bbbc 8f78 41bc 83f5 a23d
00000280: 4978 f83c d19f 9c3d 2c72 c1bc ce41 9dbd
00000290: 3ee6 853d d9c4 19be c028 de3d 8217 d8bd
000002a0: ba80 37bd c7a0 db3d 2b08 0b3d 27fa 65bc
000002b0: 9356 a0bd 0a17 93bd a94b 363d 6b5c f5bd
000002c0: c077 f3bd a32f de3d 36ba 8ebd 23d0 c13d
000002d0: 3c12 b33d f7d9 87bc f0e1 943d fe19 8ebd
000002e0: ddc6 16be b0e9 a0bb 5237 f53c 9464 dabd
000002f0: d00e b6bd 3ec8 e0bc 9f06 d93d f340 92bd
00000300: 7981 e13d c813 40bc 5fde 08bb ee12 ccbb
00000310: a632 0a3d 44fa 873d d57f 813c 8eba ec3d

attention.attention.weight f4 [1, 50]
0.0840548 -0.057115447 0.13229658 0.062144134 -0.1340093 -0.30934063 0.20711938 0.27787697
-0.027266592 0.09848929 0.28735206 -0.22503555 -0.2376299 -0.3101428 -0.29529768 -0.18797077
0.25646684 -0.15362372 -0.2923729 -0.2793618 0.065934464 0.110704415 0.23196897 -0.29345125
0.18569641 -0.06895688 -0.2789111 -0.1558648 0.06515767 -0.09734541 0.31561998 -0.30193236
0.25227252 0.21567495 0.024265353 0.29889345 0.24810521 -0.24229637 0.34553334 -0.060929317
-0.047817327 -0.156577 -0.21478143 -0.113359556 -0.20132436 -0.067479886 0.34785756 0.27034113
0.004742449 0.064043984
00000000: ec24 ac3d e3f1 69bd c178 073e d98a 7e3d
00000010: bc39 09be e561 9ebe 1a17 543e e445 8e3e
00000020: 305e dfbc c1b4 c93d cf1f 933e b86f 66be
00000030: 4155 73be 09cb 9ebe 4231 97be 697b 40be
00000040: 9f4f 833e 894f 1dbe e7b1 95be 8308 8fbe
00000050: a608 873d ffb8 e23d 4689 6d3e 3e3f 96be
00000060: 3327 3e3e 4439 8dbd 70cd 8ebe 069b 1fbe
00000070: 6271 853d 085d c7bd f198 a13e e196 9abe
00000080: dd29 813e e5d9 5c3e 22c8 c63c 9008 993e
00000090: 4b0f 7e3e 8a1c 78be bfe9 b03e 0591 79bd
000000a0: 1adc 43bd b955 20be aaef 5bbe 0e29 e8bd
000000b0: f927 4ebe e532 8abd 631a b23e 276a 8a3e
000000c0: 8c66 9b3b 7e29 833d

fc.weight f4 [1, 50]
-0.1990408 0.16654602 0.011454169 -0.03848792 -0.30124652 0.30990446 0.26710102 -0.21454218
0.17012438 -0.00059346 -0.17124817 0.0030075707 0.19113524 0.32606712 0.04956457 0.22803289
0.3191507 0.2506309 -0.2752921 -0.35442013 -0.12127829 0.04349831 0.289318 0.24075375
0.28221598 -0.2608304 0.1792314 0.043088954 -0.21510538 -0.1441952 -0.00545484 -0.32499143
-0.09836665 0.064680256 0.24827127 -0.016854921 -0.30716047 0.16545863 -0.16199459 -0.19282319
0.26344094 0.13324554 0.067372866 -0.049851283 0.30012235 0.008153711 0.07867283 -0.20830187
-0.021870663 -0.13321765
00000000: 5ad1 4bbe 0a8b 2a3e 44aa 3b3c 82a5 1dbd
00000010: fc3c 9abe ccab 9e3e 77c1 883e f2b0 5bbe
00000020: 1635 2e3e 6d92 1bba ae5b 2fbe aa1a 453b
00000030: f5b8 433e 45f2 a63e 3804 4b3d 7481 693e
00000040: b867 a33e b152 803e 16f3 8cbe 8e76 b5be
00000050: c160 f8bd 492b 323d 7d21 943e 2788 763e
00000060: 9d7e 903e 908b 85be 7088 373e 0b7e 303d
00000070: 9644 5cbe e8a7 13be 84be b2bb 4765 a6be
00000080: 7474 c9bd 1577 843d d33a 7e3e 5513 8abc
00000090: 2344 9dbe fd6d 293e e9e1 25be 7173 45be
000000a0: bbe1 863e 8571 083e c9fa 893d dc30 4cbd
000000b0: a3a9 993e 2597 053c 381f a13d 164d 55be
000000c0: 1b2a b3bc 356a 08be
