src/model_weights.pth (torch, 131013 bytes, 10 tensors)

lstm.weight_ih_l0 f4 [200, 6]
000000 d1 b9 a6 3d 8d fd 26 bd a6 1d 05 3c f9 61 04 3e
       0.081409104 -0.04076915 0.0081247445 0.12927999
000010 e0 b2 48 bd 46 9c 23 be a2 48 7b 3d cc 26 d0 bb
       -0.048998713 -0.15977582 0.061348565 -0.006352281
000020 28 85 32 3d c1 9d df 3d 29 cd 01 3d 0f f5 17 be
       0.04358402 0.10918761 0.031689797 -0.14839576
000030 8a 2d ee bd 86 6f 2b be e3 bb df bd 1f 08 13 bc
       -0.1162978 -0.16741762 -0.109245084 -0.008974104
000040 76 11 78 bc f5 e5 c6 3d 86 d6 2b be c6 a0 17 bd
       -0.015140882 0.097118296 -0.16781053 -0.03701856
000050 51 4a 88 3d b5 a9 17 be 60 b5 6b bd 8f 27 10 3d
       0.066548 -0.14810832 -0.05754602 0.035193976
000060 76 77 93 3d 1c e4 65 3d 95 4a 0b 3d c5 f3 ec bd
       0.0720052 0.056125745 0.034006674 -0.11569933
000070 45 1f 18 be be b0 9f 3d 94 96 6d 3c 9d 92 70 bd
       -0.14855678 0.07797383 0.014501233 -0.05873357
000080 bd d7 19 3e 0e 41 30 bc 70 a8 c7 3d f9 41 01 be
       0.15023704 -0.010757698 0.09748924 -0.12622823
000090 b4 4e 04 be 28 52 b7 3d 6b 12 ef bd 74 0a 9e bc
       -0.12920648 0.08951217 -0.11673435 -0.019292094
0000a0 61 79 cb 3d d3 3b 21 be f6 5a 04 3e 26 a9 a5 bd
       0.099352606 -0.15745477 0.12925324 -0.08088903
0000b0 d1 51 6b bd ba 72 6b 3d e4 1b 15 bd ea c4 fc 3c
       -0.057451073 0.05748246 -0.03640355 0.030855615
0000c0 ec 8a 1e 3e c6 ed 09 be b4 83 24 3e 58 5c ef 3d
       0.15482682 -0.1346961 0.16065866 0.11687535
0000d0 c9 9a 0c 3e 69 64 05 be 87 56 10 3e 02 37 12 be
       0.13730921 -0.13026585 0.14095508 -0.14278796
0000e0 bc 00 f3 3d 22 0f 17 be ce 82 9d 3c ad 63 0b 3e
       0.118653744 -0.14751866 0.019227412 0.13612242
0000f0 16 b0 ea bd 1d a6 7c 3c fa 6f 3f bd d9 14 cd 3d
       -0.11459367 0.015420464 -0.04673765 0.10013742
000100 a1 7d c7 ba 32 52 2f be 92 57 a4 3c c7 1c b2 3d
       -0.0015219935 -0.17121199 0.020061288 0.08696895
000110 c8 59 ed 3d e0 10 1d be b2 6b 16 be 08 0c 25 be
       0.1158939 -0.15338469 -0.1468952 -0.16117871
000120 61 e8 6e 3d c4 f8 6f 3d 1b f4 99 bd da 49 67 bd
       0.058327083 0.05858685 -0.075172625 -0.056466915
000130 65 05 6f 3d 6d 4c e8 3d bf e2 31 3d 32 82 2d be
       0.058354754 0.11342702 0.043429133 -0.16944197
000140 44 35 1b 3e 5e 3e 56 3a 52 59 38 bd 92 15 19 be
       0.15157038 0.00081727456 -0.045007057 -0.14949635
000150 62 79 2b 3d 88 32 d8 3c 74 96 a1 bd b0 ee 23 bd
       0.041863807 0.026391283 -0.07890025 -0.040022552
000160 02 80 1e bc 34 dd 16 3e c8 be a1 bd 28 e9 19 3d
       -0.009674074 0.1473282 -0.07897717 0.03757587
000170 3a c6 b4 3d 1a 3e 44 bd 1a 03 4a bc 03 ec 4c bd
       0.08826871 -0.047910787 -0.012329841 -0.050029766
000180 f1 31 42 bc f4 7b 07 3d fb 67 c6 bd 17 63 a6 3d
       -0.011852727 0.033077195 -0.096878015 0.08124369
000190 b3 67 16 be 52 7f 75 3c 8d 7f 55 3d 94 95 1a 3c
       -0.14687996 0.014983969 0.052123595 0.009435076
0001a0 35 bc 0d 3e 00 d5 46 3d 4c 85 fa 3d 4f 66 4e bc
       0.13841327 0.048542976 0.122324556 -0.012597634
0001b0 6c 33 f2 bd d4 7c 2d 3e 4c d4 82 bd 5b 6e 9e bd
       -0.11826214 0.1694215 -0.06388149 -0.077358924
0001c0 37 04 1f 3a 34 b6 c6 bd b9 7a 07 bb 00 fd e7 3c
       0.0006065997 -0.09702721 -0.0020672514 0.028318882
0001d0 60 2f 2d be bd 95 00 bd ca d4 06 be f5 74 2e 3d
       -0.16912603 -0.0313928 -0.1316711 0.042592008
0001e0 be 04 1d be 26 de 38 bd d1 83 0d 3e 51 43 29 3d
       -0.1533384 -0.045133732 0.13819815 0.041323964
0001f0 3f 80 8d 3c eb 9b 23 bc 80 28 0d 3e 07 cd 9f bd
       0.017273067 -0.009985904 0.13784981 -0.07802778
000200 4b 29 81 3b cb 06 f1 3c ab f1 04 3e 30 f9 c3 3d
       0.00394169 0.029422184 0.12982814 0.09569013
000210 e3 fd 23 be 47 9b e7 bd c3 86 a6 3d 44 09 23 bd
       -0.16014819 -0.11308914 0.081311725 -0.03980376
000220 f3 3d 2c be 99 1d 20 3e c8 3a 74 ba cd 1f a4 3d
       -0.16820507 0.1563629 -0.00093166204 0.08013878
000230 4d 9b ef bd cc ca 52 3d 62 31 cf bd f2 3e 06 be
       -0.11699543 0.051462933 -0.10116841 -0.13109949
000240 22 c2 b7 bd 74 32 f3 3c f5 01 bd 3c e9 08 1c 3e
       -0.08972575 0.029687144 0.023072222 0.15237774
000250 ae a3 68 3d 0b 40 0d be d3 f5 5e 3d d6 c4 12 be
       0.056796722 -0.13793962 0.054433655 -0.143329
000260 76 5f 42 bc bc ed 93 bc 24 06 7d bd 14 a1 60 3c
       -0.01186358 -0.018057697 -0.061773434 0.013710279
000270 7c ff 52 3c 30 1a 96 3d ba ff 25 3e 59 3b 02 be
       0.012878295 0.073292136 0.16210833 -0.12717952
000280 5a aa 45 3d ef 25 2b 3e 16 fb 03 bc 96 6a 2a be
       0.048258163 0.1671369 -0.008055469 -0.16642222
000290 56 03 3f bd 91 28 f0 ba 35 7c 0a be 40 d6 6f bd
       -0.04663404 -0.0018322637 -0.13523944 -0.058553934
0002a0 56 53 1a 3e d3 9a d4 3d 4b 3b ba bd 8a ca 99 3d
       0.15070853 0.10381093 -0.090933405 0.075093344
0002b0 f4 06 1f bd 5a 4c 1b be 2b f2 24 be c5 2b 1a be
       -0.03882499 -0.15165845 -0.16108005 -0.15055759
0002c0 2b 01 28 3e ed f6 c3 bd 71 47 73 bd 4c 6f c6 3d
       0.16406696 -0.09568582 -0.059394304 0.09689197
0002d0 d7 d5 98 3c e3 8a 3f bd ff be ef 3d 90 00 b7 bd
       0.018656654 -0.046763312 0.117063515 -0.08935654
0002e0 04 38 5c bd cf c4 d9 3d 9b e3 1a bd f1 c6 e0 bd
       -0.05376436 0.106332414 -0.037814718 -0.10975445
0002f0 a5 b3 1e 3c 12 44 65 bd 0c de ef bb 1e 27 22 bd
       0.009686385 -0.05597312 -0.007320171 -0.039588086
000300 8a c2 e6 bc 30 ac 16 3c 93 4f 18 3e 44 de ab 3d
       -0.028168935 0.009196326 0.14874105 0.08392003
000310 10 19 13 3e 07 4c 11 be 78 01 e5 bc 54 89 30 3d
       0.1436503 -0.14189158 -0.027954802 0.043099716
000320 d0 f7 c2 bd e6 99 9b bd ba 04 a9 3d 75 e7 f8 3d
       -0.09519923 -0.07597713 0.08252855 0.12153522
000330 2b e6 a4 bc de da f3 bb 68 25 e9 bd b1 ca ff 3d
       -0.020129284 -0.0074418625 -0.11384088 0.12489832
000340 ac 53 47 bd 7f eb 69 3c a8 e0 09 bd 4b 88 18 3e
       -0.04866378 0.014277338 -0.033661515 0.14895742
000350 de e6 08 be 18 dd f2 bd 40 cb 13 3e 10 bd 5d 3d
       -0.13369319 -0.118585765 0.14433002 0.054135382
000360 07 a5 2a be e4 71 1e be af f8 26 be dc 79 a5 bc
       -0.16664515 -0.15473133 -0.16305803 -0.020199709
000370 b5 0c e2 3c 50 fb 10 bc 2c 7a 0e be 34 6d 1b 3e
       0.02759395 -0.00884898 -0.13913792 0.15178376
000380 46 91 f4 bd 5b 6c a1 bd 76 35 54 b9 94 de dc 3d
       -0.11941771 -0.07881995 -0.00020237811 0.10784641
000390 19 ed 11 be a3 10 4a bd 3e cc 7d 3d 0a 64 1a bd
       -0.14250602 -0.049332272 0.06196236 -0.03769306
0003a0 34 44 2d bb ec 8c dc 3d cc cd 53 3c 68 ca c0 bc
       -0.0026438357 0.10769066 0.012927484 -0.023534015
0003b0 f9 2d 0b bd 18 a4 08 3c 7c ee 73 3a 1d 40 a1 bd
       -0.03397939 0.008339904 0.00093052513 -0.07873557
0003c0 7a e3 8c bc 74 35 08 3e 6d 93 a2 bc f4 86 19 be
       -0.017198313 0.13301641 -0.019845689 -0.14992887
0003d0 03 e6 a1 bd 3f d3 04 3e 8f ad 13 3e 81 74 e6 bd
       -0.079051994 0.12971209 0.14421676 -0.1125269
0003e0 3d c1 5f bc c2 c2 03 3d 0f 98 04 3e 84 18 3f bd
       -0.013656911 0.032168157 0.12948631 -0.04665424
0003f0 2b b4 15 3d 6d ce 28 bc 1c d7 b7 bd 30 d5 16 3e
       0.036548775 -0.010303122 -0.08976576 0.14729762

lstm.weight_hh_l0 f4 [200, 50]
000000 ce 61 38 3d 09 a4 b5 bc 80 0b 3b bd 83 e5 df 3d
       0.04501515 -0.022172945 -0.045665264 0.10932448
000010 54 53 92 bd 3b 90 c6 3d a4 f9 5f bd 9b 36 02 be
       -0.071448 0.096954785 -0.054681435 -0.12716143
000020 bb 26 ad 3d 67 77 df bd 09 95 c7 3d 68 8d 85 3d
       0.08454653 -0.10911446 0.09745223 0.06521112
000030 b9 39 45 3d e7 26 ec 3d 25 69 e8 bc 40 3d eb 3d
       0.04815075 0.115308575 -0.02837045 0.11486292
000040 88 af fa 3a b5 c1 f4 bd 8b 37 ca 3d ba d7 0f bd
       0.0019125799 -0.11951009 0.09873875 -0.035117842
000050 1d 5a ae bd b5 f8 4e bd cc 1c 91 bc 86 fb 8e bd
       -0.085132815 -0.050530154 -0.017713927 -0.06981568
000060 4f d6 85 3d 14 c2 14 3e f3 ea fa 3d b4 47 23 be
       0.06535017 0.1452716 0.12251844 -0.15945321
000070 d2 e4 dd bd bf d9 15 be 56 da 92 bd f8 bd 6f bd
       -0.1083466 -0.14633845 -0.071705505 -0.058530778
000080 e2 ed 01 bc 19 98 3d 3c 6c ed b3 3d cb fb 84 3d
       -0.007930251 0.011571907 0.08785519 0.06493338
000090 88 b5 a7 3d 1c 2f 9c ba a9 0b 85 3d 98 da 7d 3d
       0.08188921 -0.0011915895 0.064963646 0.061976045
0000a0 b0 3f 36 3d 71 ba 47 3d 6e 3e fa bd 8d 88 87 bd
       0.04449433 0.04876179 -0.12218939 -0.06617842
0000b0 43 c6 72 bc 63 d5 b0 3c 68 17 11 be 14 20 bc 3c
       -0.014817777 0.021586126 -0.14169085 0.022964515
0000c0 b6 27 00 3e e9 bc 24 3d 4d 72 f7 3d a9 06 3a 3d
       0.12515149 0.04021922 0.12082348 0.045416508
0000d0 b2 2e aa bb 65 87 fb 3d b8 bd c7 bd 0b 06 04 3e
       -0.005193555 0.12281684 -0.09752983 0.1289293
0000e0 04 3b 8d 3d 33 a3 8c bd 8b 64 14 be 2a 58 28 bd
       0.06896022 -0.06867065 -0.14491479 -0.041099705
0000f0 15 47 22 bc 5d e7 bd bd 0d 2a 83 bd de 11 c5 bd
       -0.009904643 -0.09272645 -0.06404505 -0.096225485
000100 11 c2 38 bd 48 05 1d 3d bf 78 fd bd 19 d0 52 3c
       -0.04510695 0.038335115 -0.12376546 0.012866997
000110 cf d6 97 bd 85 80 12 be 73 fe 76 3c 98 cf 15 3e
       -0.07414018 -0.14306839 0.015075314 0.14629972
000120 d3 80 dd bc 45 51 63 3b fb be 51 3c b0 88 bc 3d
       -0.027038967 0.0034685892 0.012801881 0.092057586
000130 f3 1d 8e 3d e1 b9 90 3d 43 d4 25 3d 3b 2e 0e 3e
       0.06939306 0.070667036 0.04048563 0.13884823
000140 73 31 51 bd 7b 1e 48 3d 0f 77 0d 3e 0c 6d 0f 3e
       -0.05107255 0.048857193 0.13814948 0.14006442
000150 8e 10 7f 3d 6c d0 ae 3d b8 46 b2 bd b6 4c 24 3e
       0.062271647 0.08535847 -0.08704895 0.16044888
000160 de 82 15 3e 90 01 1f be 9a 05 3a bd e3 cd db bd
       0.14600703 -0.1552794 -0.0454155 -0.10732629
000170 32 63 e4 bd 60 2b 3a 3d f2 93 be 3d 35 f6 4c 3d
       -0.111517325 0.045451522 0.09305562 0.05003949
000180 d5 e7 6a bc 33 c8 6b 3c ad ff 18 be 13 f6 99 3d
       -0.0143375 0.014390993 -0.14941283 0.07517638
000190 e6 97 52 bd f4 ec 91 3d aa 3c ed b9 47 66 54 bc
       -0.051414393 0.07125273 -0.0004524936 -0.012963838
0001a0 66 84 5a 3d e5 3b 95 bd 0b c1 ce 3d 80 54 77 3d
       0.05334892 -0.072868146 0.10095414 0.06038332
0001b0 8f 7c 0e be 9d 62 0a 3e 4c 94 8c 3c 58 c0 bc 3d
       -0.13914703 0.1351418 0.017160557 0.09216374
0001c0 1a ce 0a 3e 0d 3f a3 3d c5 56 14 3e 11 b0 f8 3c
       0.13555184 0.0797101 0.14486225 0.030357393
0001d0 e8 34 16 3e 74 cb cd bd dc 79 e2 3d 44 69 32 3d
       0.1466862 -0.10048571 0.11058399 0.04355742
0001e0 e7 cc 00 3e 13 eb 6a 3d 83 d1 b4 bd 75 e0 70 bc
       0.12578164 0.05735309 -0.08829024 -0.014701952
0001f0 fc 6e 0d 3e ae 28 26 bd 8b c0 f1 3d a6 06 31 3d
       0.13811868 -0.04056614 0.11804303 0.04321923
000200 47 84 96 3d 10 4a 9c 3d 5f de 00 bb 76 f6 41 3d
       0.07349449 0.07631314 -0.0019663794 0.047354184
000210 7b 8c c5 bd 95 85 9f bd 1d 4e 1e be 2a ba ff bd
       -0.09645935 -0.077891506 -0.15459485 -0.1248668
000220 00 5b c7 3d 39 49 ce 3d 9e 45 bb bd 72 fc 09 be
       0.09734154 0.1007256 -0.09144138 -0.13475206
000230 3f c3 f8 3d 21 89 df bd c2 ef 11 3d a7 bc 56 3c
       0.12146615 -0.10914827 0.03562904 0.013106502
000240 51 2e c6 3b 93 e9 a9 3d ac 27 1b be 13 5b f8 3d
       0.006048002 0.08296504 -0.15151852 0.12126746
000250 bf f0 19 3e 92 39 c8 3d bf af c2 bd c9 54 ba bc
       0.15033244 0.09776606 -0.09506177 -0.022745507
000260 04 4f 82 3d b9 da e8 3c e7 ff df bc 5b 4d 7a bd
       0.06362727 0.028424608 -0.027343703 -0.06110893
000270 b9 17 f6 3d ba 4a 6e bd d8 1e ed 3d 59 0d be 3d
       0.120162435 -0.058176734 0.115781486 0.092798896
000280 c5 fb 23 3e 80 61 b8 bd 22 49 b1 3d 6d ca a9 3c
       0.16014011 -0.09002972 0.08656527 0.020726407
000290 f2 da 87 bd df 2f 11 be ae 6d fd 3d 59 87 b0 3d
       -0.066335574 -0.14178418 0.12374435 0.086195655
0002a0 5d 30 a8 3d 4c 7c b2 3c cc 6b 1f 3d b8 fc 12 bd
       0.082123496 0.021787785 0.038921162 -0.035885543
0002b0 e8 9b 01 3d 02 60 1b 3c 82 ef 19 3e 9b ef df bc
       0.031642824 0.009483339 0.15032771 -0.027335932
0002c0 98 44 37 bb ae 65 27 3d 09 6a 52 bd 86 9f f4 3d
       -0.002796447 0.040868454 -0.051370654 0.11944489
0002d0 0a 8f e9 3d a1 e3 dc 3d bd 48 c6 bc 67 4b 9f bc
       0.11404236 0.10785604 -0.024204606 -0.019445134
0002e0 a1 6d 3a 3d e4 6b c1 3d 3c 48 1b 3e 3a 47 9e bd
       0.045514707 0.09444407 0.15164274 -0.07728429
0002f0 f1 17 dc 3d b8 c8 91 3d 89 b9 b3 bd dc f5 0c be
       0.10746754 0.07118362 -0.087756224 -0.13765663
000300 fe 95 23 bd e7 29 8a bd 67 67 59 bd 05 da fc bb
       -0.039937966 -0.067462735 -0.053077128 -0.0077164196
000310 54 8f e9 3d 38 a6 5e bd 3a 4b b8 b9 55 1c c1 3b
       0.11404291 -0.054357737 -0.00035151263 0.00589327
000320 24 57 ac 3d a4 e6 26 be 85 c6 6f 3d 7d 5c 07 3e
       0.08415058 -0.1629892 0.058538932 0.13218875
000330 67 1f ac 3d 4b fe a3 bc 35 42 a0 bc 56 54 c1 3d
       0.08404427 -0.020018717 -0.01956282 0.09439914
000340 94 cf a8 bd 92 7a bb bd 35 26 90 bd 0e f9 77 3d
       -0.082427174 -0.09154238 -0.070385374 0.06054025
000350 1d a7 d7 3d cf 45 6e 3d 9e 36 62 3d ad 0b 09 3d
       0.10529921 0.058172043 0.05522787 0.0334584
000360 fa 6e eb bc 2d 87 15 be 0c 59 f7 3c d8 2b 71 3d
       -0.028739441 -0.14602347 0.030193828 0.058879703
000370 e6 85 5b 3d 3b 37 87 3c 37 de 0c be 96 d7 09 3d
       0.053594492 0.016505828 -0.13756643 0.033652864
000380 dc 52 0e 3e 06 18 a1 bd 82 e3 9f bd a1 78 09 be
       0.13898796 -0.0786591 -0.078070655 -0.13424923
000390 26 a4 b6 3d e7 95 00 be 2b 46 42 bd de de df bc
       0.089180276 -0.12557183 -0.0474302 -0.027327951
0003a0 2e 78 79 3d ce a5 e2 bc 11 24 a8 bd 69 a8 f0 3c
       0.060905628 -0.027666952 -0.08210004 0.02937718
0003b0 cd ba 03 3e e8 3e f3 3c f8 1e 03 bd 3c 80 bc bd
       0.12864228 0.029693082 -0.032011956 -0.09204146
0003c0 b0 ba cb 3d 38 45 b6 bc 37 17 12 3e 5b a9 16 3e
       0.09947717 -0.022249803 0.14266668 0.14713041
0003d0 80 35 df 3d 72 df 8b bd 92 00 78 bd a1 8b df 3d
       0.10898876 -0.06829728 -0.06054742 0.10915304
0003e0 15 f5 17 3e 0a 27 1e 3d 3a 76 1c 3e 14 00 c7 3d
       0.14839585 0.03861145 0.15279475 0.09716812
0003f0 c4 24 e3 bd a7 3f 31 3c 53 6c ff bd f4 c0 9c 3c
       -0.11090997 0.010818399 -0.12471833 0.019134976

lstm.bias_ih_l0 f4 [200]
000000 8c 4a 19 3d 58 96 d9 3d 7b 2d d7 3d 85 d8 c6 3d
       0.03742461 0.10624379 0.105067216 0.097092666
000010 63 45 81 bd 97 cb dc 3d 09 21 05 3d eb 50 df 3d
       -0.063120626 0.10781019 0.032502208 0.10904106
000020 c0 aa 0e 3e da 6f c2 3d 18 53 a9 bd 1c c2 f0 bd
       0.13932323 0.0949399 -0.08267802 -0.117557734
000030 34 4f 33 bc cf a6 ab 3c 97 a8 f6 3d 9b 66 82 bc
       -0.010944176 0.020953564 0.12043875 -0.015918067
000040 8a aa cd 3d b4 32 e6 3d 31 47 0f be 1f c6 f4 3d
       0.10042293 0.112401396 -0.13992001 0.11951851
000050 3a f1 f9 bd 49 1b db bd d1 9e 92 bd f6 b5 bb bd
       -0.122042134 -0.106985636 -0.07159198 -0.09165566
000060 34 09 8a 3d 68 4f 02 3c 25 98 b4 bd 3f f6 bf 3d
       0.067400366 0.007953502 -0.08818082 0.093731396
000070 db 25 0b 3e 5a fa 6e 3c b4 74 d9 bd c7 62 2a bd
       0.1358866 0.014586056 -0.106179625 -0.041598108
000080 da 70 13 3e da 2a ab bd 37 82 75 3d 83 77 09 be
       0.14398518 -0.08357783 0.059938636 -0.13424496
000090 70 b3 b4 bd 26 96 06 bd ce eb 97 bd 6f e5 f8 bd
       -0.088232875 -0.032858036 -0.07418023 -0.12153136
0000a0 44 a1 bb bd 67 14 fa 3d 97 6e 3c bc 04 a4 03 3e
       -0.09161618 0.12210923 -0.011500976 0.12855536
0000b0 52 72 6b bc 7e 2f 25 3d 60 06 e1 3d e3 bc f9 bd
       -0.014370518 0.040328495 0.10987544 -0.121942304
0000c0 5a e3 2b 3d 5a 72 54 bc 00 18 03 3e f9 46 76 ba
       0.041964866 -0.012966717 0.12802124 -0.0009394731
0000d0 8b f9 66 bd 02 a5 92 3d d1 50 d2 3d e9 d3 bd 3d
       -0.056390326 0.07160379 0.10269321 0.09268934
0000e0 8e 31 e9 bd 91 52 17 3d 9c 52 89 bd 52 8b 66 3d
       -0.11386405 0.036943976 -0.067052096 0.05628521
0000f0 6c ae 03 be f7 37 00 be 8f 79 5b bd 5f 4c f7 3d
       -0.12859505 -0.12521349 -0.053582724 0.120751135
000100 11 c0 34 3d 68 50 1b 3d 37 ce 0b 3d d8 42 81 bd
       0.04412848 0.03791848 0.03413221 -0.063115776
000110 1b 10 b8 3d 8b 5d f4 bd b4 d7 e1 3d 36 25 3c 3d
       0.08987447 -0.119319044 0.1102747 0.045933925
000120 e2 b8 bd 3c f0 79 97 bc 00 4d bb bd 65 01 42 bd
       0.023159448 -0.018490762 -0.09145546 -0.04736461
000130 40 93 1c 3d 49 00 a2 3d 47 78 94 bd 7b 61 01 3e
       0.038226366 0.07910211 -0.072495036 0.12634842
000140 2d bb f3 bd 34 2e 2f 3c e6 8a ed bd 86 a1 bb 3d
       -0.11900935 0.010692168 -0.115987584 0.091616675
000150 d1 1a 03 3d 9c 6d 06 be e2 51 6c 3d e2 5c e7 bd
       0.032007996 -0.1312775 0.057695277 -0.11297013
000160 8a 9b 7d 3c 54 d3 2b bd 6c 67 74 3d 75 4d e0 bc
       0.015478978 -0.041949585 0.059668943 -0.027380684
000170 dc 8e b3 bd 09 95 bf 3c 36 a8 d4 3d 0d 9e fa bd
       -0.08767483 0.023386495 0.10383646 -0.12237177
000180 bc 43 a3 bd 62 52 fe 3d e3 a5 d3 3d 36 4f 08 3e
       -0.07971904 0.12418057 0.10334375 0.13311467
000190 ca 84 8a bd 4c 7e be 3d 51 39 08 3c 2c 5d 6b bd
       -0.06763609 0.09301433 0.008314447 -0.057461902
0001a0 a9 73 0d 3d cb 13 ec 3d dc e9 ed 3d 79 81 5b bd
       0.03453413 0.11527213 0.11616871 -0.05359027
0001b0 d2 47 11 be 0c 68 bc 3a c5 67 dd bd 5d 3e 4a 3d
       -0.14187554 0.001437427 -0.10810808 0.04937588
0001c0 64 cf 62 3d 0e 41 01 be 4f 53 45 bc a0 0c c1 bd
       0.055373564 -0.12622473 -0.012043788 -0.09426236
0001d0 42 8b 0c be ad 74 45 3d 23 9b d6 bd 7d 3e 09 3e
       -0.13724998 0.048206974 -0.10478809 0.13402744
0001e0 a2 48 e9 bc 94 84 ba 3d 44 f6 37 bd 56 12 d1 3c
       -0.028477017 0.091073185 -0.04491259 0.025521439
0001f0 ea 36 0d be f8 9e 0b 3e 19 3a da 3d 61 c1 dd bd
       -0.1379048 0.1363486 0.106556125 -0.108279
000200 60 26 a6 bd 7f 5b a5 bd 47 2d 17 3e 50 eb cd 3d
       -0.08112788 -0.08074092 0.14763366 0.10054648
000210 26 1e 00 3e d1 24 d3 bd a5 1d 2c ba 55 f0 78 3d
       0.125115 -0.103097565 -0.00065656967 0.060776073
000220 b1 eb c0 bd 4a 68 de 3d a1 eb 41 3c de b8 8a 3d
       -0.094199546 0.10859735 0.011835963 0.06773542
000230 b7 5a 00 bd 8f 80 07 3e a3 40 b0 bd f4 6a 08 3e
       -0.031336512 0.13232635 -0.086060785 0.1332205
000240 36 5b cc 3d 7e 38 ba bc 36 c2 dd 3c 91 09 4f bd
       0.099783346 -0.022732016 0.027070146 -0.050546233
000250 9c b6 d8 bd 3a 8f e4 3d c2 40 10 3d 10 d1 28 bd
       -0.10581705 0.11160131 0.035218008 -0.041215003
000260 a7 8a 2f 3d 02 39 b2 bc fd bf ba bd 0f 98 da bd
       0.04285684 -0.021755699 -0.0911865 -0.10673534
000270 4e 61 8f 3b 4c 26 fd bd a7 36 ba bd 82 3a c8 bd
       0.0043756133 -0.1236082 -0.09092455 -0.097767845
000280 84 a1 bb bd 72 05 a4 bc b1 e1 2e 3d 56 a4 da 3d
       -0.09161666 -0.020022128 0.042695705 0.10675876
000290 5e 3a fa 3d 14 f1 b1 bd 4d ef cb 3d 3a 59 53 bd
       0.12218164 -0.0868856 0.099577524 -0.051598765
0002a0 a7 59 b2 3d be f1 a8 bd 41 62 36 3d 3d 4a 79 3d
       0.08708506 -0.08249234 0.044527296 0.060861815
0002b0 68 60 d7 bd 12 64 23 3d 8f 42 6e 3d eb 00 24 bd
       -0.10516435 0.039890356 0.058168944 -0.040039938
0002c0 63 be 67 3c cd 4f c1 bd 0d e2 e0 3d 2e f5 0b bd
       0.014144513 -0.09439049 0.10980616 -0.03416937
0002d0 31 c1 d6 3d d1 44 cc 3d 08 2f a9 bd 51 5c ed bd
       0.10486067 0.09974063 -0.082609236 -0.115898736
0002e0 de af 71 3d 86 d4 4e 3d 43 4b 92 3d 41 6e ed bd
       0.05900561 0.050495647 0.07143261 -0.11593295
0002f0 2b a3 5a 3d 34 87 04 bd 18 6b 0f 3c ae 90 58 3d
       0.053378265 -0.032355502 0.0087535605 0.052872352
000300 10 c6 71 3d d4 51 80 bd af d2 4d 3d 3e 7e a0 bc
       0.059026778 -0.062656075 0.05024975 -0.019591447
000310 e5 13 8d 3b e4 ea 0a be e6 27 05 be 41 19 ff 3d
       0.00430535 -0.13566166 -0.13003501 0.12455989

lstm.bias_hh_l0 f4 [200]
000000 6b 47 c1 3d b9 21 15 3d a8 11 f0 3d 24 84 a9 bd
       0.0943745 0.036409114 0.11722118 -0.08277157
000010 a2 48 bf bd 65 4f dc bc 50 65 b1 bc 67 a3 ca 3d
       -0.093400255 -0.026893327 -0.021654755 0.09894448
000020 d9 22 8e bd 4a 1a b7 3d d3 99 7f 3c 80 9c 96 3d
       -0.069402404 0.08940561 0.015600639 0.07354069
000030 56 dd f8 bd 86 03 68 bd d8 ae 1a bd ab c4 07 be
       -0.121515915 -0.056643985 -0.0377644 -0.13258617
000040 55 53 df bd 24 02 bb bd d0 f4 7a bd 03 1b e8 3c
       -0.10904566 -0.09131268 -0.061268628 0.028333193
000050 23 dd 07 3d 52 70 70 3d 9f 41 cc 3d fd 83 cd bd
       0.033169877 0.058700867 0.09973454 -0.100349404
000060 90 7e 90 3d b5 18 96 3d c4 b7 be 3d 23 72 ba 3d
       0.0705539 0.07328931 0.09312394 0.09103801
000070 a8 a4 61 bd dc 5f 04 be 27 b2 13 3c 88 ed 07 3d
       -0.05508867 -0.12927192 0.009014643 0.03318551
000080 4b 87 12 bd fe 1c 01 bd 71 c4 bc bd 9c 10 c7 3c
       -0.035773557 -0.03152179 -0.09217156 0.024299912
000090 25 fb 18 be ed e5 2e 3d ad 8d 20 bd ab 6b a6 3d
       -0.14939554 0.042699743 -0.039197613 0.08126005
0000a0 ee 4c 88 bd 83 40 0c be 28 ab bb bc 2a 00 aa bd
       -0.06655298 -0.13696484 -0.022908762 -0.083008125
0000b0 58 0c 88 3d f9 19 9a 3b fd 1c 11 3d b1 ff 91 bd
       0.066429794 0.004702803 0.035428036 -0.071288474
0000c0 ae ff 11 bd 7f e1 f2 3d 1c f7 8e bd d7 51 b5 3d
       -0.035644226 0.11859416 -0.06980726 0.088535
0000d0 4f 4c 6c 3c b1 01 62 bb 0e 70 fd bd d3 e5 0a be
       0.01442249 -0.0034485871 -0.12374888 -0.13564233
0000e0 f3 8e f8 3d 09 54 08 3d 05 89 23 bd df b6 b5 3c
       0.121366404 0.033283267 -0.039925594 0.022181926
0000f0 aa 8d 37 bd 52 52 b9 3d cb ee 27 3d ea 7d 0d be
       -0.044812836 0.090489045 0.040999215 -0.13817564
000100 d1 96 71 bd b8 11 38 bd d3 d4 93 3d b7 4d 4b 3c
       -0.05898172 -0.044938773 0.072183274 0.012408665
000110 df e3 73 bd 2b 29 6b bd 3e 4b c1 bd 4b 5f a3 bc
       -0.059543487 -0.057412308 -0.094381794 -0.0199429
000120 9f f3 b2 bd 3a 93 88 3c 6f 9e 52 3b 3f 6a 52 bd
       -0.08737873 0.016671766 0.003213789 -0.051370855
000130 70 55 fd 3d 8e 4b de bd 79 73 05 3e f4 d8 bc 3d
       0.123698115 -0.10854255 0.1303233 0.09221068
000140 a9 45 12 bd f8 b7 de bd 8c 2f c3 3d b3 18 05 be
       -0.035710964 -0.10874933 0.09530553 -0.12997703
000150 9e f2 be 3d 75 24 15 bd 3e a1 bf bc e4 4d 10 be
       0.09323619 -0.03641172 -0.023392316 -0.14092213
000160 8f 81 04 bc dc 78 b9 3d 44 98 d3 bd 01 a5 fc bc
       -0.00808753 0.09056255 -0.10331777 -0.030840399
000170 71 45 ca bd a8 e3 97 bc 41 5c 9c bc 16 93 d2 bd
       -0.09876526 -0.018541172 -0.019086959 -0.10281961
000180 0c 97 27 3b 30 73 3e 3d bf 16 4c 3c 41 54 a8 bd
       0.0025572209 0.04649657 0.012456595 -0.08219195
000190 38 72 9a 3c 14 86 ea 3d d1 f6 e2 3c d8 e3 e7 bc
       0.018853292 0.114513546 0.027705582 -0.028306887
0001a0 00 57 01 bd 54 b5 07 be 7a a5 1f 3d 84 95 3c 3d
       -0.03157711 -0.13252765 0.03897617 0.046041027
0001b0 67 93 f6 bd 0a 52 cd bd 5d d7 f4 3d 4f 31 60 bd
       -0.120398335 -0.10025413 0.1195514 -0.054734524
0001c0 c3 f3 fc 3c 0b da f2 3d 8c ae e5 3d 7e e9 08 3d
       0.030877953 0.11857995 0.11214933 0.0334258
0001d0 7d d9 e6 bd a0 8d c5 bd bd d9 ea 3d d6 81 d4 bd
       -0.11271951 -0.096461535 0.114673115 -0.10376327
0001e0 dc cc 29 3b 52 18 b0 3d 60 57 bb 3d 22 15 0d 3e
       0.002590946 0.08598389 0.09147525 0.13777593
0001f0 03 62 e2 3c 8c fa 0c 3e 72 df cb bb bf 26 56 bd
       0.027634626 0.13767451 -0.006221705 -0.052283045
000200 54 15 e5 3d e6 45 80 3c c1 27 be 3c ae 75 39 bc
       0.11185709 0.01565833 0.023212316 -0.011319561
000210 6a 9f 9a bd 6b b4 a8 bd 8b d7 94 3c 2d d1 62 3d
       -0.07549937 -0.08237537 0.018169185 0.055375267
000220 51 1f f0 bc 16 30 03 3e 78 07 72 3d 18 03 cb 3d
       -0.029311808 0.12811312 0.059089154 0.099126995
000230 10 0f 9e 3c fd d1 aa bb c9 44 33 3c ec 6b b5 bd
       0.019294292 -0.005213021 0.010941693 -0.08858475
000240 42 0f f1 3d 4d 4e 83 3d a9 c5 2d 3d e1 8d 0e be
       0.11770488 0.06411419 0.04242483 -0.1392131
000250 a8 f8 87 bd d8 f6 3b 3a f7 a6 8f bb 6a 32 c5 bc
       -0.06639224 0.00071702665 -0.0043839174 -0.02407189
000260 2e af a6 bd c9 a7 15 bd 07 4f b1 bd eb 96 ed bd
       -0.081388816 -0.036536966 -0.086576514 -0.11601051
000270 15 f5 ce bd 85 93 c6 3d 08 76 03 3e c6 b1 bd 3d
       -0.101053394 0.09696106 0.12837994 0.09262423
000280 77 5d c1 bd 4e bc a5 3d d9 38 77 bd 3e ea c9 3d
       -0.09441655 0.08092557 -0.06035695 0.09859131
000290 ef 66 da 3d a6 f4 0f 3e a3 c1 83 3c 30 c2 01 be
       0.10664164 0.1405817 0.016083544 -0.12671733
0002a0 bb 0d 21 3d 0e 8d 9a bd 11 b8 9a bd aa 68 ef 3d
       0.039319735 -0.07546435 -0.07554639 0.11689885
0002b0 1f bd 14 be a7 f3 89 bd 39 86 2a 3d e1 c4 20 3d
       -0.14525269 -0.06735926 0.04163191 0.03925026
0002c0 21 d5 0c 3e 1a 2e f1 bd 89 bb dc 3d 9d e2 b8 3d
       0.13753177 -0.11776371 0.10777957 0.09027598
0002d0 0f f5 ff 3d 1f d3 dd 3d ff 71 37 bc e3 2e 70 3d
       0.12497913 0.10831284 -0.011196612 0.058638465
0002e0 cd 8f 84 3d da bc ee 3d fd ce b9 3d 02 63 c8 bd
       0.0647274 0.11657114 0.09072683 -0.09784509
0002f0 06 c8 98 3c 8f a9 0b 3c 84 08 47 3d 0a 53 03 be
       0.018650066 0.008524313 0.048592106 -0.12824646
000300 6f fd cd 3d 0c 34 af bb 2d 24 ca 3d 24 f4 26 bd
       0.10058104 -0.0053467806 0.09870181 -0.040760174
000310 29 6f 0d 3e ab 9f 8a bb 41 a4 22 be 79 20 dc bd
       0.13811935 -0.0042304597 -0.1588297 -0.10748381

lstm.weight_ih_l1 f4 [200, 50]
000000 56 41 3c bc 71 41 97 3d 6a 95 b7 bd 98 f0 c9 3d
       -0.011490187 0.07385529 -0.08964045 0.09860343
000010 98 a7 94 3d 8b 1b 0f 3c 52 e5 6c bb 20 c2 1b bb
       0.072585285 0.008734594 -0.0036147428 -0.002376683
000020 6b ee 11 3c 77 83 02 be 1e 65 a5 bd 5d 98 b5 3c
       0.008906941 -0.12745462 -0.08075927 0.022167379
000030 b1 09 1b 3e 9f 23 59 3d 5a 64 51 3d c8 22 01 3e
       0.15140416 0.053012487 0.051121093 0.12610924
000040 5d 7c eb bd a1 d9 80 bd 56 d3 5c ba 5e 85 3a bd
       -0.1149833 -0.062915094 -0.00084238255 -0.045537345
000050 f0 66 32 bd 1c 42 b9 3d 06 8d ef 3d 9e dd 08 3e
       -0.0435552 0.090458125 0.1169682 0.1336579
000060 bd e0 d4 3d 4b 33 b3 3d 31 9e a5 bd bb f3 bc bd
       0.10394428 0.08750018 -0.08086813 -0.092261754
000070 6c 7d 11 3d 58 a0 00 3c d0 50 7a 3d 38 18 7a bd
       0.035520002 0.007850729 0.061112225 -0.061058253
000080 2f 36 5b 3d 17 da 3b 3d fb 71 fb bd 30 bf e0 bc
       0.05351847 0.045862284 -0.122775994 -0.027434915
000090 2a ab 09 3e e9 91 c1 3d 0a ef 0c bd 14 3c fa bd
       0.134442 0.09451658 -0.034407653 -0.1221849
0000a0 b0 3c 65 bd f9 52 d4 bd 27 af df bd 2e 1f b5 3a
       -0.05596608 -0.10367388 -0.109220795 0.0013818496
0000b0 c0 7a 9d 3d ee 08 22 bd 4a ee 11 3d ed 73 55 3d
       0.07689428 -0.039559297 0.03562764 0.05211251
0000c0 2c cc 23 3d 29 e7 4b bd 3f 79 80 bd 23 54 09 be
       0.039989635 -0.049781 -0.06273126 -0.13411002
0000d0 76 f7 09 3e 40 8b 01 bc ca 68 02 3e 53 05 0a 3e
       0.13473305 -0.007906735 0.12735286 0.13478594
0000e0 be a7 c7 bc 8c ba 99 bd 70 87 48 bc 4b c9 bd bd
       -0.024371978 -0.07506284 -0.012239322 -0.09266909
0000f0 4a 28 17 be 4f d1 a3 3d e2 a1 11 3e d6 da ee bd
       -0.14761463 0.07998907 0.1422191 -0.116628334
000100 9f dc e8 bc df f2 51 bd ab a3 f6 bd d5 b0 d9 bd
       -0.028425513 -0.05125701 -0.12042936 -0.10629431
000110 37 ec 67 3d 51 ad 92 bc b0 68 15 3e eb 28 98 3d
       0.056621756 -0.01790491 0.14590716 0.074296795
000120 22 f4 d1 bd 9a f4 02 3e 74 b9 05 be 84 de ad 3d
       -0.10251643 0.1278862 -0.13059026 0.08489707
000130 bb 94 44 bd 09 51 d0 3c f2 9c 14 be e4 b5 35 bc
       -0.047993403 0.025429266 -0.14512995 -0.011090729
000140 e4 5a 8e bb be d7 a4 3d 41 d0 cb bb 4c ca d5 bd
       -0.004344331 0.08048962 -0.006219894 -0.10438976
000150 05 18 c5 bd a3 8c f1 3d ae 11 bc 3d eb 8c c8 bd
       -0.09623722 0.117944025 0.0918306 -0.09792503
000160 46 b7 2d bd ea 2e f1 3d 0f e9 cf 3d b7 c5 fe bd
       -0.04241111 0.11776526 0.10151874 -0.12440055
000170 5e 15 89 bd 39 bb 13 be a2 f0 b2 bd 78 06 c0 bd
       -0.066935286 -0.14426889 -0.08737303 -0.09376234
000180 87 b5 b0 3a 1f 86 41 3d 05 28 09 be bc 18 f5 3c
       0.0013481834 0.04724705 -0.13394172 0.02991902
000190 55 04 ee 3d 5d d4 b2 bd 9d fd 1e bd 27 5b 29 3e
       0.1162192 -0.08731911 -0.038816083 0.16538678
0001a0 e9 2b b0 bd 17 df 0f 3d f7 14 f3 3a ec 7c 97 3d
       -0.08602125 0.035124864 0.0018545677 0.07396874
0001b0 67 56 73 bb 2b ac ed bc 91 29 6a 3c 9b d6 75 3b
       -0.0037130357 -0.02901276 0.014292137 0.0037511948
0001c0 70 21 f6 3d a0 ea 92 3d ee a2 da bd 59 1e 01 be
       0.120180964 0.071736574 -0.106756076 -0.12609233
0001d0 bf 3d 02 be 67 a0 82 bd 9f 93 72 bd e5 2f 2b be
       -0.12718867 -0.063782506 -0.059222814 -0.16717489
0001e0 bb cd a5 bd b7 64 69 3d d9 df 52 bd 09 f0 73 3d
       -0.080958806 0.056980815 -0.05148301 0.059555087
0001f0 8c 05 d6 3c c6 08 a7 3c 18 90 08 be 5b 26 56 3d
       0.026125692 0.020389926 -0.13336217 0.052282672
000200 5e 80 76 bb 66 76 1d bd 41 1a 42 3b 75 ec 1f be
       -0.0037613134 -0.03844299 0.00296177 -0.15617545
000210 5c 08 01 be f0 50 93 bd 19 f0 d4 3d 58 7a 15 3d
       -0.12600845 -0.07193172 0.103973575 0.03649363
000220 9c 3d 9c 3d 8a a5 89 3d 9b 16 a2 bd f1 dd 9a bd
       0.076289386 0.06721027 -0.07914468 -0.07561863
000230 7e fd bc bd e5 84 c9 3d 1c c6 c5 bc 1e 90 80 bd
       -0.09228037 0.09839801 -0.024142317 -0.06277488
000240 c4 67 1e be 9c 82 ae bd e2 2b 33 bd ff 4a ec 3d
       -0.15469271 -0.085210055 -0.04374302 0.11537742
000250 c5 57 bb bc e3 82 00 3e e9 dc 22 3e 63 d0 0d 3e
       -0.022869 0.1254993 0.15904583 0.13849024
000260 a6 8c c6 3d 59 e4 bb 3d 6f 8e 16 be fd 3a 7e 3d
       0.09694795 0.09174413 -0.14702772 0.062067974
000270 8b 4b 95 bd c8 10 c9 3d ce 49 cb bd a4 5c d1 bc
       -0.07289799 0.09817654 -0.099261865 -0.02555687
000280 fc d5 9e bd 34 43 e8 3d cc 8f e9 bd 76 90 bc bd
       -0.07755658 0.11340943 -0.1140438 -0.09207241
000290 aa a6 59 bb 98 50 86 3d d2 6e ad bd 9a 6d de bd
       -0.0033210912 0.06558341 -0.08468403 -0.108607486
0002a0 a4 89 01 be fa 70 49 bd b6 02 7c 3c f7 ee 03 3d
       -0.12650162 -0.04918001 0.015381506 0.032210317
0002b0 7f 7f a3 3d 1f ce 24 bc 46 3c 1f 3e c3 78 e9 bd
       0.07983302 -0.010058909 0.15550336 -0.113999866
0002c0 1c f4 22 3d fc 68 dd bd 56 89 7a 3d bf b8 00 be
       0.039783582 -0.1081104 0.06116613 -0.12570475
0002d0 61 42 2a be d7 1a e9 bd cf d6 ae 3d 57 ff 8b 3d
       -0.16626884 -0.113820724 0.08537065 0.068358116
0002e0 33 b2 f7 3d 0e 56 c0 3d 4d 2f cf 3c 7f 81 aa 3c
       0.12094536 0.09391414 0.02529111 0.020813702
0002f0 8b d2 08 3e b6 5e 3b 3c 7c 62 17 3d 01 ee d7 bd
       0.13361566 0.011436155 0.036959156 -0.105434425
000300 55 5c 0d 3e 8f 68 04 bd 92 af 19 be c5 e5 ba bd
       0.13804753 -0.032326277 -0.15008381 -0.09125856
000310 ef 32 27 be d7 37 c3 bd d1 9b 83 bd 3f 78 b1 3d
       -0.16328023 -0.09532135 -0.06426204 0.08665513
000320 5c 37 bd bd 2d 7c 16 be 4c 71 4e bd 2b ff 14 be
       -0.092390746 -0.14695807 -0.050401017 -0.14550464
000330 c7 fa 1f be b9 64 5d 3d 1c 62 b5 3c 9d a2 02 be
       -0.15623008 0.054051135 0.022141509 -0.12757345
000340 d9 6f 09 3e ec ae fb bc e0 64 07 bd 71 ea a9 bd
       0.13421573 -0.030723058 -0.033055186 -0.08296669
000350 72 2a 86 bd 65 04 0f 3d 30 9c 5e bd 37 1c 17 be
       -0.065510646 0.0349163 -0.05434817 -0.14756857
000360 65 7c cd bd 7b 5c 23 3d af 15 9a 3d a5 2c d9 bc
       -0.10033492 0.039883118 0.07523667 -0.026510546
000370 9c c3 70 bd ca fc c2 3d cd 54 df bd ff ac 83 bd
       -0.058780298 0.09520872 -0.10904846 -0.06429481
000380 44 bf ee 3d 2d 1e ac bd 02 12 de bd 80 6e 91 3d
       0.11657575 -0.08404193 -0.108432785 0.07101154
000390 27 ae 42 bd 0d 8e ab bd 2c df 57 bd d5 f2 2b 3b
       -0.047529366 -0.083767034 -0.052703068 0.0026237268
0003a0 42 88 26 3d 34 68 65 3d c5 d6 24 be a3 b3 e3 3d
       0.04065729 0.05600758 -0.16097553 0.11118247
0003b0 6b 23 14 3e e0 47 cb 3c e3 e4 ac 3c 89 dd 0c be
       0.14466636 0.024814546 0.021105235 -0.13756384
0003c0 d9 f1 c5 bd d4 e0 89 3d dc 47 4a bd 4f 0d 51 bd
       -0.096652694 0.06732336 -0.049384937 -0.051038083
0003d0 34 16 ca ba 75 47 34 bd 26 86 80 3d 9d 4c fd bd
       -0.0015417994 -0.04401346 0.06275587 -0.123681284
0003e0 d8 55 6e 3c 14 4e 09 bc 6b d0 00 bd fb 77 e6 bd
       0.014546834 -0.008380432 -0.031448763 -0.11253353
0003f0 90 42 c4 bc bf 57 fb bd 40 02 d3 bd 4a 0c 6e bc
       -0.02395752 -0.122725956 -0.103031635 -0.014529297

lstm.weight_hh_l1 f4 [200, 50]
000000 b1 25 fb bd 18 7e f2 bd bf 31 12 be 07 c3 49 bb
       -0.122630484 -0.11840457 -0.14276789 -0.0030786411
000010 2e 21 c1 3d a4 de 91 ba fe 40 d7 bd ef 1b c5 3d
       0.09430157 -0.0011128974 -0.10510443 0.096244685
000020 0c 08 75 bd 35 83 bd bc 17 e8 96 3d b1 09 d9 bd
       -0.059822127 -0.023133853 0.073684864 -0.105975516
000030 fd d3 12 be 41 68 0c ba a3 77 00 3e 9e 05 05 3e
       -0.1433868 -0.0005356111 0.12545638 0.12990424
000040 95 f4 f2 bd 2a 9c 81 3d 48 ab 50 bd 44 d0 14 3e
       -0.118630566 0.06328614 -0.050944597 0.14532572
000050 1e 00 ec 3d ec 74 1e 3c 26 1e 0e 3e 9b 66 e2 bc
       0.1152346 0.009671431 0.13878688 -0.027636817
000060 e9 de 9a 3d ad 11 12 be 9f 03 e8 3d 15 d7 98 bd
       0.07562048 -0.14264555 0.11328816 -0.07462899
000070 3e 2a c4 bd 38 01 94 3c 39 d1 01 be ae c8 50 bd
       -0.095783696 0.018066987 -0.12677468 -0.050972633
000080 73 1e 98 bc 2b 5b af 3d 41 71 1b be a3 21 70 bb
       -0.018569207 0.08562311 -0.15179922 -0.0036641143
000090 06 cf 33 3e 13 4e 7c 3d 75 39 37 bd 2c ea d2 bd
       0.17559442 0.061597895 -0.04473253 -0.10298571
0000a0 47 3f 3c 3c 1b 3a e8 3c 35 f4 05 3d 98 06 d8 3d
       0.011489696 0.02834802 0.032703597 0.10548133
0000b0 b9 f2 55 3d ce c9 fd bd ea 08 cb 3d 55 d7 0c bd
       0.05223343 -0.12392007 0.099138096 -0.034385044
0000c0 83 a1 01 be 07 e1 dd bc 77 fe 45 3d 9e f6 26 bd
       -0.12659268 -0.02708484 0.04833838 -0.040762536
0000d0 f4 e8 f5 bc 09 0c 01 3d 8d 4b ae bd 7b b9 08 3e
       -0.030018307 0.03150562 -0.08510504 0.13352005
0000e0 f8 2d ce 3d fc 14 c2 bd f2 33 bc 3d 0c bf 0e be
       0.100673616 -0.09476659 0.09189595 -0.13940066
0000f0 c9 3d 12 be 92 0c e3 bc 0e 65 a1 3d c3 51 3c 3d
       -0.14281382 -0.027715955 0.07880603 0.04597641
000100 f8 fb 91 bd ee 4b fd bd 01 f9 5c bd bb d5 9e bc
       -0.07128137 -0.12367998 -0.053948406 -0.019389024
000110 63 92 f0 3d 5b bc 47 bd 7a 15 a9 bc 55 a6 46 3c
       0.11746671 -0.048763614 -0.020640124 0.012124618
000120 b3 81 11 3e df c4 a4 bd 1e fd 27 bd eb f2 92 3d
       0.14209633 -0.08045363 -0.041012876 0.07175239
000130 72 fa 04 be 2a 17 b3 bd fc 14 bb bd d2 f7 a1 bc
       -0.12986162 -0.087446526 -0.09134862 -0.01977149
000140 a9 8b ed bd db d4 74 3c 32 69 82 3d 49 b1 05 3b
       -0.11598904 0.014943327 0.06367721 0.002039986
000150 94 d8 49 bd ce 37 29 bd a2 f3 c0 3d 46 6e 83 3a
       -0.04927881 -0.041312985 0.09421469 0.0010027371
000160 0a 2d 19 be a5 b3 a8 3d 40 fc c5 3d 31 a0 de 3d
       -0.14958587 0.082373895 0.096672535 0.10870398
000170 a6 f0 00 3d 23 ac e4 3d 68 5f 01 3e 65 8a 89 bc
       0.0314795 0.11165645 0.12634051 -0.016789624
000180 2c 6f 83 bd a9 6d e8 3d b3 1a 88 bd 22 b8 b1 bd
       -0.06417689 0.11349041 -0.066457175 -0.08677699
000190 a5 aa ba bd 24 37 8b 3c ed 42 b5 3d 63 35 6f 3d
       -0.09114579 0.016994067 0.08850656 0.058400523
0001a0 68 38 b3 3d a1 cb af bd f3 31 f4 3d e0 da 11 be
       0.08750993 -0.08583761 0.119235896 -0.1424365
0001b0 3a ac 51 3d 6d 11 13 3e d6 3a 93 3d df 97 88 3d
       0.05118964 0.14362116 0.071889564 0.06669592
0001c0 74 5a f3 3d 72 dd 90 3d ad 4f 23 3e e6 77 b6 bd
       0.11882487 0.07073487 0.15948363 -0.089095876
0001d0 22 ee 0a 3b 07 fb 13 3e bc 0f 6c 3d 7d 8d 93 bd
       0.0021199067 0.14451228 0.057632193 -0.07204721
0001e0 74 f3 13 be 2e 59 7c 3d f9 03 c6 bc e8 bb 2c bd
       -0.14448339 0.061608486 -0.024171816 -0.04217139
0001f0 5f 2c 30 3e 3e 60 e2 3d 09 ce a8 3c e9 c3 c8 3d
       0.17204426 0.11053513 0.020606058 0.09802992
000200 96 61 e0 3d 56 31 0f 3e 31 59 65 3c d7 e5 c5 bc
       0.10956113 0.13983664 0.013998316 -0.024157448
000210 2d bd 48 bc ee 5f e4 bb e4 79 f1 bd 41 62 e6 bd
       -0.012252134 -0.0069694435 -0.11790827 -0.11249209
000220 92 0d 48 3d 1c aa a5 3d 27 ab 14 be 4c 84 81 3d
       0.048841067 0.080890864 -0.14518414 0.06324062
000230 c3 f0 da 3d 4d 6c 20 bd 09 7d da bc b8 62 ad bd
       0.10690453 -0.039165784 -0.02667095 -0.08466095
000240 df 2b f1 bb e0 ee 1b be 8f 71 02 3e da 8c ae bd
       -0.007359966 -0.15227842 0.12738632 -0.08522959
000250 cf 2d 21 3d 9d 55 f2 bd 18 d8 25 3e 30 3f 22 bd
       0.039350327 -0.11832736 0.16195714 -0.03961104
000260 39 4a 00 3e 31 38 fd bd c8 9b ff bc b3 d6 50 3b
       0.12528314 -0.12364233 -0.031202212 0.0031866252
000270 26 9f 81 3d b6 3b 02 3d 5b 39 ac bd 92 a0 10 bb
       0.06329183 0.031795226 -0.08409377 -0.0022068364
000280 ab 34 00 3e 03 09 ef 3d af 23 45 3d 4f b2 01 3e
       0.12520091 0.11671641 0.048129734 0.12665676
000290 ae 22 1f 3e 1d 4d 86 3b 88 c1 ec 3d 2c b6 20 3e
       0.15540573 0.004098548 0.11560351 0.15694493
0002a0 31 04 f8 bc 72 8b fd 3d 6c 20 a4 bd 74 70 2f 3e
       -0.030275436 0.12380113 -0.080139965 0.17132741
0002b0 43 8e ad 3d 12 46 14 3e bd 6c d0 3d 8b 48 7d 3d
       0.084744 0.14479855 0.1017699 0.06183676
0002c0 14 02 ec 3d 2f 53 87 bd 16 b6 45 3d 8f b6 4e bd
       0.11523834 -0.06607663 0.048269354 -0.05046707
0002d0 87 8b e6 3d 88 e8 6d bd 74 40 b5 bb b6 36 17 3b
       0.112570815 -0.058083087 -0.005531365 0.0023073382
0002e0 ce 0b fe 3c b5 0d a0 3d a7 4f f7 3d 38 a8 02 3e
       0.031011488 0.078151144 0.12075739 0.12759483
0002f0 7d d7 c9 3d 0f dc 25 3e 60 41 da 3d f8 66 c4 bd
       0.09855554 0.16197227 0.106570005 -0.09589952
000300 93 ad a9 3d 72 be 43 3d 08 65 20 be be 09 ed 3d
       0.0828506 0.047789045 -0.1566354 0.11574124
000310 6c a7 02 be 16 a7 72 bd 69 03 a3 3d 96 9f be 3d
       -0.12759179 -0.059241377 0.07959635 0.09307782
000320 23 ae fa bd 70 f2 d5 3d 78 90 08 3e da 0f 02 3e
       -0.12240245 0.10446632 0.1333636 0.1270136
000330 57 19 a5 bd 11 c9 e8 3d 62 2d a9 bb d3 f4 00 be
       -0.08061474 0.113664754 -0.0051628808 -0.12593393
000340 fb 66 d4 bc f4 2b 0d be 84 b2 ba 3d 02 c6 f6 3b
       -0.025928011 -0.13786298 0.091160804 0.0075309286
000350 05 af bb 3d f7 9e f8 3d d7 97 00 3e 6a a4 b6 bd
       0.09164242 0.12139695 0.12557922 -0.08918078
000360 93 0e c6 3d db 9d f3 3c da 92 c9 bd ab 2f 76 bd
       0.096707486 0.029738357 -0.09842463 -0.060104053
000370 7b 0d db 3b 7b e1 4e bd 99 63 ca 3c 10 5d 0c be
       0.0066849566 -0.050508004 0.024705695 -0.13707376
000380 36 51 88 3d a6 9d 15 be 5d 6d ea 3d 92 02 96 bd
       0.06656115 -0.1461092 0.11446641 -0.07324709
000390 c7 7f c5 3b 6b bf a5 3a f2 5f 01 3d 69 2d 04 3d
       0.006027195 0.0012645548 0.03158564 0.03226987
0003a0 24 4b f7 37 7a 0d fe bd b9 c4 af 3d b1 66 4b bc
       2.9479685e-05 -0.12404914 0.08582444 -0.01241462
0003b0 c9 4f d9 bd 9c 5a ec bd 1c a8 9f 3d 02 0a a4 bd
       -0.10610921 -0.1154072 0.07795736 -0.08009721
0003c0 f8 72 fe 3d e6 25 80 3d b7 56 ac bd a6 36 65 bd
       0.12424272 0.062572286 -0.08414977 -0.05596032
0003d0 b6 b1 22 3e d7 c6 fd 3d b8 6e 12 bd 57 9c e7 3c
       0.15888104 0.12391441 -0.03575012 0.02827279
0003e0 a5 86 68 bd 4f 1e df 3c 84 7b ea bd 19 d6 16 be
       -0.056769032 0.027236132 -0.1144934 -0.1473011
0003f0 69 98 01 be 3e a0 04 3e 56 d2 c4 bd 0f 74 e5 3d
       -0.12655796 0.12951753 -0.09610431 0.11203777

lstm.bias_ih_l1 f4 [200]
000000 3d c2 f0 bd 76 1a 82 bd df 4b 99 3d a3 b5 af 3d
       -0.11755798 -0.06352703 0.074851744 0.08579566
000010 74 76 0c 3e 2e eb 02 3d 78 0b d3 bd 83 68 4f 3c
       0.13717061 0.031962566 -0.10304922 0.012659195
000020 de bc 7e 3c 9b 88 e1 3d ca 1a c8 bc 03 bc dd bd
       0.015547959 0.110123836 -0.024426837 -0.10826876
000030 e8 5e d9 bd ee b9 86 bd 9c f6 c6 bd d1 57 19 bd
       -0.10613805 -0.06578432 -0.09715006 -0.037437264
000040 0e f2 3b 3d e3 2a e2 bd 67 23 c5 bd 90 13 d5 bd
       0.04588514 -0.11043336 -0.09625893 -0.10404122
000050 6f 83 ac bc 18 e7 27 3d af 77 6b bd 2d c8 39 bd
       -0.021058766 0.040991873 -0.057487186 -0.045356918
000060 8e b4 d8 3c 55 22 7f 3d 0a 9b 2a bd 9b 1a e9 3c
       0.026453283 0.0622886 -0.041651763 0.02845507
000070 c6 cf a0 3d 4d 96 7c bd d2 eb d1 bd ff 76 cd bd
       0.0785213 -0.061666775 -0.10250057 -0.10032462
000080 3e 04 b1 bd d4 c7 fe bd 62 70 03 be 11 ea 01 3e
       -0.08643387 -0.12440458 -0.1283584 0.12686945
000090 f2 f7 05 be 53 ac 01 be 3a 0e b5 3d 4d 03 b2 bd
       -0.13082865 -0.12663393 0.08840604 -0.08692036
0000a0 7c 5c ee 39 fd 14 72 3d 1e d1 9f 3d 96 76 21 3d
       0.00045463804 0.059102047 0.07803558 0.039419733
0000b0 4c 44 85 3d 3e 44 85 3d 41 17 3b bd 24 96 ff 3d
       0.06507167 0.06507157 -0.045676474 0.12479809
0000c0 f9 d2 91 3c f6 a5 b3 bd cf 66 d7 bd 6c ad e6 bd
       0.017800795 -0.08771889 -0.10517656 -0.11263546
0000d0 80 f7 2a bd 4b a7 ac 3d ae a4 1e bd be 04 24 3d
       -0.04173994 0.08430346 -0.03873127 0.040043585
0000e0 16 ed 6a bd 75 d3 10 3e 4c fc 5b 3d 63 8a cc 3d
       -0.05735501 0.14143164 0.053707406 0.09987333
0000f0 45 6b 74 3c 95 61 37 bd 7e 0f 2d 3d 97 09 17 3e
       0.014918153 -0.044770796 0.042251103 0.14749752
000100 d6 e8 0a be 66 a9 84 bd 29 28 8b 3d d2 81 b1 3d
       -0.13565382 -0.06477623 0.06794769 0.086673394
000110 fd b3 d3 3d 2f 66 9e bd c8 0e 08 bd f9 42 bd bd
       0.103370644 -0.07734334 -0.03321722 -0.0924129
000120 d3 71 fa 3d d5 89 79 3d f4 59 0c bd 58 35 76 3d
       0.122287415 0.060922462 -0.034265473 0.060109466
000130 ad 26 f8 bd 36 48 9d bd 6d 83 81 bd 5d 25 71 3c
       -0.12116752 -0.07679789 -0.063238956 0.014718381
000140 68 0b 4d bd 1b 85 49 bd 11 62 0b bd a6 33 98 bd
       -0.050059706 -0.049199205 -0.03402907 -0.07431726
000150 28 87 20 3c be b6 c7 bc 41 13 c4 bd f9 31 95 bd
       0.009797849 -0.02437913 -0.09573985 -0.07284922
000160 e0 d0 2d bc da 04 83 bd db 41 5e bd 4c 2f 42 3a
       -0.010608882 -0.0639741 -0.054262023 0.00074075605
000170 c8 c9 1a be 29 cb d9 3d 76 ec 19 be ba 1b 93 bd
       -0.15116036 0.10634453 -0.15031609 -0.07183023
000180 28 f4 90 bd 2a de e5 3d 84 07 0b 3e de 46 84 3d
       -0.07077819 0.11224015 0.13577086 0.06458829
000190 02 41 10 be a2 7c 8d 3a 64 db 1b 3d 79 c9 9b 3c
       -0.14087299 0.001079459 0.038051024 0.019016968
0001a0 9d 8b 10 be fa d4 09 be 62 8e d6 bc 1f a9 9a 3d
       -0.14115758 -0.1346015 -0.02619094 0.075517885
0001b0 1b a6 e2 bd 49 05 cd bd 94 11 0a be cf e6 14 3e
       -0.11066838 -0.10010774 -0.13483268 0.14541171
0001c0 13 81 a3 bd d3 10 2b 3c 92 84 a3 bc 99 82 95 bd
       -0.07983603 0.010441023 -0.019960675 -0.073003
0001d0 e2 40 21 bd 27 1f cc bd e3 44 f5 3d f1 f8 fe 3d
       -0.039368518 -0.09966879 0.1197603 0.124498256
0001e0 63 58 04 3d 0a 61 46 3c c4 81 83 bc 67 ac c0 bd
       0.032310855 0.012108097 -0.016053088 -0.09407883
0001f0 c7 e6 89 bd 72 d8 16 3d 5f 13 cb bd 0a 3a 0e 3e
       -0.067334704 0.036827512 -0.09915804 0.13889328
000200 f5 c8 a1 3c 82 63 97 bd ad f2 bb 3d c7 8b 96 3d
       0.019749144 -0.073920265 0.09177146 0.07350879
000210 62 06 81 3d 70 71 c4 bd a0 ed c2 bd 51 6f d6 bd
       0.063000455 -0.09591949 -0.095179796 -0.10470451
000220 c3 1f 09 be e8 9d 55 3c 04 86 4e 3d 60 5f 91 3b
       -0.13391022 0.013038136 0.050420776 0.0044364184
000230 ab 1d e6 3d da 4c 2f bc c6 6a 40 3d 5f 7f bb bc
       0.112361275 -0.010699475 0.046976827 -0.022887884
000240 4f d3 e7 bd 90 9b d0 3c bb f3 c2 bd 62 c7 df bd
       -0.11319601 0.025464803 -0.09519144 -0.10926701
000250 ee 6f a0 bc ad 0b 95 3d a3 0a 50 bc 35 7b 90 3c
       -0.019584622 0.072776176 -0.0126978485 0.017636875
000260 fa ad 06 3d 5e 0c e1 bd 3f 2c e1 3d 8e 61 99 3d
       0.03288076 -0.10988687 0.109947674 0.0748931
000270 e2 f6 a7 bd 57 f3 67 bd 7b c0 7e 3d 69 fe 23 3d
       -0.08201386 -0.05662855 0.062195282 0.040037546
000280 e1 24 31 3d cc 48 1a 3d 94 a9 6c bd a3 49 9c 3d
       0.04324806 0.03766708 -0.05777891 0.076312326
000290 5e 34 80 3d d5 ed 1f be 85 c0 9c 3d 62 95 9b 3b
       0.06259988 -0.1561807 0.07653908 0.0047480324
0002a0 a8 07 c0 3b ac 0d e1 3d 68 05 5e bd 7c 0c b5 bd
       0.0058602877 0.10988936 -0.054204375 -0.08840272
0002b0 61 62 96 bd 8e ca 49 3d 00 00 9b 3c 71 98 29 3b
       -0.07342983 0.049265437 0.018920898 0.0025878216
0002c0 26 dc 08 3e 6d 60 e2 3b 73 46 23 be 0d 86 c3 3d
       0.1336523 0.0069084675 -0.15944843 0.095470525
0002d0 7b d4 5f bc 6f f7 0c 3e 17 c5 4a bd 01 27 4f 3d
       -0.013661499 0.13766263 -0.049504366 0.050574306
0002e0 53 5c 78 bd 39 93 c1 3d 26 e5 0c 3d 88 f4 04 3e
       -0.060634922 0.094519086 0.03439822 0.12983906
0002f0 91 14 b6 bd 6f be 13 bd 3a a8 b5 3c 09 c1 cf 3d
       -0.088906415 -0.036070284 0.022174943 0.101442404
000300 5a 89 5d bd 72 71 d3 bd 8f eb c0 3d 36 8c fb 3d
       -0.054086067 -0.10324372 0.09419929 0.122826025
000310 dc 80 f1 bd dc 04 09 3d 69 59 d1 3d 7c f0 b9 bd
       -0.11792156 0.0334519 0.10222132 -0.09079072

lstm.bias_hh_l1 f4 [200]
000000 60 02 ce 3d 72 81 70 3d cb bd f9 bd 39 30 1f 3b
       0.10059047 0.0587172 -0.12194403 0.0024290218
000010 e2 2f 0c 3e cc 45 b6 bd d6 d2 60 bd dc b8 3a bd
       0.13690141 -0.089000314 -0.05488857 -0.045586452
000020 69 a0 1b be 0f 61 53 bd c9 ff 7c 3c 65 54 02 be
       -0.1519791 -0.051606234 0.015441843 -0.12727506
000030 7a d0 3d 3d 5f 62 6a bd cc 79 85 3d c8 55 47 3d
       0.046341397 -0.05722272 0.065173715 0.04866579
000040 04 bf d2 3d 77 bd 04 3d 2e 64 fa 3c 45 3f 9a 3c
       0.102903396 0.03240725 0.030565348 0.018828997
000050 2f 1d 81 bd 16 a4 89 bd 00 61 ce bd 0b 54 6b bc
       -0.063043945 -0.0672075 -0.10077095 -0.014363299
000060 53 7f 0b be 05 f6 0d 3e a0 a6 e7 3d 15 d1 ad bc
       -0.13622789 0.1386338 0.11311078 -0.021217862
000070 66 ba 94 3d fb 78 1e 3d e0 53 10 be a3 b6 fb 3d
       0.07262115 0.038689595 -0.14094496 0.122906946
000080 ee 10 c1 bd 6f 06 07 be 86 39 ab 3d d9 75 03 bd
       -0.09427057 -0.13186048 0.08360581 -0.03209481
000090 c5 34 b1 bc b0 13 af bd 2d e7 e2 bd 6d cf b9 bd
       -0.021631608 -0.08548677 -0.110792495 -0.090727665
0000a0 a6 69 6c bd ae ee 05 3e fa ca a0 bd 9b 53 49 bc
       -0.05771794 0.1307933 -0.07851215 -0.0122879995
0000b0 a0 a3 ac bd 54 12 3f 3d b8 0d ec bd 60 2d 99 bd
       -0.084296465 0.04664834 -0.11526054 -0.07479358
0000c0 a4 25 d5 3d 84 26 0b bc 23 4a 05 3e 07 3e ac bd
       0.1040757 -0.00849307 0.13016562 -0.08410268
0000d0 0f cb 10 be d2 40 e6 bd 05 32 6d 3b 02 34 3d bb
       -0.1413996 -0.11242832 0.0036193144 -0.002887011
0000e0 27 cc f0 bc 1b 56 0e 3e b7 89 07 be 76 f0 ba 3b
       -0.029394222 0.13900034 -0.13236128 0.0057049347
0000f0 55 0c 9a bd 37 86 e4 3c 25 c2 23 bc 47 6c ea 3d
       -0.075218834 0.02789603 -0.009995018 0.114464335
000100 99 52 a6 bd 22 57 91 3c f3 35 1d be e8 2d a4 3d
       -0.08121223 0.017741743 -0.15352611 0.080165684
000110 f0 16 7a 3c 6b 20 d6 3d e9 1f b5 3d 43 0b aa 3c
       0.015264258 0.10455402 0.08843977 0.020757323
000120 54 95 7c bd 9f 34 9d bd 4c 1d fe bd a6 28 06 be
       -0.061665848 -0.07676052 -0.12407932 -0.13101444
000130 77 9d 1a 3d ae e2 01 3d c6 c0 ae 3c a4 52 09 3e
       0.037747826 0.03171032 0.021332156 0.13410431
000140 96 fb cf 3c 31 39 6c bd f0 18 a3 bd ad 42 83 3c
       0.02538852 -0.05767173 -0.07963741 0.016023004
000150 54 8d 45 3d b8 f9 a4 bd 83 5f e5 bd ee f2 bd bc
       0.048230484 -0.080554426 -0.11199858 -0.023187127
000160 17 fa 08 be f1 04 eb bc 9c 8e d5 bd 71 57 f8 3b
       -0.13376652 -0.02868888 -0.10427591 0.007578783
000170 be cd 00 be 57 ec 9b bc 42 4a 0b 3d dc d3 18 3e
       -0.12578484 -0.019033594 0.034006365 0.14924568
000180 f7 2b cb 3d a9 92 cb 3d 94 2e 9e 3d f5 19 61 bd
       0.09920495 0.099400826 0.07723728 -0.054956395
000190 3b d8 93 bd 70 f8 70 3d e1 86 92 bd bb 32 ab 3d
       -0.07218977 0.05883068 -0.07154632 0.083592854
0001a0 2d 3d 50 bd fa b4 bf bd 55 6d 81 3d b8 e4 0a 3e
       -0.05083959 -0.093606904 0.063196816 0.13563812
0001b0 57 0f 9a bd fe 4c a0 3a 48 c0 6b bd 3b c8 84 3d
       -0.07522457 0.0012229977 -0.05755642 0.064835034
0001c0 34 c4 c7 3c 8f c7 00 be 5b 88 c9 bb 4e 22 75 bd
       0.02438555 -0.12576126 -0.006150288 -0.05984717
0001d0 79 14 a0 bd 88 80 e0 bd 2d 4a bc bd 41 d6 bd bd
       -0.07816405 -0.109620154 -0.091938354 -0.09269381
0001e0 5f 7c 86 3d 30 2a 59 bd fa 93 d0 bd bc e7 1f 3d
       0.06566691 -0.05301875 -0.10184474 0.03903936
0001f0 1c 00 51 bd 56 1f bb bd 65 1f 04 be c1 76 7b 3d
       -0.051025495 -0.09136836 -0.12902601 0.06139255
000200 eb 84 34 3d d8 c6 29 3d 06 91 4d bc 1b d7 db bd
       0.044072073 0.041449398 -0.012546783 -0.107343875
000210 71 89 94 bd bc b0 e7 3c e1 65 ef bd c9 71 13 be
       -0.07252777 0.028282516 -0.11689354 -0.14398874
000220 0b 3f fc 3d c7 7a 8a 3d e2 0d d1 3d 06 ec a4 bd
       0.12316712 0.06761699 0.10207726 -0.080528304
000230 ee bc 0c be d1 da a0 bb 78 5c e3 bd 6a 13 22 3d
       -0.13743946 -0.0049088974 -0.111016214 0.039569296
000240 69 82 d5 3d d4 e2 e4 3d 9d e7 87 3d c1 0a c8 bc
       0.104252644 0.111760765 0.066359736 -0.02441919
000250 6d 9e be 3d 2d a0 fa 3d 31 ff 5e bd 63 1b 6e 3d
       0.09307561 0.12237582 -0.05444259 0.058131587
000260 51 5c d4 3c a4 cb 95 3d 2b 39 aa 3d ea 07 c7 3d
       0.025922926 0.07314232 0.08311685 0.09718306
000270 98 46 c7 bd d5 03 c5 3d a2 ba 89 bd f6 bd ef bd
       -0.097302616 0.096198715 -0.067250505 -0.11706154
000280 65 74 7f bc d4 ab 3e 3d f7 37 d0 bb 99 28 97 3a
       -0.015591715 0.046550587 -0.006354328 0.0011532485
000290 c9 5a f1 bd 6b 80 a4 bd e1 01 ff 3c 3b a4 f8 bb
       -0.11784894 -0.08032306 0.031128826 -0.007587937
0002a0 8b 93 86 3a 32 fe 76 3d cc bc d5 bd 32 89 dc 3d
       0.001026736 0.060301013 -0.10436401 0.107683554
0002b0 ec fe b6 3d de d6 02 3e 92 17 14 be 6c af a5 3c
       0.08935341 0.12777278 -0.14462116 0.02022525
0002c0 96 eb a8 3d 24 79 dd 3c 78 a4 32 3d 3f ad a9 3d
       0.082480595 0.027035303 0.04361388 0.08284997
0002d0 42 6e c6 3d 82 2a 98 bd ec 81 03 be 13 94 a8 3d
       0.09688999 -0.07429983 -0.1284253 0.08231368
0002e0 bc 07 03 3e 74 39 ef bc 44 f3 dc bd 38 f1 db 3d
       0.12795919 -0.0292022 -0.10788587 0.10739368
0002f0 c1 76 66 3d ad 4e da 3d 15 b0 a0 bd 83 f7 b0 3d
       0.056265596 0.106595375 -0.07846085 0.08640959
000300 ce 9c 16 3d 48 6a 01 3e 91 1a 91 3b c4 27 24 3d
       0.036770634 0.126382 0.004428216 0.040076986
000310 9b c0 7c bd 26 f2 03 be 63 b4 78 3d 94 45 b4 3d
       -0.06170712 -0.12885341 0.060718905 0.088023335
