src/model_weights.pth (torch, 131013 bytes, 10 tensors)

lstm.weight_ih_l0 f4 [200, 6]
0	0xbd63ced1	-0.055617157
1	0xbe19f9ef	-0.15036748
2	0x3c800e9d	0.015631968
3	0xbc85f60a	-0.016352672
4	0xbdb11193	-0.0864593
5	0xbdd95a84	-0.106129676
6	0xbdd6a20c	-0.10480127
7	0xbde62cfc	-0.11239049
8	0xbdb13e35	-0.08654443
9	0xbd733438	-0.05937597
10	0x3d0e05a1	0.034673337
11	0x3daaf2c1	0.08347083
12	0x3d87f4da	0.066384986
13	0xbdc4d282	-0.09610464
14	0x3d9cc03f	0.076538555
15	0xbc996e87	-0.018729461
16	0xbd93c91b	-0.07216092
17	0x3d392377	0.045199838
18	0x3d90f488	0.07077891
19	0x3c6a4fbd	0.014301238
20	0xbe21582f	-0.15756296
21	0xbd233025	-0.039840836
22	0x3df7cd3a	0.12099691
23	0xbd197dcd	-0.03747349
24	0xbe0cbed4	-0.1374467
25	0x3e165778	0.14681804
26	0xbddc747a	-0.10764404
27	0xbcbe717b	-0.023247471
28	0xbe2057bc	-0.15658468
29	0xbc004e2f	-0.00783114
30	0x3d64c106	0.055848144
31	0x3e0ebe89	0.13939871
32	0x3dd7358e	0.105082616
33	0xbc82b34f	-0.015954642
34	0x3dd19109	0.102327414
35	0x3dd3f210	0.10348904
36	0x3d86bf23	0.06579425
37	0xbd810386	-0.062995
38	0x3d964ee8	0.07339269
39	0x3e0b74bb	0.13618748
40	0x3a42f970	0.0007437682
41	0xbd121ed4	-0.03567393
42	0xbcf16a3a	-0.029469598
43	0xbe131cd7	-0.1436647
44	0x3df90161	0.12158466
45	0x3e31cc82	0.1736317
46	0xbdc3033c	-0.09522101
47	0x3e1b8882	0.15188792
48	0x3d957481	0.07297612
49	0xbe098aac	-0.13431805
50	0x3e1c25d6	0.15248808
51	0x3e1b57db	0.15170233
52	0xbe0c4c99	-0.13701095
53	0xbe073f7a	-0.13207808
54	0x3d668890	0.05628258
55	0xbdd74def	-0.105129115
56	0xbdb88b09	-0.09010894
57	0xbde64b6a	-0.11244853
58	0xbd65df2d	-0.05612104
59	0x3e28417e	0.16431233
60	0xbe27bb01	-0.1637993
61	0xbe0cfaa0	-0.13767481
62	0xbceb4087	-0.028717292
63	0x3e29b326	0.16572246
64	0xbe29cd6a	-0.16582265
65	0x3d8ac4f5	0.06775848
66	0xbdb25f75	-0.08709613
67	0xbde2947a	-0.11063476
68	0x3d6ef345	0.05833747
69	0xbdc42485	-0.09577278
70	0xbdf7cd2f	-0.120996825
71	0xbc153c88	-0.00910867
72	0xbdae8218	-0.08520907
73	0x3e00a18a	0.12561622
74	0xbb96a4d3	-0.0045972853
75	0x3d8cbc7f	0.0687189
76	0xbdfcebae	-0.1234964
77	0xbd895c01	-0.067070015
78	0xbcd992f6	-0.026559334
79	0x3dcbc484	0.09949592
80	0x3d82ed7f	0.06392955
81	0x3e02ff74	0.1279276
82	0x3cc337d5	0.023830334
83	0x3cf76e3d	0.030203933
84	0x3e06e9e8	0.13175166
85	0xbb56aab9	-0.0032755567
86	0x3e145971	0.14487244
87	0x3b922ee2	0.0044611553
88	0xbd7e4735	-0.062079627
89	0xbe077205	-0.13227089
90	0xbd204fc5	-0.039138574
91	0x3d2f42a9	0.04278818
92	0xbe0c11ed	-0.13678713
93	0x3e0cb242	0.13739875
94	0x3d124ad9	0.03571591
95	0x3d080958	0.033212036
96	0x3d99787e	0.07493685
97	0x3e344d92	0.17607716
98	0x3dafca67	0.08583527
99	0xbcaa49cd	-0.020787144
100	0xbe170ea0	-0.14751673
101	0x3defd42d	0.11710391
102	0xbccf1728	-0.025279596
103	0xbde672fa	-0.11252399
104	0xbe0e1642	-0.13875678
105	0x3d584c3f	0.05280709
106	0x3e1850e8	0.14874613
107	0xbdf34248	-0.118778765
108	0x3da077ca	0.07835348
109	0xbdf85056	-0.12124698
110	0x3df7885e	0.12086557
111	0x3d260d43	0.04053999
112	0xbdea7920	-0.11448884
113	0x3d2e98ce	0.042626195
114	0xbc4c4645	-0.012467925
115	0x3e0dd80a	0.13851944
116	0x3db03ef0	0.086057544
117	0x3e290173	0.16504459
118	0x3dd2e54e	0.10297643
119	0x3e13f0d4	0.14447337
120	0xbdfba4e9	-0.122873135
121	0xbe221772	-0.15829256
122	0xbdd46b9d	-0.10372088
123	0xbc3e6c7f	-0.011622547
124	0xbc44eba3	-0.012019071
125	0xbe11a64c	-0.14223593
126	0x3dfb3e62	0.12267758
127	0xbd24f93a	-0.040276743
128	0xbe1dde58	-0.15416849
129	0x3d5e28d1	0.054238144
130	0xbd7c7a77	-0.06164023
131	0xbe2628ff	-0.16226576
132	0x3de4b7f2	0.11167897
133	0xbd85d39b	-0.06534501
134	0xbc2baad5	-0.010477741
135	0x3e00abd1	0.12565543
136	0xb816df87	-3.5970963e-05
137	0x3de5ce99	0.11221046
138	0xbcc4bd14	-0.02401594
139	0xbc4ae8c8	-0.012384601
140	0xbe182313	-0.1485713
141	0xbccbe107	-0.024887575
142	0xbe01ccda	-0.12675801
143	0x3d8fa815	0.07014481
144	0xbdccf5ff	-0.100078575
145	0x3dcad154	0.099032074
146	0xbd8311cc	-0.06399879
147	0x3b49b1c8	0.0030776132
148	0xbdb57637	-0.08860438
149	0x3d38c1b9	0.045106623
150	0x3e27dd8c	0.16393107
151	0x3b7ee3c7	0.003889309
152	0xbd9c0301	-0.076177604
153	0xbe055d6c	-0.13023919
154	0xbdb065fe	-0.086132035
155	0xbd868da5	-0.06569985
156	0x3cc7388f	0.024318961
157	0x3d7bcb3e	0.061473124
158	0xbddf8127	-0.10913306
159	0x3e2b4306	0.16724786
160	0x3dbc414c	0.09192142
161	0xbd42ce4b	-0.047560018
162	0x3a82dd94	0.0009984248
163	0xbdd04d2f	-0.101709716
164	0x3ca62e40	0.020285726
165	0x3d37967a	0.04482124
166	0xbd707578	-0.058705777
167	0x3d90612f	0.07049786
168	0x3c970798	0.018436238
169	0x3d06d72b	0.032920044
170	0xbe15c130	-0.14624476
171	0xbe280f9a	-0.16412202
172	0xbe26522f	-0.16242288
173	0x3d25aa71	0.04044575
174	0x3d8c8d1c	0.06862852
175	0xbdd696a5	-0.10477952
176	0xbe1716de	-0.14754817
177	0xbe27314a	-0.16327396
178	0x3e1ac0d5	0.15112622
179	0xbd364cf7	-0.044506993
180	0xbbc7b64d	-0.00609473
181	0x3d374c89	0.044750724
182	0x3ceee2cb	0.029160878
183	0x3cc520d0	0.024063498
184	0xbc007df0	-0.007842526
185	0x3dbd3df1	0.0924033
186	0x3e210915	0.15726121
187	0xbbf5f82b	-0.0075063906
188	0x3cf14329	0.02945097
189	0x3d9002d4	0.070317894
190	0x3dfc1e7d	0.12310503
191	0xbe104db8	-0.14092147
192	0x3d3e8b0a	0.046519317
193	0x3d5c8ae0	0.05384338
194	0xbb76d5f3	-0.0037664145
195	0x3e1b67b4	0.15176278
196	0xbd21e7a1	-0.03952754
197	0xbba7ded2	-0.005122998
198	0xbe0dc76b	-0.13845603
199	0x3e0a314f	0.13495372
200	0x3d393044	0.045212045
201	0xbb6c8a0e	-0.003609303
202	0xbdecca4f	-0.11562025
203	0x3ccf3914	0.025295772
204	0xbd69e5d5	-0.05710395
205	0xbdafa437	-0.08576243
206	0x3cb0c05a	0.021576095
207	0xbc072eb0	-0.008250877
208	0xbdd68952	-0.104754105
209	0xbe24b0e8	-0.1608311
210	0x3d76db95	0.060268003
211	0x3cda9746	0.02668346
212	0x3d7170c0	0.058945417
213	0x3e13ba52	0.14426544
214	0x3e04d941	0.12973501
215	0xbe01cef6	-0.12676606
216	0x3dd68d43	0.10476162
217	0x3d69213f	0.05691647
218	0xbd52fbe7	-0.051509764
219	0x3c47d5cf	0.012196972
220	0x3e0565aa	0.13027063
221	0xbe28c4ac	-0.16481274
222	0x3e300a96	0.17191538
223	0xbda3ae79	-0.079922624
224	0xbca5a5ae	-0.020220604
225	0xbd8baca6	-0.068200395
226	0xbde0a0eb	-0.10968193
227	0xbce70d4a	-0.028204579
228	0xbdab61ee	-0.08368288
229	0x3d004314	0.03131397
230	0x3de846be	0.11341618
231	0xbd1e439c	-0.038638696
232	0xbe14b857	-0.14523445
233	0xbd9406d6	-0.07227866
234	0x3dd36dd7	0.10323685
235	0xbde5c26c	-0.11218724
236	0xbdee7cf2	-0.11644925
237	0xbdc5b826	-0.09654264
238	0x3e1644b6	0.14674649
239	0xbe173d2f	-0.14769433
240	0x3d1eea97	0.03879794
241	0x3d7084a4	0.058720246
242	0x3dd63f35	0.104612745
243	0x3e1ff251	0.1561978
244	0xbe13129e	-0.1436257
245	0xbde484a1	-0.111581095
246	0x3dad63c7	0.08466297
247	0xbdea8a5f	-0.114521734
248	0xbd39763a	-0.045278765
249	0x3e31708d	0.17328091
250	0xbdd8c77d	-0.10584924
251	0x3e01d887	0.12680255
252	0x3d90ea9f	0.070760004
253	0x3cd702d2	0.026246462
254	0x3dfa56f1	0.12223614
255	0x3cc327fd	0.023822779

lstm.weight_hh_l0 f4 [200, 50]
0	0x3cf207ae	0.029544678
1	0xbd250a4c	-0.040293023
2	0x3dee4334	0.11633912
3	0xbe19c40d	-0.15016194
4	0x3ddec7a8	0.10877925
5	0xbd259cdc	-0.040432796
6	0xbd94bfb8	-0.0726313
7	0x3cc278a0	0.02373916
8	0x3e13d752	0.14437607
9	0x3c256b54	0.01009639
10	0x3d0111bb	0.03151105
11	0xbe057dc4	-0.13036257
12	0xbdfb2cf2	-0.12264432
13	0xbddee205	-0.108829536
14	0x3d1d2202	0.03836251
15	0xbc45b070	-0.012065992
16	0x3d6ab315	0.057299692
17	0xbbb4492a	-0.005501886
18	0xbe162808	-0.14663708
19	0x3e07c1f5	0.13257582
20	0x3e0dfb55	0.13865407
21	0x3e011503	0.12605672
22	0xbdf1d895	-0.11808888
23	0xbdf947bb	-0.121718846
24	0x3c1138c9	0.008863636
25	0xbdfa6102	-0.12225534
26	0x3c802643	0.015643245
27	0x3dbc3a30	0.09190786
28	0xbe00cb7a	-0.1257762
29	0x3d5ce242	0.053926714
30	0xbe094636	-0.1340569
31	0xbcd530d6	-0.026024263
32	0x3e08afbf	0.13348292
33	0xbd2fc35e	-0.042910926
34	0x3e08822a	0.13330904
35	0x3d9ec314	0.07752052
36	0xbdb12216	-0.086490795
37	0xbdccac97	-0.099938564
38	0x3dda2222	0.106510416
39	0x3cdf18c6	0.027233493
40	0x3d77f33d	0.060534704
41	0xbbb89f0b	-0.005634194
42	0xbe017e54	-0.12645847
43	0x3de30426	0.110847756
44	0x3d4e9f2e	0.050444774
45	0x3d8829a8	0.0664857
46	0xbd27951d	-0.04091369
47	0x3e14b78b	0.14523141
48	0xbe0ce4d3	-0.13759165
49	0x3c922f07	0.01784469
50	0xbcf5237c	-0.029924147
51	0x3cc35480	0.023844004
52	0x3dfeb106	0.12436108
53	0x3d8287af	0.06373536
54	0x3d008b7d	0.031383026
55	0xbe00eb98	-0.12589872
56	0xbda3be27	-0.07995253
57	0x3dfa43a7	0.12219935
58	0xbe04aef6	-0.12957367
59	0xbe1868cc	-0.14883727
60	0xbcdf4edb	-0.02725928
61	0x3e03512a	0.1282393
62	0x3d7dcfa5	0.061965603
63	0x3dfa3a41	0.12218142
64	0xbd30f0e7	-0.043198492
65	0x3dfe2ea1	0.124112375
66	0x3cb903e1	0.022584857
67	0xbdf29b94	-0.118460804
68	0x3d771db1	0.06033105
69	0xbd3e8b87	-0.046519782
70	0x3d5536fd	0.052054394
71	0x3beab37b	0.007162509
72	0xbd2e9b69	-0.04262868
73	0x3d81eeac	0.06344351
74	0x3bb7601f	0.0055961753
75	0x3d548c1d	0.051891435
76	0xbdc299dd	-0.09502003
77	0xbbd142a1	-0.0063861166
78	0xbe120323	-0.14259009
79	0xbe058709	-0.13039793
80	0xbca164a2	-0.019701306
81	0x3da19ee9	0.07891638
82	0x3cda2d05	0.026632795
83	0xbe1b3a72	-0.15159014
84	0xbde2d796	-0.11076276
85	0xbe1f1129	-0.1553389
86	0xbde17cc2	-0.11010124
87	0x3d94b1c7	0.07260471
88	0xbd65bf85	-0.05609085
89	0x3c913ffb	0.017730704
90	0xbe0ede83	-0.13952069
91	0x3e1bb238	0.15204704
92	0x3d9ec03b	0.07751509
93	0x3d1e4985	0.038644332
94	0x3d927e1c	0.0715296
95	0xbe03b493	-0.12861852
96	0x3e0c3076	0.13690361
97	0x36c7538a	5.9403874e-06
98	0x3dd6c71a	0.10487194
99	0x3df5fc51	0.12011016
100	0x3e16d939	0.14731301
101	0xbd5c9f3e	-0.053862803
102	0x3d30bb20	0.043147206
103	0xbe12c119	-0.14331473
104	0xbdaa433b	-0.083136044
105	0xbdfba3d3	-0.12287106
106	0x3df91184	0.12161544
107	0xbc9a63b8	-0.018846378
108	0xbd8dd858	-0.0692603
109	0x3c9fbe48	0.019499913
110	0xbe1289e5	-0.14310415
111	0x3cc2b8f9	0.023769842
112	0x3e118f39	0.14214791
113	0x3b221fa1	0.002473809
114	0x3c94d3ca	0.018167395
115	0xbdb5f21d	-0.0888407
116	0xbdf3449f	-0.11878323
117	0xbb137f08	-0.0022506136
118	0xbd8e9e18	-0.06963748
119	0x3dd96de7	0.10616665
120	0xbd4b4f1f	-0.049636003
121	0xbc5b5b6e	-0.013388498
122	0x3bde0b29	0.0067762327
123	0xbe031b94	-0.12803489
124	0x3d5ff781	0.054679397
125	0xbd724e8b	-0.059156936
126	0xbe0f8a00	-0.14017487
127	0xbdac8d8e	-0.08425437
128	0xbce2b961	-0.027676286
129	0x3dd17809	0.10227973
130	0x3d4fc7c7	0.050727632
131	0xbe16f069	-0.14740147
132	0x3dce77e3	0.1008146
133	0xbe0a1fee	-0.13488743
134	0xbd5a436e	-0.053286962
135	0xbe192b17	-0.14957844
136	0x3dc84455	0.09778658
137	0xbca29272	-0.019845221
138	0xbde71853	-0.11283936
139	0xbd31c0fc	-0.043396935
140	0x3d442b20	0.04789269
141	0x3c9acd58	0.018896744
142	0x3d863e64	0.06554869
143	0xbe19f0c9	-0.15033258
144	0x3dd16a43	0.10225346
145	0x3d8d4144	0.06897214
146	0xbd4f495f	-0.05060708
147	0xbd75bedf	-0.059996482
148	0xbc4ef693	-0.01263203
149	0xbdb91d06	-0.09038739
150	0x3dfa015c	0.122072905
151	0x3da22e38	0.07918972
152	0x3bba42a5	0.005684214
153	0xbbb7fd8f	-0.0056149433
154	0xbe1fc385	-0.15601929
155	0x3dfb2952	0.122637406
156	0x3e044891	0.12918307
157	0xbe080e5b	-0.13286726
158	0x3da14b1a	0.078756526
159	0xbc94f0d3	-0.01818124
160	0x3cd2de98	0.025740907
161	0xbd709f59	-0.058745716
162	0x3e148b8c	0.14506358
163	0xbd7b796c	-0.061395094
164	0x3e137bae	0.14402649
165	0xbdcdc0c1	-0.100465305
166	0xbd20aeed	-0.039229322
167	0x3c9b9a44	0.018994458
168	0x3d07b19b	0.033128362
169	0xbcee351d	-0.02907806
170	0x3da490eb	0.080354534
171	0x3db527c8	0.08845478
172	0x3e1bd9f3	0.1521986
173	0xbdef868d	-0.116955854
174	0xbd64903e	-0.055801623
175	0x3aaf3571	0.0013367367
176	0x3db509d3	0.088397644
177	0x3db62907	0.08894544
178	0xbddad28f	-0.10684692
179	0xbdb40f48	-0.08791977
180	0xbe1e5f46	-0.15466031
181	0xbcb5d7d0	-0.022197634
182	0x3db846ca	0.08997877
183	0x3db109bd	0.086444356
184	0x3dc00b99	0.09377212
185	0x3df52453	0.11969819
186	0x3d0a7e41	0.03381181
187	0xbdf56734	-0.11982575
188	0xbb1239d1	-0.0022312293
189	0x3e0b91c4	0.13629824
190	0x3db91e6a	0.09039004
191	0x3de71a8a	0.11284359
192	0xbc84e29d	-0.016221339
193	0x3d84c0f6	0.06482117
194	0xbd90a374	-0.07062426
195	0xbd6bb982	-0.05754996
196	0xbd457e61	-0.048216227
197	0xbdbd2d82	-0.092371956
198	0x3d2299d7	0.039697494
199	0x3d8ec37b	0.06970879
200	0x3d0986a0	0.033575654
201	0xbdad548e	-0.08463393
202	0xbe1a6be5	-0.15080221
203	0xbe11fa3b	-0.14255612
204	0x3c89aa95	0.016804973
205	0xbca82196	-0.020523828
206	0x3dc701b4	0.09717122
207	0x3d08b4c4	0.033375517
208	0x3d5a9053	0.053360295
209	0x3dc920b4	0.09820691
210	0x3ce92e5c	0.028464489
211	0x3e199044	0.14996439
212	0x3e10b877	0.14132868
213	0x3dac89fb	0.08424755
214	0x3e04a58a	0.12953773
215	0x3dcbbecb	0.099485
216	0x3d0f422a	0.03497521
217	0xbdb58680	-0.088635445
218	0x3ce14d70	0.027502745
219	0xbe06fe03	-0.13182835
220	0x3d9bdfe0	0.0761106
221	0xbca334f2	-0.019922707
222	0xbd37e7c2	-0.044898756
223	0x3df3c471	0.119027026
224	0xbdc8c1ca	-0.09802587
225	0xbcb9b2f8	-0.022668347
226	0x3cf7457e	0.030184504
227	0x3df174d6	0.11789863
228	0xbdc37a3d	-0.095447995
229	0x3ce0c640	0.027438283
230	0x3d21cebf	0.03950381
231	0x3d880622	0.06641795
232	0xbdb1c2ef	-0.08679759
233	0x3e2654f2	0.16243342
234	0xbdfd20b5	-0.12359754
235	0x3e1133e6	0.14179954
236	0xbb1147f9	-0.0022168143
237	0x3db0ef79	0.08639426
238	0x3d0a1eac	0.033720657
239	0x3dafb4a8	0.08579379
240	0x3d861e8f	0.06548797
241	0xbcf93a81	-0.030423405
242	0xbcea5e41	-0.028609397
243	0xbda07985	-0.07835678
244	0x3e157cd2	0.14598396
245	0xbd98a5a6	-0.0745347
246	0xbce19633	-0.02753744
247	0xbdb8f123	-0.09030368
248	0x3da0ac7f	0.07845401
249	0x3d040975	0.03223558
250	0x3d096656	0.03354486
251	0x3d555ac9	0.052088533
252	0x3ccaf551	0.02477518
253	0x3c5feed5	0.013667782
254	0x3e0df55a	0.13863125
255	0xbe22a09a	-0.15881577

lstm.bias_ih_l0 f4 [200]
0	0x3dbcaefc	0.09213063
1	0x3caf3eea	0.021392304
2	0x3ca717e3	0.020397132
3	0x3e0f4584	0.13991362
4	0xbcc55053	-0.024086153
5	0xbc7e1f75	-0.01551043
6	0x3dd1d793	0.10246196
7	0x3d456c80	0.048199177
8	0xbdd535bb	-0.10410639
9	0x3cacc164	0.02108831
10	0x3dfb8dd9	0.12282915
11	0xbd808ea0	-0.062772036
12	0xbc867c4a	-0.016416688
13	0x3def1ce4	0.11675432
14	0xbd9e975f	-0.077437155
15	0x3d6bf893	0.057610106
16	0x3d8e8678	0.06959242
17	0x3db3aae8	0.08772832
18	0x3d0e318c	0.03471522
19	0x3d118ed6	0.03553661
20	0xbb045d13	-0.0020197078
21	0xbd30f842	-0.043205507
22	0x3d968f82	0.07351591
23	0xbdbe058b	-0.09278401
24	0x3da84f1b	0.08218213
25	0x3afe498f	0.0019400584
26	0x3da277fc	0.079330415
27	0x3b033c18	0.0020024832
28	0xbdf87551	-0.12131751
29	0x3e11357d	0.1418056
30	0xba4a11cf	-0.0007708342
31	0x3ce5d61f	0.028056202
32	0xbdef7438	-0.11692089
33	0xbcd0c077	-0.0254824
34	0x3c2ec984	0.010668162
35	0x3d60226d	0.05472033
36	0x3db0e1d8	0.08636826
37	0x3e079e96	0.1324409
38	0x3bcb72a9	0.006208737
39	0xbcd38f1a	-0.025825072
40	0x3df7e133	0.121035
41	0x3dcc194d	0.09965763
42	0xbd93a5d7	-0.07209366
43	0x3e0ddd18	0.13853872
44	0x3d6ff250	0.058580697
45	0x3dc770f2	0.097383395
46	0x3b5b0d24	0.003342458
47	0xbd711cc8	-0.05886534
48	0xbdd33f63	-0.103148244
49	0xbd99b499	-0.075051494
50	0xbd82cf73	-0.06387224
51	0x3d79a9c2	0.06095291
52	0xbdc1c034	-0.09460488
53	0x3e135db9	0.14391221
54	0x3e027b60	0.12742376
55	0x3e0fdcbf	0.14049052
56	0x3cd3a66e	0.025836196
57	0xbcefdac2	-0.029279117
58	0xb884a1fe	-6.324424e-05
59	0x3da2c949	0.07948548
60	0xbded4442	-0.11585285
61	0x3ce6bae5	0.02816529
62	0xbd8ffb04	-0.07030299
63	0xbdab4889	-0.08363444
64	0x3deb0821	0.1147616
65	0xbd998a45	-0.07497076
66	0x3c1b93ff	0.009495734
67	0x3dec5b9f	0.11540913
68	0xbdc0c870	-0.094132304
69	0x3d958a1c	0.07301733
70	0xbd8bc1aa	-0.06824048
71	0x3d182b39	0.037150595
72	0x3db83b95	0.08995739
73	0x3e0af534	0.135701
74	0xbdbf5fb9	-0.093444295
75	0xbd254267	-0.04034653
76	0xbdd9a10e	-0.10626422
77	0xbdc1da44	-0.09465459
78	0xbd96bf5e	-0.07360719
79	0xbd8c106d	-0.068390705
80	0x3c27ca66	0.010241127
81	0xbc5fb13c	-0.013653096
82	0xbdaacb96	-0.08339612
83	0xbdb8dbbd	-0.09026287
84	0x3d828644	0.063732654
85	0x3d8ff547	0.07029205
86	0x3de2fb2b	0.11083063
87	0xbe04de76	-0.12975487
88	0xbda8004a	-0.0820318
89	0xbd1672bc	-0.036730513
90	0x3d5e4952	0.054269142
91	0x3d9afd22	0.075678125
92	0xbd5b3f6e	-0.05352729
93	0xbd2500b4	-0.040283874
94	0x3e0742a8	0.13209021
95	0xbdeacf01	-0.11465264
96	0x3d9cfb07	0.07665067
97	0xbdeca7af	-0.115554206
98	0x3d995e22	0.074886575
99	0xbd2fa774	-0.042884305
100	0xbe019f3e	-0.12658402
101	0xbdc72174	-0.097231776
102	0xbd4b1376	-0.049579106
103	0xbd714e0b	-0.05891232
104	0xbdb9fecc	-0.09081802
105	0x3c16eb2d	0.009211344
106	0xbd294eba	-0.041334845
107	0xbd7570c1	-0.059921984
108	0xbdc14b4b	-0.09438189
109	0x3d98cfb1	0.07461489
110	0x3d846c73	0.064659975
111	0x3d847384	0.06467345
112	0x3d049e52	0.03237755
113	0xbdbd86f3	-0.09254255
114	0x3e1bb8ad	0.15207167
115	0xbbbe0452	-0.005798855
116	0x3dbcf41a	0.09226246
117	0xbd84419f	-0.06457829
118	0xbd1fc67d	-0.039007653
119	0x3d8305d2	0.063975945
120	0xbe142718	-0.14468038
121	0xbe0bda48	-0.13657486
122	0x3dd62e60	0.10458064
123	0xbb7c04ab	-0.003845493
124	0xbdcf96be	-0.10136174
125	0xbe096408	-0.13417065
126	0x3da17ea9	0.07885487
127	0x3dbc710a	0.09201248
128	0x3d731d9f	0.05935442
129	0x3cd1942b	0.025583347
130	0xbcb87726	-0.022517752
131	0x3dd4e0c6	0.10394435
132	0xbe193f23	-0.14965491
133	0xbd5aeda2	-0.05344928
134	0x3e0f97b9	0.14022721
135	0x3e0cc6b9	0.13747682
136	0xbdffdc50	-0.12493193
137	0x3bc0b3b3	0.005880797
138	0xbb1b4222	-0.0023690541
139	0xbe1035c7	-0.14083014
140	0x3da45d31	0.08025587
141	0x3da2d738	0.07951206
142	0xbdcda30f	-0.100408666
143	0x3c05f605	0.008176331
144	0xbe14b7bc	-0.14523214
145	0x3e149ae0	0.14512205
146	0xbd0ad28e	-0.033892207
147	0x3ded06e6	0.115735814
148	0x3d35e7a0	0.044410348
149	0xbd06e094	-0.03292902
150	0x3d396059	0.0452579
151	0xbdb1bc54	-0.08678499
152	0xbdec4866	-0.115372464
153	0xbc89b1a7	-0.016808344
154	0xbc78a927	-0.015177048
155	0xbdced379	-0.10098929
156	0xbd532ccb	-0.05155639
157	0xbc444bd1	-0.011980967
158	0xbdd5aab4	-0.1043295
159	0x3dc4e4e5	0.09613971
160	0x3dbbc2fa	0.09168048
161	0xbd849acb	-0.06474837
162	0xbd28e143	-0.04123045
163	0x3e07d9b7	0.13266645
164	0xbdcc60c3	-0.09979393
165	0xbdabf3c6	-0.083961055
166	0x3dc4c88d	0.096085645
167	0x3d7a8bc6	0.061168455
168	0x3dc97b14	0.098379284
169	0xbdb5d40c	-0.08878335
170	0xbda6a6e4	-0.081373006
171	0xbd50b863	-0.050957095
172	0xbdfd08f6	-0.12355225
173	0xbdcbdcc0	-0.09954214
174	0x3d8b45bc	0.0680041
175	0x3dd608ee	0.10450922
176	0x3e123a6f	0.14280103
177	0xbd9b51b4	-0.07583943
178	0xbbcd39a9	-0.006262977
179	0xbc96ce3a	-0.018408883
180	0x3e007dc2	0.12547973
181	0x3d360695	0.04443987
182	0xbd8c0782	-0.068373695
183	0x3dc6f84d	0.09715328
184	0xbd8ffa0d	-0.07030115
185	0xbdf81a67	-0.12114411
186	0xbc498b7a	-0.01230132
187	0xbc880346	-0.016603123
188	0xbd1a106c	-0.037613317
189	0x3d971cbc	0.073785275
190	0xbda99b48	-0.08281571
191	0x3e16ddaa	0.14732996
192	0x3e08db3a	0.13364878
193	0xbd34c362	-0.044131644
194	0x3e000516	0.1250194
195	0xbdb23007	-0.08700567
196	0x3e0d7c80	0.13817024
197	0xbdbda67c	-0.0926027
198	0x3dc28a32	0.09499015
199	0xbdd07016	-0.10177629

lstm.bias_hh_l0 f4 [200]
0	0x3d3b3301	0.045702938
1	0xbe0ec846	-0.13943586
2	0x3ca62ce3	0.020285076
3	0xbd773c2f	-0.06036013
4	0xbd8c7da8	-0.068599045
5	0x3d7d4fa7	0.06184354
6	0xbd70b810	-0.058769286
7	0xbde34d5a	-0.11098738
8	0x3deab4c9	0.11460263
9	0xbe07cddf	-0.13262127
10	0xbc08fd87	-0.008361227
11	0xbdb3f565	-0.0878704
12	0x3d23d579	0.039998505
13	0xbd90e166	-0.07074241
14	0x3ca10bc9	0.01965894
15	0xbe0b8b2e	-0.13627312
16	0x3d16cf93	0.036819052
17	0xbd62e95e	-0.055398338
18	0x3ac4d916	0.001501831
19	0xbe007e74	-0.12548238
20	0x3e0737d6	0.13204893
21	0xbde8925f	-0.11356043
22	0x3d110ffe	0.035415642
23	0xbd3aa478	-0.045567006
24	0x3c264aeb	0.010149698
25	0x3d9bd307	0.0760861
26	0x3e152d1a	0.14567986
27	0xbca44196	-0.020050805
28	0xbdf983d4	-0.12183347
29	0xbd7468c9	-0.059670243
30	0xbce48949	-0.027897494
31	0x3d2db6e6	0.042410754
32	0x3e1709cc	0.14749831
33	0x3c9658c5	0.018352875
34	0xbdf377ca	-0.11888082
35	0xbc7fda77	-0.015616051
36	0xbdf4e8fb	-0.119585
37	0xbca68171	-0.020325394
38	0x3d53aa63	0.051676165
39	0x3d714017	0.05889901
40	0xbbd482d8	-0.0064853244
41	0x3de5fbe3	0.11229684
42	0x3cf037ec	0.02932354
43	0xbd807e43	-0.062740825
44	0x3ca86bca	0.02055921
45	0x3dbc0462	0.091805235
46	0x3e04b5dd	0.1296
47	0x3da8d59b	0.08243867
48	0xbda4fbb6	-0.080558226
49	0x3d375a4a	0.04476384
50	0x3dd73011	0.10507215
51	0xbddd18b7	-0.107957296
52	0xbc8ba27b	-0.01704525
53	0xbd9b31b4	-0.075778395
54	0x3da0423d	0.07825134
55	0xbde116d5	-0.10990683
56	0x3dc66d81	0.09688855
57	0x3bb82b77	0.005620416
58	0xbd860e3a	-0.06545682
59	0x3e090e26	0.13384303
60	0xbd724713	-0.059149813
61	0xbda9d6aa	-0.08292897
62	0xbe06d6c8	-0.1316787
63	0x3d5e58f4	0.05428405
64	0xbca7ee96	-0.020499509
65	0x3ddaeb1a	0.10689373
66	0xbd2994a2	-0.041401513
67	0x3b5a94d5	0.003335287
68	0x3d7824ce	0.060581975
69	0xbcaca394	-0.021074094
70	0x3e00a0c4	0.12561327
71	0x3d24e84a	0.04026059
72	0xbd8edb16	-0.06975381
73	0xbc6fcc44	-0.014636103
74	0x3b7785d6	0.0037768981
75	0x3d09acf9	0.033612225
76	0xbdd893ca	-0.105750635
77	0x3e1010ab	0.14068858
78	0x3b69330b	0.0035583402
79	0x3ddffb97	0.10936659
80	0x3d5912d6	0.05299648
81	0xbd9c9c87	-0.07647043
82	0x3b64b51a	0.0034897984
83	0x3bd6fc06	0.0065608053
84	0xbc9ead84	-0.019369848
85	0xbd43a368	-0.04776326
86	0x3d038e3b	0.032118063
87	0x3cb4cb52	0.022069607
88	0xbdcf0b80	-0.10109615
89	0xbd552228	-0.052034527
90	0xbba2aa27	-0.0049641314
91	0xbddf85c6	-0.10914187
92	0xbc87c8d6	-0.016575258
93	0x3dfd50c5	0.12368921
94	0x3cc56c02	0.024099354
95	0x3de346d7	0.11097496
96	0x3ce813d9	0.028329777
97	0x3d087fe1	0.03332508
98	0x3d15b7d9	0.036552284
99	0xbca30cf3	-0.019903636
100	0x3d530a4e	0.0515235
101	0xbd00d3ba	-0.03145192
102	0xbdf14a31	-0.11781729
103	0xbdd87293	-0.10568728
104	0xbd3fa85a	-0.046791412
105	0xbd7ad2e3	-0.061236273
106	0xbdced94e	-0.10100041
107	0x3d364ba0	0.044505715
108	0x3d860ab8	0.06545013
109	0x3d6eb4bd	0.058277834
110	0x3d4f56a0	0.05061972
111	0xbb4f9c80	-0.0031678975
112	0x3dc9089e	0.09816097
113	0xbbf9f342	-0.0076278755
114	0xbd71473b	-0.05890582
115	0x3d7aa0ad	0.06118839
116	0xb8094773	-3.2729888e-05
117	0x3dbaf156	0.091280624
118	0x3d180b7c	0.037120327
119	0x3de29a60	0.11064601
120	0xbd30f2a5	-0.043200154
121	0xbe1a72fd	-0.15082927
122	0x3c8fc397	0.01754932
123	0xbd7e7b17	-0.062129106
124	0x3df2e4af	0.11860024
125	0xbd96d5c6	-0.07364993
126	0x3dd66563	0.10468557
127	0x3c02e8cc	0.007990073
128	0xbd55f297	-0.052233305
129	0x3c92f7f3	0.017940497
130	0xbd901f91	-0.07037271
131	0x3d2cd664	0.042196646
132	0xbd3eccc5	-0.046582002
133	0xbde99a8b	-0.1140643
134	0x3dc37dce	0.0954548
135	0x3df16fc2	0.11788894
136	0xbd9bbc60	-0.07604289
137	0xbde80ea6	-0.11330919
138	0x3dfc9b66	0.123343274
139	0xbe0c238f	-0.1368544
140	0xbdb2b74f	-0.087263696
141	0x3d88f7e4	0.066879064
142	0xbd0b9c15	-0.0340844
143	0x3d06ad04	0.032879844
144	0x3dcd9164	0.10037497
145	0x3d89a4e0	0.067209005
146	0xbd580ceb	-0.052746695
147	0x3d261ca6	0.040554665
148	0xbe037f67	-0.12841569
149	0x3d43fb28	0.047846943
150	0x3a82d57f	0.000998184
151	0xbaf22fc7	-0.0018477374
152	0xbd28e7ac	-0.041236565
153	0x3c294ed9	0.01033374
154	0x3e0931b2	0.13397864
155	0x3c306782	0.010766866
156	0xbe0b4288	-0.13599598
157	0x3e0290dc	0.12750572
158	0xbdde2adc	-0.108480185
159	0x3deeb5cf	0.11655771
160	0xbe0c227e	-0.13685033
161	0xbdae5449	-0.0851217
162	0xba68cd41	-0.0008880683
163	0x3dfdc24e	0.12390576
164	0x3dc593cf	0.09647333
165	0x3b84032c	0.0040286984
166	0xbc54502d	-0.0129585685
167	0xbd39296a	-0.04520551
168	0x3a3ebbc9	0.0007275907
169	0x3cfd92f7	0.030953867
170	0x3c8b655c	0.017016105
171	0xbe011454	-0.12605411
172	0xbd238d47	-0.039929654
173	0xbdca75b4	-0.09885731
174	0xbd72b547	-0.05925491
175	0x3e089f2a	0.13341966
176	0x3e0a7e29	0.13524689
177	0xbda1c6ab	-0.07899221
178	0xbdc47668	-0.09592897
179	0xbdc57d35	-0.09643022
180	0xbdcb727e	-0.09933947
181	0x3cf830f9	0.03029679
182	0xbbddf6c0	-0.0067737997
183	0x3c4cfbe7	0.01251123
184	0x3cfa57ea	0.030559499
185	0xbdea7293	-0.114476345
186	0xbdf53bbd	-0.11974285
187	0x3d2a8603	0.04163171
188	0xbcbf4158	-0.023346588
189	0x3c55cadd	0.013048855
190	0x3be5d2ea	0.0070136683
191	0x3dd02f6c	0.10165295
192	0xbd0e6465	-0.034763712
193	0x3d3aef0c	0.04563813
194	0x3d804c38	0.062645376
195	0x3dafd6f1	0.08585919
196	0xbe05e2be	-0.13074777
197	0x3d97d2b1	0.07413233
198	0xbdec412e	-0.115358695
199	0x3e0ed7cb	0.13949506

lstm.weight_ih_l1 f4 [200, 50]
0	0x3da40cc2	0.08010246
1	0xbd2af94c	-0.041741654
2	0x3cc78d36	0.024359327
3	0xbc0bbac7	-0.008528418
4	0x3d9cdd75	0.07659427
5	0xbd08cabb	-0.033396464
6	0xbc99ed82	-0.01879001
7	0x3bc4bb31	0.0060037603
8	0x3d79a4f6	0.060948335
9	0xbe06fc52	-0.1318219
10	0x3e000e77	0.12505518
11	0x3e012b50	0.12614179
12	0x3e12423b	0.14283077
13	0x3c979330	0.018502802
14	0x3dd8c4ee	0.10584436
15	0x3be4eedd	0.0069864825
16	0xbd76d2bf	-0.060259577
17	0xbdda7d61	-0.106684454
18	0x3e19a7eb	0.15005462
19	0x3dcef079	0.1010446
20	0x3cd97597	0.026545329
21	0x3d23ca32	0.03998775
22	0x3d28f8d1	0.041252915
23	0xbd8e2b1b	-0.069418155
24	0x3c82097e	0.015873667
25	0xbc80e9fa	-0.015736569
26	0xbe010545	-0.12599666
27	0xbcbda2f3	-0.02314899
28	0x3e24cd03	0.16093831
29	0x3deb44eb	0.114877544
30	0x3e0d0a2e	0.13773414
31	0x3ca3608e	0.019943502
32	0x3d9ec405	0.077522315
33	0x3df97748	0.12180954
34	0x3e007f86	0.12548646
35	0x3d5ac861	0.053413752
36	0x3e06625d	0.1312346
37	0xbe1cdddf	-0.15319012
38	0x3d774cc6	0.06037595
39	0x3e07cf7f	0.13262747
40	0x3d23f280	0.040026188
41	0x3d32aac2	0.04361988
42	0xbd2c1314	-0.04201038
43	0xbdb26133	-0.087099455
44	0xbddacc3a	-0.106834844
45	0x3d992bc1	0.074790485
46	0xbdcc407f	-0.09973239
47	0xbe21cdeb	-0.15801208
48	0x3c5d921e	0.013523607
49	0xbe00dcc9	-0.12584223
50	0x3e17963d	0.14803405
51	0x3c9c2ae0	0.019063413
52	0x3dd20dfc	0.102565736
53	0x3e051c37	0.12999044
54	0xbdbac60e	-0.09119807
55	0xbd9c55d7	-0.0763356
56	0x3d837b8d	0.0642005
57	0x3e038893	0.12845068
58	0x3d93d7f1	0.07218922
59	0x3b61a580	0.003443092
60	0x3c4433ca	0.011975238
61	0xbe117eed	-0.14208575
62	0xbc736f2f	-0.014858051
63	0x3e105450	0.14094663
64	0x3c23bc96	0.009993693
65	0xbcfb06fe	-0.030642983
66	0x3dd1e762	0.10249211
67	0xbd8eefcc	-0.069793314
68	0xbd400449	-0.046879087
69	0xbd987f37	-0.07446139
70	0x3dbb980f	0.09159862
71	0x3cd82343	0.026384002
72	0xbdca6f0e	-0.09884463
73	0xbe10c410	-0.14137292
74	0xbc539b26	-0.012915408
75	0x3cd8eefc	0.026481144
76	0xbd1cbeb3	-0.038267802
77	0xbdc5813c	-0.0964379
78	0xbe006057	-0.1253675
79	0xbe01b0f0	-0.12665153
80	0xbd22fc7e	-0.039791577
81	0x3e06153c	0.13094038
82	0xbd188a72	-0.037241407
83	0xbcd75239	-0.026284324
84	0x3cd67c3f	0.026182292
85	0xbd8d7e9f	-0.06908917
86	0x3c287ecb	0.010284136
87	0xbd12be6d	-0.035826135
88	0xbdaf7f6c	-0.08569226
89	0xbd9ec9f2	-0.07753362
90	0x3c5f154f	0.01361592
91	0x3d9be0c9	0.07611234
92	0xbcd28302	-0.025697235
93	0x3dcc732e	0.09982906
94	0xbda04ecd	-0.0782753
95	0xbe06e693	-0.13173895
96	0x3d74b813	0.05974586
97	0xbd5c80e9	-0.053833876
98	0x3c1f4d8b	0.0097230775
99	0xbdd6090c	-0.10450944
100	0xbe0ee3fc	-0.13954157
101	0x3d3099c2	0.043115385
102	0xbe0277fc	-0.12741083
103	0x3d874630	0.06605184
104	0x3e0ce367	0.13758622
105	0xbc989007	-0.018623365
106	0xbc909354	-0.017648377
107	0xbe085e5a	-0.13317242
108	0xbe06565b	-0.1311888
109	0x3cbc016f	0.022949902
110	0x3d4d44e5	0.05011453
111	0xbdf16bdf	-0.11788153
112	0x3dfcb6b3	0.123395346
113	0xbd6c6cae	-0.057720833
114	0xbcec1e48	-0.028823033
115	0x3d8695ef	0.06571566
116	0xbd0c7fff	-0.034301754
117	0xbd55dcb1	-0.05221242
118	0xbd9d9ff2	-0.07696523
119	0x3d7f13e6	0.062274836
120	0x3d74eaf8	0.059794396
121	0xbdb3e812	-0.08784498
122	0xbdfc241a	-0.12311573
123	0xbd89eb34	-0.067343146
124	0x3e0f21af	0.13977693
125	0xbdf012af	-0.117223136
126	0xbd3a91d7	-0.04554924
127	0xbd4ef86c	-0.050529882
128	0x3d134041	0.03594995
129	0xbe12b946	-0.14328489
130	0x3e0dc346	0.13844022
131	0xbdf5cc84	-0.12001899
132	0x3dfc2886	0.12312417
133	0xbd3acb9a	-0.045604326
134	0x3d9e1971	0.07719696
135	0x3e11b63e	0.14229676
136	0xbda175ef	-0.07883822
137	0x3dc30398	0.0952217
138	0xbe028df4	-0.12749463
139	0x3d0286bf	0.031866785
140	0xbd87c6d5	-0.06629721
141	0xbd95b785	-0.07310394
142	0xbc888601	-0.01666546
143	0xbdfa9272	-0.122349635
144	0x3d14f537	0.036366668
145	0xbdf76310	-0.120794415
146	0x3ca758b9	0.020428048
147	0xbde149de	-0.11000417
148	0x3d8cb09e	0.068696246
149	0xbd16d0f0	-0.036820352
150	0x3cd570b5	0.02605472
151	0x3dcf9b88	0.10137087
152	0xbd534217	-0.0515767
153	0x3da32630	0.07966268
154	0x3dfa9d1f	0.12237
155	0xbb3a75b3	-0.0028451502
156	0xbd586235	-0.052828033
157	0x3cd57856	0.026058357
158	0xbc1dd372	-0.009632932
159	0x3d87dd06	0.06633954
160	0x3df25146	0.11831908
161	0xbc2d9ae5	-0.010596012
162	0xbc8c3b29	-0.017118054
163	0xbe1203bc	-0.14259237
164	0xbd01da1c	-0.031702146
165	0x3d9da518	0.07697505
166	0xbc309e52	-0.010779934
167	0x3dfb66de	0.1227548
168	0x3d98247d	0.074288346
169	0x3dc16a5d	0.09444115
170	0x3d3d0eec	0.04615681
171	0xbdb3ea1b	-0.087848864
172	0x3da05e76	0.07830517
173	0xbddb3a2e	-0.10704456
174	0x3d7489eb	0.05970184
175	0xbd44d368	-0.048053175
176	0xbd318234	-0.043337062
177	0x3e1270d1	0.14300849
178	0x3c1914eb	0.009343366
179	0x3e065426	0.13118038
180	0xbd968e43	-0.07351353
181	0xbd40d374	-0.047076657
182	0x3d7221a1	0.059114102
183	0xbc3e1145	-0.011600797
184	0xbd6f7b40	-0.05846715
185	0xbd339a40	-0.043848276
186	0x3c115f0f	0.008872761
187	0xbd875b4f	-0.066092126
188	0x3d57120b	0.05250744
189	0x3de6773f	0.11253213
190	0x3e0ba5e6	0.13637504
191	0xbd98bd34	-0.07457963
192	0xbc8265b0	-0.015917629
193	0xbe03594a	-0.1282703
194	0x3e170de7	0.14751397
195	0x3d61d3d7	0.055133667
196	0xbdc8d96d	-0.09807096
197	0xbd9ab1f7	-0.07553475
198	0x3dfc437e	0.123175606
199	0xbd9a1a21	-0.07524515
200	0xbe2a2922	-0.16617253
201	0x3dd4a728	0.10383445
202	0xbe46e94f	-0.19424938
203	0xbd93538b	-0.07193669
204	0x3e0455ad	0.12923308
205	0xbd4e4841	-0.050361875
206	0x3dd039f5	0.101673044
207	0xbd1897e8	-0.037254244
208	0x3e501c89	0.20323385
209	0xbdb28a22	-0.08717753
210	0xbd872712	-0.06599249
211	0xbde9b64e	-0.11411725
212	0x3d9628db	0.07332011
213	0xbdb1027d	-0.08643053
214	0xbd9e5c52	-0.077324525
215	0x3c0345cb	0.008012245
216	0xbc821d17	-0.015883012
217	0x3d1b6fd6	0.037948452
218	0x3e4e84b0	0.20167804
219	0x3e0b826b	0.1362397
220	0xbd3d03b8	-0.046146125
221	0xbd82ad22	-0.06380679
222	0x3d7e0207	0.062013652
223	0xbdee05e7	-0.116222195
224	0xbd8a2b8a	-0.06746586
225	0xbd81c5d6	-0.06336562
226	0x3e10e2ec	0.14149064
227	0x3ddeb2af	0.10873925
228	0x3e2a91ea	0.16657224
229	0x3da6709f	0.081269495
230	0xbe0cf77e	-0.13766286
231	0xbe061815	-0.13095124
232	0x3d9cbe13	0.07653441
233	0x3decea34	0.11568108
234	0xbe05a3b3	-0.13050728
235	0xbe1877f2	-0.14889506
236	0xbda4bd40	-0.08043909
237	0xbc91556b	-0.017740926
238	0x3dafc49b	0.085824214
239	0xbd041091	-0.03224236
240	0xbd92faf9	-0.071767755
241	0x3c866aca	0.016408343
242	0x3e0f97f4	0.1402281
243	0xbd871788	-0.06596285
244	0xbdaefdbd	-0.085444905
245	0x3da78b6d	0.0818089
246	0xbe012d03	-0.12614827
247	0xbe2823e8	-0.16419947
248	0xbdf2aa06	-0.11848836
249	0xbdd24c96	-0.10268514
250	0xbd4e2e39	-0.05033705
251	0xbdd34508	-0.10315901
252	0xbd09ae82	-0.03361369
253	0x3dfa9d02	0.12236978
254	0x3e105b53	0.14097337
255	0xbc9dee00	-0.019278526

lstm.weight_hh_l1 f4 [200, 50]
0	0x3bc4fbba	0.0060114535
1	0x3d834c36	0.064110205
2	0xbd94b9f4	-0.0726203
3	0x3e1c12fe	0.1524162
4	0x3e2480c6	0.16064748
5	0xbdbcd780	-0.09220791
6	0xbe18091d	-0.14847226
7	0xbd23d67c	-0.03999947
8	0xbc78b274	-0.015179265
9	0x3e230d15	0.15922959
10	0xbd174b06	-0.036936782
11	0x3d8f167d	0.06986711
12	0xbbab9c07	-0.005237106
13	0xbdb9cbf5	-0.09072105
14	0xbe03a3d3	-0.12855463
15	0x3c01959f	0.007909208
16	0xbe210551	-0.15724684
17	0x3de86ea3	0.11349227
18	0x3d19f5ff	0.037588116
19	0x3dbcb4dd	0.092141844
20	0xbd101b29	-0.035182152
21	0x3d326c4a	0.043560304
22	0xbd388769	-0.045051012
23	0x3ddd7bf9	0.108146615
24	0x3db30a54	0.08742204
25	0x3d9cc04f	0.076538675
26	0xbd94884e	-0.072525606
27	0x3df05d12	0.11736502
28	0xbe05ab29	-0.13053574
29	0x3be699a7	0.0070373598
30	0x3dfa6c2d	0.12227664
31	0x3dfb8c42	0.122826114
32	0xbd35f918	-0.044427007
33	0xbd3d44f2	-0.04620833
34	0xbdb6c9bc	-0.089251965
35	0xbd948df1	-0.07253636
36	0xbd202f5c	-0.039107665
37	0xbe01bfb9	-0.12670793
38	0x3c62d759	0.013845288
39	0xbce8e28f	-0.028428344
40	0xbc87540e	-0.016519573
41	0x3daf2a72	0.08553018
42	0x3dc23b74	0.09483996
43	0xbd78bbaa	-0.060725845
44	0xbddcb04c	-0.107758135
45	0x3ce20487	0.02759005
46	0xbd82d5fc	-0.063884705
47	0xbd631504	-0.055439964
48	0xbce70a75	-0.028203228
49	0x3e1f633e	0.15565202
50	0x3d9d84e6	0.07691364
51	0xbca0ab46	-0.01961292
52	0x3de5bbbe	0.112174496
53	0xb9e96a11	-0.0004452025
54	0x3deab0d8	0.114595115
55	0x3e18d512	0.1492503
56	0x3dcc9bea	0.09990676
57	0xbd721c53	-0.059109043
58	0xbd8a4307	-0.06751066
59	0x3d94c800	0.072647095
60	0x3dcea4a3	0.10089996
61	0xbbeac551	-0.007164635
62	0x3e17af4c	0.14812964
63	0x3df1cc4a	0.11806543
64	0x3ceed066	0.029152106
65	0xbd85ede7	-0.06539517
66	0x3cbd1bcd	0.023084546
67	0x3dbc81c0	0.09204435
68	0xbc88a6e1	-0.016681137
69	0xbce6316c	-0.028099738
70	0xbdf07bde	-0.11742376
71	0xbd0e2edc	-0.034712657
72	0x3d4a7e74	0.049437
73	0xbdfbf129	-0.12301857
74	0x3e01b92a	0.1266829
75	0xbd050872	-0.032478757
76	0x3d1dde51	0.038542096
77	0x3d8a4941	0.06752253
78	0xbdc9c07d	-0.09851167
79	0x3ac72457	0.0015193325
80	0x3db98709	0.09058959
81	0xbdb9f082	-0.09079076
82	0x3dca28e6	0.09871082
83	0xbdd84bdf	-0.10561346
84	0xbd85f1d5	-0.065402664
85	0x3d902a38	0.070393026
86	0xbdbc56e8	-0.091962636
87	0xbe16a2fb	-0.1471061
88	0x3d978d4f	0.07399999
89	0x3d9e64a9	0.07734043
90	0x3e154264	0.14576107
91	0xbdc5dfcb	-0.09661826
92	0xbd5f077c	-0.054450497
93	0x3cb02e9b	0.021506598
94	0x3d4c3fe0	0.049865603
95	0x3c47467d	0.012162802
96	0xbe103a43	-0.14084725
97	0xbda46775	-0.08027545
98	0x3df6b71e	0.120466456
99	0x3ccb1deb	0.02479454
100	0x3e11eeba	0.14251223
101	0xbdbdbe7d	-0.092648484
102	0xbe124bc1	-0.1428671
103	0xbd2f7dd4	-0.04284461
104	0xbdfd3c44	-0.123650104
105	0x3dab94ef	0.08378016
106	0x3cb82ad8	0.022481367
107	0x3d91ed28	0.07125312
108	0xbde43659	-0.111431785
109	0x3e084f74	0.13311559
110	0xbc0de3a0	-0.008660227
111	0xbbedd2ce	-0.007257796
112	0xbd87d702	-0.06632806
113	0x3d46b7ea	0.048515238
114	0x3e0dbeba	0.13842288
115	0xbe129e72	-0.14318255
116	0x3e0fe293	0.14051275
117	0xbd032b11	-0.032023493
118	0xbdfaa69f	-0.12238812
119	0xbde81355	-0.11331812
120	0xbc13d893	-0.009023803
121	0x3d008df1	0.031385366
122	0x3d5f28db	0.054482322
123	0x3d09b928	0.033623844
124	0x3da8428b	0.08215817
125	0x3de10334	0.10986939
126	0xbb0f6b9e	-0.0021884213
127	0xbdfcb07d	-0.1233835
128	0x3d84a793	0.06477275
129	0x3ddf642b	0.109077774
130	0xbdf33299	-0.11874885
131	0xbd87b544	-0.066263705
132	0x3e0ef0c3	0.13959031
133	0xbd806865	-0.06269912
134	0xbe0a8222	-0.13526204
135	0x3e1644a6	0.14674625
136	0xbdfe70b5	-0.12423841
137	0xbc38d171	-0.0112804035
138	0x3da0ebf8	0.078575075
139	0x3d6480de	0.05578696
140	0x3d494391	0.049136702
141	0xbda8ece4	-0.08248308
142	0x3ccd83d7	0.02508728
143	0xbcb8ca89	-0.022557514
144	0x3df4d248	0.119541705
145	0x3e2610f6	0.16217408
146	0x3c9eec0e	0.019399669
147	0x3d6a908b	0.057266753
148	0x3db33650	0.08750594
149	0xbdf6c466	-0.12049179
150	0x3dbc8610	0.09205258
151	0xbd57570a	-0.05257324
152	0xbe16780f	-0.14694236
153	0xbd5daa3b	-0.054117423
154	0xbdbe5527	-0.09293585
155	0x3d05d959	0.032677982
156	0x3e16cfa3	0.14727645
157	0x3dd0a1df	0.101871245
158	0xbde241ae	-0.11047684
159	0xbd3b7cce	-0.04577332
160	0x3d434e54	0.04768212
161	0x3ddefc31	0.108879454
162	0xbda94af7	-0.082662515
163	0x3d5575bb	0.05211423
164	0x3ab37225	0.0013690634
165	0x3c84066a	0.01611634
166	0xbe06c48a	-0.13160911
167	0x3dc8e950	0.09810126
168	0xbd815649	-0.06315286
169	0x3d52b429	0.051441345
170	0x3d3aeb6b	0.04563467
171	0x3dcf8b19	0.10133953
172	0xbc18f1e3	-0.009335014
173	0x3d564ebb	0.052321177
174	0xbe143fe3	-0.14477496
175	0x3de512c4	0.1118522
176	0xbd093560	-0.033498168
177	0xbd9fc2d7	-0.078008346
178	0x3dd7071a	0.104994014
179	0x3dd7a779	0.1052999
180	0x3dd47b72	0.10375108
181	0x3df7de5d	0.12102959
182	0x3cf267ca	0.029590506
183	0x3ce52e0b	0.027976057
184	0xbce35fb8	-0.027755603
185	0xbd60da4a	-0.054895677
186	0xbbfdc751	-0.0077447076
187	0xbd55f928	-0.052239567
188	0x3e1bf634	0.15230638
189	0x3db352fb	0.08756062
190	0xbc652ea2	-0.013988169
191	0x3cb36d44	0.021902688
192	0xbbdca959	-0.006734055
193	0xbd58679f	-0.052833196
194	0xbd0a4b04	-0.033762947
195	0x3dbe029a	0.0927784
196	0x3c3e0c49	0.011599609
197	0xbd984a1a	-0.07436009
198	0xbde580cd	-0.112062074
199	0x3dabbf3b	0.08386084
200	0x3d573cc0	0.05254817
201	0xbe01d9b4	-0.12680703
202	0x3e093cb1	0.13402058
203	0xbc04735d	-0.008084145
204	0xbda9adac	-0.082850784
205	0xbe193df0	-0.14965034
206	0x3e07a2d9	0.13245715
207	0xbdd961cb	-0.10614356
208	0x3d92e1fa	0.07172008
209	0xbd7785ac	-0.060430214
210	0x3d598afa	0.053111054
211	0xbc141610	-0.009038463
212	0xbde068ee	-0.10957514
213	0xbb13766f	-0.0022501012
214	0x3e12134d	0.14265175
215	0x3d1f1710	0.038840353
216	0x3daa3962	0.08311726
217	0x3d6bfdd9	0.057615135
218	0x3cf7a9b6	0.030232292
219	0x3dced172	0.10098542
220	0x3df79868	0.12089616
221	0xbdafeeac	-0.08590445
222	0xbe0f6229	-0.14002289
223	0xbda27904	-0.07933238
224	0x3e246601	0.16054536
225	0xbdbb9cdc	-0.09160778
226	0xbdfe7205	-0.12424091
227	0x3dad3086	0.08456521
228	0xbd01776f	-0.03160804
229	0xbdb622ce	-0.08893357
230	0x3dd53adc	0.10411617
231	0x3d6bc6ee	0.05756276
232	0xbe0178f0	-0.1264379
233	0xbc79de4e	-0.0152507555
234	0xbc69f332	-0.014279174
235	0xbdc3f5cc	-0.095683664
236	0xbd487960	-0.048943877
237	0xbdabfc27	-0.083977036
238	0x3c9fae3c	0.019492261
239	0xbe043dac	-0.12914151
240	0xbd990181	-0.0747099
241	0x3b1044d8	0.002201369
242	0x3d9dad2c	0.076990455
243	0xbe0e49cf	-0.13895343
244	0x3df4e66a	0.119580105
245	0x3d07392f	0.03301352
246	0x3d7e67fe	0.062110893
247	0xbbcd8b31	-0.0062726964
248	0x3d9cf2c4	0.07663491
249	0xbdea977e	-0.11454676
250	0x3de4fd6c	0.11181149
251	0xbd1515d9	-0.03639779
252	0x3ddb0350	0.10693991
253	0xbd91cec3	-0.07119515
254	0x3dbd5fd4	0.092467934
255	0xbde4fc78	-0.11180967

lstm.bias_ih_l1 f4 [200]
0	0xbda9f98c	-0.082995504
1	0x3df2ffa1	0.118651636
2	0x3dcd6ae4	0.100301534
3	0xbc575b62	-0.013144346
4	0xbda1cff9	-0.07900996
5	0x3d2b45b4	0.04181452
6	0x3e0e75ee	0.13912174
7	0xbd34ae3f	-0.044111487
8	0x3db6dcd0	0.089288354
9	0x3dd55f91	0.104186185
10	0x3d9b8161	0.075930364
11	0xbdcb6378	-0.099310815
12	0xbdf8d3f0	-0.12149799
13	0xbc439685	-0.011937742
14	0x3d999c51	0.07500518
15	0x3cb9de19	0.022688912
16	0x3c2790e1	0.010227413
17	0x3cbd102c	0.023079
18	0x3df215ce	0.11820565
19	0xbe0f1f4b	-0.13976781
20	0x3dfcfbc2	0.123527065
21	0xbd91fd5f	-0.07128405
22	0xbdd46ab9	-0.10371918
23	0x3db2ea32	0.087360755
24	0x3e00d587	0.12581454
25	0x3d61cae8	0.055125147
26	0x3d1b06d8	0.037848324
27	0xbd0d3267	-0.034471896
28	0x3dfdeea6	0.12399034
29	0x3d9d60fa	0.076845124
30	0x3c2dba20	0.010603458
31	0x3dc61036	0.09671061
32	0xbde31eb3	-0.1108984
33	0xbd8988d7	-0.06715553
34	0xbd7a79ee	-0.061151437
35	0x3da5ca32	0.08095206
36	0xbdcb5486	-0.09928231
37	0x3d07f2eb	0.03319065
38	0xbe00791d	-0.12546201
39	0xbdf8411a	-0.12121792
40	0xbd87e65e	-0.06635736
41	0x3d101433	0.035175513
42	0x3c9f69b0	0.019459575
43	0xbdf5536a	-0.119788006
44	0x3a9b486f	0.0011847148
45	0xbd8cf334	-0.06882325
46	0xbbf3140e	-0.007418162
47	0x3cb01824	0.021495886
48	0x3df529b6	0.11970846
49	0x3c2f128f	0.010685577
50	0x3da4d162	0.08047749
51	0x3bf94bcd	0.007607913
52	0x3e01c08d	0.12671109
53	0x3d21993a	0.03945277
54	0x3d0865fc	0.033300385
55	0xbc8cbd21	-0.017180027
56	0xbd056d4e	-0.032574944
57	0xbcbd406a	-0.023102004
58	0x3e011dcb	0.12609021
59	0xbd2501d8	-0.04028496
60	0x3ca20217	0.019776387
61	0x3d53a101	0.051667217
62	0xbc549777	-0.012975565
63	0xbe060708	-0.1308862
64	0x3e05a983	0.13052945
65	0x3c95073f	0.018191932
66	0x3d1b7b90	0.037959635
67	0x3d844470	0.06458366
68	0x3cfa1e01	0.030531885
69	0xbcb9b778	-0.022670493
70	0xbe0419ab	-0.12900417
71	0x3c2c7956	0.010526976
72	0xbd815581	-0.06315137
73	0x3d21bdad	0.03948753
74	0x3cc955cb	0.024577042
75	0x3dab242d	0.08356509
76	0x3e00ad48	0.12566102
77	0x3d910b1b	0.07082196
78	0xbd7096b6	-0.05873748
79	0x3deb2915	0.11482445
80	0xbd0252b1	-0.031817142
81	0xbe05c876	-0.13064751
82	0xbd082e34	-0.033247188
83	0xbdc70fac	-0.09719786
84	0xbd161cee	-0.036648683
85	0xbde8ad2d	-0.11361156
86	0xbdef81de	-0.11694692
87	0x3db12016	0.08648698
88	0xbb9a93f5	-0.004717345
89	0x3d9f984b	0.077927195
90	0x3ce60f5b	0.028083494
91	0x3cd37887	0.025814308
92	0xba934608	-0.0011236081
93	0xbe06c7ac	-0.13162106
94	0x3ddb4c8e	0.10707961
95	0x3dc78f20	0.09744096
96	0xbe01efee	-0.12689182
97	0x3dabbf0f	0.08386051
98	0x3d814f03	0.063138984
99	0xbce004dc	-0.027346067
100	0x3db72e5f	0.089443915
101	0x3dc70cfc	0.097192734
102	0xbdfa1f50	-0.12213004
103	0x3c985199	0.018593596
104	0x3c8d0fda	0.017219473
105	0x3d9f1162	0.077669874
106	0xbda70641	-0.0815549
107	0x3e04e4c0	0.12977886
108	0x3e16988b	0.14706628
109	0xbd6f277b	-0.05838726
110	0x3d053ed2	0.032530613
111	0x3dfc0456	0.123055145
112	0x3d193047	0.037399556
113	0xbd080202	-0.03320504
114	0xbd840ac5	-0.064473666
115	0x3e155f9e	0.14587256
116	0x3d45facb	0.048334878
117	0xbc0951b3	-0.008381295
118	0x3dde31eb	0.10849365
119	0xbdb5c8a7	-0.08876162
120	0xbd6e2463	-0.05814017
121	0x3d1196a5	0.035544056
122	0x3e1518ef	0.14560293
123	0xbdd12626	-0.10212354
124	0xbdc6beda	-0.09704371
125	0xbe03d47d	-0.12874027
126	0x3d5a9559	0.053365085
127	0xbd822bdd	-0.063560225
128	0xbc883fa7	-0.016631914
129	0x3d977c5f	0.07396769
130	0xbd381488	-0.044941455
131	0x3cba0fc7	0.022712601
132	0xbdfc1163	-0.12308004
133	0xbe06b17f	-0.13153647
134	0x3dcf0cd7	0.10109871
135	0xbd3bdf70	-0.045867383
136	0xbd3347c9	-0.04376963
137	0xbdfa6043	-0.12225392
138	0xbd22dae4	-0.03975953
139	0xbdb7e62c	-0.08979449
140	0x3cc8316f	0.024437634
141	0xbd831f9b	-0.06402513
142	0xbdadb991	-0.084826596
143	0xbdfa1553	-0.122110985
144	0x3ce210c5	0.027595887
145	0x3de8e1fa	0.113712266
146	0xbd2b5baa	-0.041835465
147	0x3d3e2631	0.04642314
148	0x3d1de7a7	0.038551
149	0x3c0b38e0	0.008497447
150	0xbdbe399e	-0.09288333
151	0x3d721f82	0.05911208
152	0xbd5e0cde	-0.05421149
153	0xbc4c8ebe	-0.012485204
154	0xbdc5fc36	-0.09667246
155	0xbde207d5	-0.1103665
156	0xbe07d32a	-0.13264146
157	0x3d3eec66	0.046612166
158	0x3cc2b987	0.023770107
159	0x3db5bc69	0.08873827
160	0xbd707c55	-0.058712322
161	0xbdebb96b	-0.11509975
162	0x3dd34f22	0.10317828
163	0x3dffefce	0.12496911
164	0xbdbea593	-0.093089245
165	0x3e0b10b3	0.13580589
166	0x3d98a967	0.07454186
167	0x3d6126a7	0.054968502
168	0xbd1f63a5	-0.038913388
169	0xbdb906df	-0.09034514
170	0xbd2d6aa5	-0.042338032
171	0xbd50becf	-0.05096322
172	0xbda0b07e	-0.07846163
173	0xbc208bc4	-0.009798948
174	0xbc2d89ec	-0.010591965
175	0x3d805985	0.062670745
176	0x3b4d92e0	0.0031368062
177	0xbcd7d659	-0.026347326
178	0xbb7c42ed	-0.003849204
179	0xbdf689bb	-0.12037989
180	0x3dfc74b9	0.123269506
181	0xbd8c9f5a	-0.068663314
182	0xbc443bd7	-0.011977158
183	0xbdf956ad	-0.12174735
184	0x3e101dac	0.14073819
185	0xbd687059	-0.056747768
186	0xbc1030c1	-0.008800686
187	0xbd218efb	-0.039442997
188	0xbd16ed37	-0.03684732
189	0x3db1cb1a	0.08681317
190	0x3dec4eac	0.11538443
191	0xbd44290f	-0.04789072
192	0x3dfa8e60	0.12234187
193	0x3dca236a	0.09870036
194	0xbd96412a	-0.07336648
195	0x3d5e19fa	0.054223992
196	0xbd951123	-0.07278659
197	0x3cad4fad	0.021156156
198	0xbb3ec59d	-0.0029109486
199	0x3e0f12f6	0.13972077

lstm.bias_hh_l1 f4 [200]
0	0x3dad9e40	0.084774494
1	0x3d1eb19f	0.03874361
2	0x3df3f224	0.11911419
3	0x3e05d73a	0.13070384
4	0xbd264237	-0.04059049
5	0xbdeefd03	-0.11669352
6	0x3e064a82	0.1311436
7	0x3ddf6221	0.109073885
8	0xbdcad2f1	-0.09903515
9	0xbd5c2013	-0.053741526
10	0x3d8b33c3	0.06796982
11	0x3d62c833	0.055366706
12	0x3df51712	0.11967291
13	0x3e0acfd8	0.13555849
14	0x3dceb561	0.10093189
15	0x3bcc002d	0.006225607
16	0x3d4992f2	0.049212404
17	0xbdf9d322	-0.121984735
18	0x3c1f524b	0.00972421
19	0x3df98565	0.12183646
20	0xbcc92386	-0.024553072
21	0x3da20845	0.079117335
22	0x3e0b8720	0.13625765
23	0xbd97006c	-0.07373127
24	0x3d9bea9a	0.07613106
25	0xbd6bc314	-0.057559088
26	0x3d0e9890	0.034813464
27	0x3d1a0704	0.037604347
28	0x3d6a3c89	0.057186637
29	0x3cc65b52	0.024213467
30	0x3d015cf6	0.031582795
31	0x3d9e53be	0.07730816
32	0x3dadc31b	0.08484479
33	0xbd055e44	-0.0325606
34	0x3cab7517	0.020929856
35	0x3d912704	0.0708752
36	0xbcbc22b8	-0.022965774
37	0x3de056ea	0.109540775
38	0xbddc8f26	-0.10769491
39	0x3d093fa9	0.033507977
40	0xbc4896c1	-0.012242974
41	0xbbf2ebc3	-0.007413359
42	0xbd85f4ab	-0.06540807
43	0x3dacd747	0.084394984
44	0x3d9f1cd6	0.07769172
45	0x3db1792c	0.0866569
46	0x3d478d89	0.048718963
47	0xbdd1b89b	-0.10240289
48	0x3c8f4ce4	0.017492719
49	0xbda44cb6	-0.08022444
50	0xbd24b531	-0.04021186
51	0x3cb7e983	0.022450214
52	0xbe04e945	-0.1297961
53	0x3ddf3f76	0.10900776
54	0xbe0524a5	-0.1300226
55	0x3d2acfb6	0.041701995
56	0x3db9c3c2	0.09070541
57	0x3da7ffc0	0.08203077
58	0xbd4a4491	-0.049381796
59	0xbdc592d9	-0.096471496
60	0x3d2d7e6b	0.04235689
61	0x3dc19541	0.09452296
62	0xbd7152c2	-0.058916815
63	0xbcc9501a	-0.024574328
64	0xbca77d2d	-0.02044543
65	0xbcc0d996	-0.023541253
66	0x3cb314c5	0.02186049
67	0xbca66e46	-0.020316254
68	0xbdc8087d	-0.09767244
69	0x3dbf1bf3	0.09331503
70	0x3dabaa29	0.08382065
71	0x3dba1b55	0.090872444
72	0x3e136aa8	0.14396155
73	0xbdd65ab3	-0.10466518
74	0x3d99c911	0.075090535
75	0x3c960692	0.01831368
76	0x3ccf2ad4	0.025288977
77	0x3dfa4f8d	0.12222204
78	0x3c38f336	0.011288455
79	0x3d6c724d	0.057726193
80	0xbdedc092	-0.116089955
81	0xbd72412c	-0.059144184
82	0xbde6b712	-0.11265387
83	0x3de5c4ff	0.11219215
84	0x3d910e53	0.0708281
85	0x3bc5c97b	0.0060359812
86	0x3db75a45	0.089527644
87	0x3c962126	0.018326353
88	0x3dcd3f5c	0.100218505
89	0xbe05f654	-0.13082248
90	0x3de300c1	0.11084128
91	0xbdfa24d2	-0.12214054
92	0xbdc3b425	-0.09555844
93	0xbd6a19b0	-0.057153404
94	0x3db05672	0.08610238
95	0x3bfc8c1f	0.0077071334
96	0xbde43690	-0.111432195
97	0xbdc97bed	-0.0983809
98	0x3ae97f11	0.0017814358
99	0x3df2bd13	0.11852469
100	0xbbc321fc	-0.005954979
101	0xbd8df85c	-0.069321364
102	0xbe17cf6f	-0.14825223
103	0xbd9b348c	-0.07578382
104	0xbb848e5e	-0.004045292
105	0xbdf5d4c9	-0.12003476
106	0xbd537d2e	-0.051633053
107	0xbe03483a	-0.12820521
108	0xbc43f5d0	-0.011960462
109	0x3ca581c6	0.020203482
110	0xbdc0ffe2	-0.09423806
111	0xbc1d15a5	-0.00958768
112	0x3cdb4f34	0.026771165
113	0xbd3a1702	-0.0454321
114	0x3cfc73d2	0.030816946
115	0x3db11a63	0.08647611
116	0xbc99a350	-0.018754631
117	0x3d741f69	0.059600268
118	0xbdc0c5b9	-0.094127126
119	0x3c86755d	0.016413385
120	0x3dc3b388	0.09555727
121	0xbdd4ed40	-0.10396814
122	0x3d93f710	0.07224858
123	0xbbaac989	-0.005212013
124	0xbe0dc99a	-0.13846436
125	0xbd84b86b	-0.064804874
126	0xbc9aa7d0	-0.018878847
127	0x3d4cb780	0.049979687
128	0xbddee101	-0.1088276
129	0x3dbda94f	0.09260809
130	0x3d4735aa	0.048635162
131	0xbe06fa07	-0.13181315
132	0x3d006b9e	0.03135263
133	0xbdf8c3a0	-0.121466875
134	0x3dac8719	0.08424205
135	0xbc186b7c	-0.00930297
136	0x3d117651	0.035513226
137	0xbbe0d1c2	-0.0068609426
138	0xbdafb2b7	-0.08579009
139	0xbb28762f	-0.0025705209
140	0x3da171e0	0.07883048
141	0x3d724d1f	0.05915558
142	0xbd58f1ae	-0.05296486
143	0x3d7268e6	0.05918207
144	0x3e039541	0.12849905
145	0x3d340a99	0.04395542
146	0xbd82e5f9	-0.0639152
147	0xbc1cf273	-0.009579289
148	0x3dd12b4c	0.10213336
149	0x3d487d79	0.048947785
150	0x3d5a6058	0.053314537
151	0x3db4b5b3	0.08823719
152	0x3df68589	0.120371886
153	0xbc88e101	-0.016708853
154	0x3cd4ea8c	0.025990747
155	0x3de15a3a	0.110035375
156	0xbddb440f	-0.107063405
157	0xbde218b8	-0.11039871
158	0x3bc1cba8	0.0059141703
159	0x3dc188cd	0.09449921
160	0xbde13a2c	-0.109974235
161	0xbde0bd89	-0.10973651
162	0x3d8ebbb6	0.06969397
163	0x3e0f51d4	0.13996059
164	0x3c060adc	0.0081813
165	0x3e0201de	0.12696025
166	0x3d8319a2	0.064013734
167	0xbd080d49	-0.033215795
168	0x3d9203f6	0.07129662
169	0xbdd7ba32	-0.10533561
170	0xbd32ab35	-0.043620307
171	0x3c9acb81	0.018895866
172	0x3d8de4ce	0.06928407
173	0xbdc8b0d4	-0.09799352
174	0xbd9f5415	-0.07779709
175	0xbd9d74cc	-0.07688293
176	0xbdcb92ba	-0.09940095
177	0xbdbf07f8	-0.09327692
178	0x3d65cc1d	0.05610286
179	0xbdffaecd	-0.124845125
180	0xbca0201e	-0.019546565
181	0xbdbb19b0	-0.09135759
182	0x3e054b17	0.13016926
183	0xbd3e4f9a	-0.046462633
184	0xbbc2dafc	-0.005946515
185	0x3de2d93f	0.11076593
186	0xbd21a92b	-0.03946797
187	0x3dce5620	0.10075021
188	0xbe16786c	-0.14694375
189	0x3d4a0c29	0.049328003
190	0x3e0fe5f9	0.14052571
191	0xbd865569	-0.065592594
192	0xbd3e4ae3	-0.046458136
193	0xbd9e0044	-0.077148944
194	0x3cb9ec94	0.022695817
195	0xbdeb57ac	-0.114913315
196	0x3d478586	0.048711322
197	0xbd5c167e	-0.053732388
198	0xbd83954a	-0.06424959
199	0x3e10b2e2	0.14130738

attention.attention.weight f4 [1, 50]
0	0x3cdda19d	0.027054602
1	0xbdbc16a1	-0.091840036
2	0xbe340ad3	-0.17582254
3	0x3dc67428	0.09690124
4	0x3d246be8	0.04014197
5	0x3e5cd36e	0.21565029
6	0x3e825ed2	0.25462967
7	0x3e66e806	0.22549447
8	0x3cf2c300	0.029633999
9	0xbe842483	-0.25809106
10	0x3e897664	0.26848137
11	0x3aa2da54	0.0012424686
12	0xbe9a8871	-0.30182222
13	0x3e0fcc38	0.14042747
14	0xba7b29f6	-0.0009581143
15	0x3e301840	0.1719675
16	0xbb2bbc0d	-0.0026204616
17	0x3eb00e08	0.34385705
18	0xbe82c131	-0.25538018
19	0xbeac8db0	-0.3370185
20	0x3ea54397	0.3227813
21	0x3e6f7856	0.23385748
22	0x3e2fc007	0.17163096
23	0xbea962d2	-0.33083206
24	0xbda29192	-0.079379216
25	0x3e8a77ed	0.2704462
26	0xbe838874	-0.25690043
27	0xbe4a9937	-0.1978501
28	0xbe53e8ee	-0.20694324
29	0xbccf195a	-0.025280643
30	0x3e6ef33d	0.23334976
31	0xbeb2be51	-0.34910825
32	0xbe6463e3	-0.22303729
33	0x3cbd8738	0.023135766
34	0x3c0df1c7	0.008663601
35	0x3e9b9711	0.30388692
36	0xbcf1cc28	-0.029516295
37	0xbe5e561d	-0.21712537
38	0xbd8f7895	-0.07005421
39	0x3dad2a0c	0.084552854
40	0xbe843244	-0.258196
41	0x3ddf55b8	0.109050214
42	0x3e87da59	0.26533774
43	0xbdb40b87	-0.08791261
44	0x3e338b39	0.17533578
45	0x3d7bcf35	0.061476905
46	0xbdb20393	-0.08692088
47	0x3d399b40	0.045314074
48	0x3d1e0ffd	0.038589466
49	0xbe813b7a	-0.2524069
